WARNING: Logging before InitGoogleLogging() is written to STDERR
I1019 22:44:00.749218 23716 net.cpp:50] Initializing net from parameters: 
input: "data"
state {
  phase: TEST
}
input_shape {
  dim: 1
  dim: 3
  dim: 320
  dim: 320
}
layer {
  name: "conv1/7x7_s2"
  type: "Convolution"
  bottom: "data"
  top: "conv1/7x7_s2"
  param {
    lr_mult: 0.25
    decay_mult: 1
  }
  param {
    lr_mult: 0.5
    decay_mult: 0
  }
  convolution_param {
    num_output: 64
    pad: 3
    kernel_size: 7
    group: 1
    stride: 2
  }
}
layer {
  name: "conv1/relu_7x7"
  type: "ReLU"
  bottom: "conv1/7x7_s2"
  top: "conv1/7x7_s2"
}
layer {
  name: "pool1/3x3_s2"
  type: "Pooling"
  bottom: "conv1/7x7_s2"
  top: "pool1/3x3_s2"
  pooling_param {
    pool: MAX
    kernel_size: 3
    stride: 2
    pad: 0
  }
}
layer {
  name: "conv2/3x3_reduce"
  type: "Convolution"
  bottom: "pool1/3x3_s2"
  top: "conv2/3x3_reduce"
  param {
    lr_mult: 0.25
    decay_mult: 1
  }
  param {
    lr_mult: 0.5
    decay_mult: 0
  }
  convolution_param {
    num_output: 64
    pad: 0
    kernel_size: 1
    group: 1
    stride: 1
  }
}
layer {
  name: "conv2/relu_3x3_reduce"
  type: "ReLU"
  bottom: "conv2/3x3_reduce"
  top: "conv2/3x3_reduce"
}
layer {
  name: "conv2/3x3"
  type: "Convolution"
  bottom: "conv2/3x3_reduce"
  top: "conv2/3x3"
  param {
    lr_mult: 0.25
    decay_mult: 1
  }
  param {
    lr_mult: 0.5
    decay_mult: 0
  }
  convolution_param {
    num_output: 192
    pad: 1
    kernel_size: 3
    group: 1
    stride: 1
  }
}
layer {
  name: "conv2/relu_3x3"
  type: "ReLU"
  bottom: "conv2/3x3"
  top: "conv2/3x3"
}
layer {
  name: "pool2/3x3_s2"
  type: "Pooling"
  bottom: "conv2/3x3"
  top: "pool2/3x3_s2"
  pooling_param {
    pool: MAX
    kernel_size: 3
    stride: 2
    pad: 0
  }
}
layer {
  name: "inception_3a/1x1"
  type: "Convolution"
  bottom: "pool2/3x3_s2"
  top: "inception_3a/1x1"
  param {
    lr_mult: 0.25
    decay_mult: 1
  }
  param {
    lr_mult: 0.5
    decay_mult: 0
  }
  convolution_param {
    num_output: 64
    pad: 0
    kernel_size: 1
    group: 1
    stride: 1
  }
}
layer {
  name: "inception_3a/relu_1x1"
  type: "ReLU"
  bottom: "inception_3a/1x1"
  top: "inception_3a/1x1"
}
layer {
  name: "inception_3a/3x3_reduce"
  type: "Convolution"
  bottom: "pool2/3x3_s2"
  top: "inception_3a/3x3_reduce"
  param {
    lr_mult: 0.25
    decay_mult: 1
  }
  param {
    lr_mult: 0.5
    decay_mult: 0
  }
  convolution_param {
    num_output: 96
    pad: 0
    kernel_size: 1
    group: 1
    stride: 1
  }
}
layer {
  name: "inception_3a/relu_3x3_reduce"
  type: "ReLU"
  bottom: "inception_3a/3x3_reduce"
  top: "inception_3a/3x3_reduce"
}
layer {
  name: "inception_3a/3x3"
  type: "Convolution"
  bottom: "inception_3a/3x3_reduce"
  top: "inception_3a/3x3"
  param {
    lr_mult: 0.25
    decay_mult: 1
  }
  param {
    lr_mult: 0.5
    decay_mult: 0
  }
  convolution_param {
    num_output: 128
    pad: 1
    kernel_size: 3
    group: 1
    stride: 1
  }
}
layer {
  name: "inception_3a/relu_3x3"
  type: "ReLU"
  bottom: "inception_3a/3x3"
  top: "inception_3a/3x3"
}
layer {
  name: "inception_3a/5x5_reduce"
  type: "Convolution"
  bottom: "pool2/3x3_s2"
  top: "inception_3a/5x5_reduce"
  param {
    lr_mult: 0.25
    decay_mult: 1
  }
  param {
    lr_mult: 0.5
    decay_mult: 0
  }
  convolution_param {
    num_output: 16
    pad: 0
    kernel_size: 1
    group: 1
    stride: 1
  }
}
layer {
  name: "inception_3a/relu_5x5_reduce"
  type: "ReLU"
  bottom: "inception_3a/5x5_reduce"
  top: "inception_3a/5x5_reduce"
}
layer {
  name: "inception_3a/5x5"
  type: "Convolution"
  bottom: "inception_3a/5x5_reduce"
  top: "inception_3a/5x5"
  param {
    lr_mult: 0.25
    decay_mult: 1
  }
  param {
    lr_mult: 0.5
    decay_mult: 0
  }
  convolution_param {
    num_output: 32
    pad: 2
    kernel_size: 5
    group: 1
    stride: 1
  }
}
layer {
  name: "inception_3a/relu_5x5"
  type: "ReLU"
  bottom: "inception_3a/5x5"
  top: "inception_3a/5x5"
}
layer {
  name: "inception_3a/pool"
  type: "Pooling"
  bottom: "pool2/3x3_s2"
  top: "inception_3a/pool"
  pooling_param {
    pool: MAX
    kernel_size: 3
    stride: 1
    pad: 1
  }
}
layer {
  name: "inception_3a/pool_proj"
  type: "Convolution"
  bottom: "inception_3a/pool"
  top: "inception_3a/pool_proj"
  param {
    lr_mult: 0.25
    decay_mult: 1
  }
  param {
    lr_mult: 0.5
    decay_mult: 0
  }
  convolution_param {
    num_output: 32
    pad: 0
    kernel_size: 1
    group: 1
    stride: 1
  }
}
layer {
  name: "inception_3a/relu_pool_proj"
  type: "ReLU"
  bottom: "inception_3a/pool_proj"
  top: "inception_3a/pool_proj"
}
layer {
  name: "inception_3a/output"
  type: "Concat"
  bottom: "inception_3a/1x1"
  bottom: "inception_3a/3x3"
  bottom: "inception_3a/5x5"
  bottom: "inception_3a/pool_proj"
  top: "inception_3a/output"
}
layer {
  name: "inception_3b/1x1"
  type: "Convolution"
  bottom: "inception_3a/output"
  top: "inception_3b/1x1"
  param {
    lr_mult: 0.25
    decay_mult: 1
  }
  param {
    lr_mult: 0.5
    decay_mult: 0
  }
  convolution_param {
    num_output: 128
    pad: 0
    kernel_size: 1
    group: 1
    stride: 1
  }
}
layer {
  name: "inception_3b/relu_1x1"
  type: "ReLU"
  bottom: "inception_3b/1x1"
  top: "inception_3b/1x1"
}
layer {
  name: "inception_3b/3x3_reduce"
  type: "Convolution"
  bottom: "inception_3a/output"
  top: "inception_3b/3x3_reduce"
  param {
    lr_mult: 0.25
    decay_mult: 1
  }
  param {
    lr_mult: 0.5
    decay_mult: 0
  }
  convolution_param {
    num_output: 128
    pad: 0
    kernel_size: 1
    group: 1
    stride: 1
  }
}
layer {
  name: "inception_3b/relu_3x3_reduce"
  type: "ReLU"
  bottom: "inception_3b/3x3_reduce"
  top: "inception_3b/3x3_reduce"
}
layer {
  name: "inception_3b/3x3"
  type: "Convolution"
  bottom: "inception_3b/3x3_reduce"
  top: "inception_3b/3x3"
  param {
    lr_mult: 0.25
    decay_mult: 1
  }
  param {
    lr_mult: 0.5
    decay_mult: 0
  }
  convolution_param {
    num_output: 192
    pad: 1
    kernel_size: 3
    group: 1
    stride: 1
  }
}
layer {
  name: "inception_3b/relu_3x3"
  type: "ReLU"
  bottom: "inception_3b/3x3"
  top: "inception_3b/3x3"
}
layer {
  name: "inception_3b/5x5_reduce"
  type: "Convolution"
  bottom: "inception_3a/output"
  top: "inception_3b/5x5_reduce"
  param {
    lr_mult: 0.25
    decay_mult: 1
  }
  param {
    lr_mult: 0.5
    decay_mult: 0
  }
  convolution_param {
    num_output: 32
    pad: 0
    kernel_size: 1
    group: 1
    stride: 1
  }
}
layer {
  name: "inception_3b/relu_5x5_reduce"
  type: "ReLU"
  bottom: "inception_3b/5x5_reduce"
  top: "inception_3b/5x5_reduce"
}
layer {
  name: "inception_3b/5x5"
  type: "Convolution"
  bottom: "inception_3b/5x5_reduce"
  top: "inception_3b/5x5"
  param {
    lr_mult: 0.25
    decay_mult: 1
  }
  param {
    lr_mult: 0.5
    decay_mult: 0
  }
  convolution_param {
    num_output: 96
    pad: 2
    kernel_size: 5
    group: 1
    stride: 1
  }
}
layer {
  name: "inception_3b/relu_5x5"
  type: "ReLU"
  bottom: "inception_3b/5x5"
  top: "inception_3b/5x5"
}
layer {
  name: "inception_3b/pool"
  type: "Pooling"
  bottom: "inception_3a/output"
  top: "inception_3b/pool"
  pooling_param {
    pool: MAX
    kernel_size: 3
    stride: 1
    pad: 1
  }
}
layer {
  name: "inception_3b/pool_proj"
  type: "Convolution"
  bottom: "inception_3b/pool"
  top: "inception_3b/pool_proj"
  param {
    lr_mult: 0.25
    decay_mult: 1
  }
  param {
    lr_mult: 0.5
    decay_mult: 0
  }
  convolution_param {
    num_output: 64
    pad: 0
    kernel_size: 1
    group: 1
    stride: 1
  }
}
layer {
  name: "inception_3b/relu_pool_proj"
  type: "ReLU"
  bottom: "inception_3b/pool_proj"
  top: "inception_3b/pool_proj"
}
layer {
  name: "inception_3b/output"
  type: "Concat"
  bottom: "inception_3b/1x1"
  bottom: "inception_3b/3x3"
  bottom: "inception_3b/5x5"
  bottom: "inception_3b/pool_proj"
  top: "inception_3b/output"
}
layer {
  name: "pool3/3x3_s2"
  type: "Pooling"
  bottom: "inception_3b/output"
  top: "pool3/3x3_s2"
  pooling_param {
    pool: MAX
    kernel_size: 3
    stride: 2
    pad: 0
  }
}
layer {
  name: "inception_4a/1x1"
  type: "Convolution"
  bottom: "pool3/3x3_s2"
  top: "inception_4a/1x1"
  param {
    lr_mult: 0.25
    decay_mult: 1
  }
  param {
    lr_mult: 0.5
    decay_mult: 0
  }
  convolution_param {
    num_output: 192
    pad: 0
    kernel_size: 1
    group: 1
    stride: 1
  }
}
layer {
  name: "inception_4a/relu_1x1"
  type: "ReLU"
  bottom: "inception_4a/1x1"
  top: "inception_4a/1x1"
}
layer {
  name: "inception_4a/3x3_reduce"
  type: "Convolution"
  bottom: "pool3/3x3_s2"
  top: "inception_4a/3x3_reduce"
  param {
    lr_mult: 0.25
    decay_mult: 1
  }
  param {
    lr_mult: 0.5
    decay_mult: 0
  }
  convolution_param {
    num_output: 96
    pad: 0
    kernel_size: 1
    group: 1
    stride: 1
  }
}
layer {
  name: "inception_4a/relu_3x3_reduce"
  type: "ReLU"
  bottom: "inception_4a/3x3_reduce"
  top: "inception_4a/3x3_reduce"
}
layer {
  name: "inception_4a/3x3"
  type: "Convolution"
  bottom: "inception_4a/3x3_reduce"
  top: "inception_4a/3x3"
  param {
    lr_mult: 0.25
    decay_mult: 1
  }
  param {
    lr_mult: 0.5
    decay_mult: 0
  }
  convolution_param {
    num_output: 208
    pad: 1
    kernel_size: 3
    group: 1
    stride: 1
  }
}
layer {
  name: "inception_4a/relu_3x3"
  type: "ReLU"
  bottom: "inception_4a/3x3"
  top: "inception_4a/3x3"
}
layer {
  name: "inception_4a/5x5_reduce"
  type: "Convolution"
  bottom: "pool3/3x3_s2"
  top: "inception_4a/5x5_reduce"
  param {
    lr_mult: 0.25
    decay_mult: 1
  }
  param {
    lr_mult: 0.5
    decay_mult: 0
  }
  convolution_param {
    num_output: 16
    pad: 0
    kernel_size: 1
    group: 1
    stride: 1
  }
}
layer {
  name: "inception_4a/relu_5x5_reduce"
  type: "ReLU"
  bottom: "inception_4a/5x5_reduce"
  top: "inception_4a/5x5_reduce"
}
layer {
  name: "inception_4a/5x5"
  type: "Convolution"
  bottom: "inception_4a/5x5_reduce"
  top: "inception_4a/5x5"
  param {
    lr_mult: 0.25
    decay_mult: 1
  }
  param {
    lr_mult: 0.5
    decay_mult: 0
  }
  convolution_param {
    num_output: 48
    pad: 2
    kernel_size: 5
    group: 1
    stride: 1
  }
}
layer {
  name: "inception_4a/relu_5x5"
  type: "ReLU"
  bottom: "inception_4a/5x5"
  top: "inception_4a/5x5"
}
layer {
  name: "inception_4a/pool"
  type: "Pooling"
  bottom: "pool3/3x3_s2"
  top: "inception_4a/pool"
  pooling_param {
    pool: MAX
    kernel_size: 3
    stride: 1
    pad: 1
  }
}
layer {
  name: "inception_4a/pool_proj"
  type: "Convolution"
  bottom: "inception_4a/pool"
  top: "inception_4a/pool_proj"
  param {
    lr_mult: 0.25
    decay_mult: 1
  }
  param {
    lr_mult: 0.5
    decay_mult: 0
  }
  convolution_param {
    num_output: 64
    pad: 0
    kernel_size: 1
    group: 1
    stride: 1
  }
}
layer {
  name: "inception_4a/relu_pool_proj"
  type: "ReLU"
  bottom: "inception_4a/pool_proj"
  top: "inception_4a/pool_proj"
}
layer {
  name: "inception_4a/output"
  type: "Concat"
  bottom: "inception_4a/1x1"
  bottom: "inception_4a/3x3"
  bottom: "inception_4a/5x5"
  bottom: "inception_4a/pool_proj"
  top: "inception_4a/output"
}
layer {
  name: "inception_4b/1x1"
  type: "Convolution"
  bottom: "inception_4a/output"
  top: "inception_4b/1x1"
  param {
    lr_mult: 0.25
    decay_mult: 1
  }
  param {
    lr_mult: 0.5
    decay_mult: 0
  }
  convolution_param {
    num_output: 160
    pad: 0
    kernel_size: 1
    group: 1
    stride: 1
  }
}
layer {
  name: "inception_4b/relu_1x1"
  type: "ReLU"
  bottom: "inception_4b/1x1"
  top: "inception_4b/1x1"
}
layer {
  name: "inception_4b/3x3_reduce"
  type: "Convolution"
  bottom: "inception_4a/output"
  top: "inception_4b/3x3_reduce"
  param {
    lr_mult: 0.25
    decay_mult: 1
  }
  param {
    lr_mult: 0.5
    decay_mult: 0
  }
  convolution_param {
    num_output: 112
    pad: 0
    kernel_size: 1
    group: 1
    stride: 1
  }
}
layer {
  name: "inception_4b/relu_3x3_reduce"
  type: "ReLU"
  bottom: "inception_4b/3x3_reduce"
  top: "inception_4b/3x3_reduce"
}
layer {
  name: "inception_4b/3x3"
  type: "Convolution"
  bottom: "inception_4b/3x3_reduce"
  top: "inception_4b/3x3"
  param {
    lr_mult: 0.25
    decay_mult: 1
  }
  param {
    lr_mult: 0.5
    decay_mult: 0
  }
  convolution_param {
    num_output: 224
    pad: 1
    kernel_size: 3
    group: 1
    stride: 1
  }
}
layer {
  name: "inception_4b/relu_3x3"
  type: "ReLU"
  bottom: "inception_4b/3x3"
  top: "inception_4b/3x3"
}
layer {
  name: "inception_4b/5x5_reduce"
  type: "Convolution"
  bottom: "inception_4a/output"
  top: "inception_4b/5x5_reduce"
  param {
    lr_mult: 0.25
    decay_mult: 1
  }
  param {
    lr_mult: 0.5
    decay_mult: 0
  }
  convolution_param {
    num_output: 24
    pad: 0
    kernel_size: 1
    group: 1
    stride: 1
  }
}
layer {
  name: "inception_4b/relu_5x5_reduce"
  type: "ReLU"
  bottom: "inception_4b/5x5_reduce"
  top: "inception_4b/5x5_reduce"
}
layer {
  name: "inception_4b/5x5"
  type: "Convolution"
  bottom: "inception_4b/5x5_reduce"
  top: "inception_4b/5x5"
  param {
    lr_mult: 0.25
    decay_mult: 1
  }
  param {
    lr_mult: 0.5
    decay_mult: 0
  }
  convolution_param {
    num_output: 64
    pad: 2
    kernel_size: 5
    group: 1
    stride: 1
  }
}
layer {
  name: "inception_4b/relu_5x5"
  type: "ReLU"
  bottom: "inception_4b/5x5"
  top: "inception_4b/5x5"
}
layer {
  name: "inception_4b/pool"
  type: "Pooling"
  bottom: "inception_4a/output"
  top: "inception_4b/pool"
  pooling_param {
    pool: MAX
    kernel_size: 3
    stride: 1
    pad: 1
  }
}
layer {
  name: "inception_4b/pool_proj"
  type: "Convolution"
  bottom: "inception_4b/pool"
  top: "inception_4b/pool_proj"
  param {
    lr_mult: 0.25
    decay_mult: 1
  }
  param {
    lr_mult: 0.5
    decay_mult: 0
  }
  convolution_param {
    num_output: 64
    pad: 0
    kernel_size: 1
    group: 1
    stride: 1
  }
}
layer {
  name: "inception_4b/relu_pool_proj"
  type: "ReLU"
  bottom: "inception_4b/pool_proj"
  top: "inception_4b/pool_proj"
}
layer {
  name: "inception_4b/output"
  type: "Concat"
  bottom: "inception_4b/1x1"
  bottom: "inception_4b/3x3"
  bottom: "inception_4b/5x5"
  bottom: "inception_4b/pool_proj"
  top: "inception_4b/output"
}
layer {
  name: "inception_4c/1x1"
  type: "Convolution"
  bottom: "inception_4b/output"
  top: "inception_4c/1x1"
  param {
    lr_mult: 0.25
    decay_mult: 1
  }
  param {
    lr_mult: 0.5
    decay_mult: 0
  }
  convolution_param {
    num_output: 128
    pad: 0
    kernel_size: 1
    group: 1
    stride: 1
  }
}
layer {
  name: "inception_4c/relu_1x1"
  type: "ReLU"
  bottom: "inception_4c/1x1"
  top: "inception_4c/1x1"
}
layer {
  name: "inception_4c/3x3_reduce"
  type: "Convolution"
  bottom: "inception_4b/output"
  top: "inception_4c/3x3_reduce"
  param {
    lr_mult: 0.25
    decay_mult: 1
  }
  param {
    lr_mult: 0.5
    decay_mult: 0
  }
  convolution_param {
    num_output: 128
    pad: 0
    kernel_size: 1
    group: 1
    stride: 1
  }
}
layer {
  name: "inception_4c/relu_3x3_reduce"
  type: "ReLU"
  bottom: "inception_4c/3x3_reduce"
  top: "inception_4c/3x3_reduce"
}
layer {
  name: "inception_4c/3x3"
  type: "Convolution"
  bottom: "inception_4c/3x3_reduce"
  top: "inception_4c/3x3"
  param {
    lr_mult: 0.25
    decay_mult: 1
  }
  param {
    lr_mult: 0.5
    decay_mult: 0
  }
  convolution_param {
    num_output: 256
    pad: 1
    kernel_size: 3
    group: 1
    stride: 1
  }
}
layer {
  name: "inception_4c/relu_3x3"
  type: "ReLU"
  bottom: "inception_4c/3x3"
  top: "inception_4c/3x3"
}
layer {
  name: "inception_4c/5x5_reduce"
  type: "Convolution"
  bottom: "inception_4b/output"
  top: "inception_4c/5x5_reduce"
  param {
    lr_mult: 0.25
    decay_mult: 1
  }
  param {
    lr_mult: 0.5
    decay_mult: 0
  }
  convolution_param {
    num_output: 24
    pad: 0
    kernel_size: 1
    group: 1
    stride: 1
  }
}
layer {
  name: "inception_4c/relu_5x5_reduce"
  type: "ReLU"
  bottom: "inception_4c/5x5_reduce"
  top: "inception_4c/5x5_reduce"
}
layer {
  name: "inception_4c/5x5"
  type: "Convolution"
  bottom: "inception_4c/5x5_reduce"
  top: "inception_4c/5x5"
  param {
    lr_mult: 0.25
    decay_mult: 1
  }
  param {
    lr_mult: 0.5
    decay_mult: 0
  }
  convolution_param {
    num_output: 64
    pad: 2
    kernel_size: 5
    group: 1
    stride: 1
  }
}
layer {
  name: "inception_4c/relu_5x5"
  type: "ReLU"
  bottom: "inception_4c/5x5"
  top: "inception_4c/5x5"
}
layer {
  name: "inception_4c/pool"
  type: "Pooling"
  bottom: "inception_4b/output"
  top: "inception_4c/pool"
  pooling_param {
    pool: MAX
    kernel_size: 3
    stride: 1
    pad: 1
  }
}
layer {
  name: "inception_4c/pool_proj"
  type: "Convolution"
  bottom: "inception_4c/pool"
  top: "inception_4c/pool_proj"
  param {
    lr_mult: 0.25
    decay_mult: 1
  }
  param {
    lr_mult: 0.5
    decay_mult: 0
  }
  convolution_param {
    num_output: 64
    pad: 0
    kernel_size: 1
    group: 1
    stride: 1
  }
}
layer {
  name: "inception_4c/relu_pool_proj"
  type: "ReLU"
  bottom: "inception_4c/pool_proj"
  top: "inception_4c/pool_proj"
}
layer {
  name: "inception_4c/output"
  type: "Concat"
  bottom: "inception_4c/1x1"
  bottom: "inception_4c/3x3"
  bottom: "inception_4c/5x5"
  bottom: "inception_4c/pool_proj"
  top: "inception_4c/output"
}
layer {
  name: "inception_4d/1x1"
  type: "Convolution"
  bottom: "inception_4c/output"
  top: "inception_4d/1x1"
  param {
    lr_mult: 0.25
    decay_mult: 1
  }
  param {
    lr_mult: 0.5
    decay_mult: 0
  }
  convolution_param {
    num_output: 112
    pad: 0
    kernel_size: 1
    group: 1
    stride: 1
  }
}
layer {
  name: "inception_4d/relu_1x1"
  type: "ReLU"
  bottom: "inception_4d/1x1"
  top: "inception_4d/1x1"
}
layer {
  name: "inception_4d/3x3_reduce"
  type: "Convolution"
  bottom: "inception_4c/output"
  top: "inception_4d/3x3_reduce"
  param {
    lr_mult: 0.25
    decay_mult: 1
  }
  param {
    lr_mult: 0.5
    decay_mult: 0
  }
  convolution_param {
    num_output: 144
    pad: 0
    kernel_size: 1
    group: 1
    stride: 1
  }
}
layer {
  name: "inception_4d/relu_3x3_reduce"
  type: "ReLU"
  bottom: "inception_4d/3x3_reduce"
  top: "inception_4d/3x3_reduce"
}
layer {
  name: "inception_4d/3x3"
  type: "Convolution"
  bottom: "inception_4d/3x3_reduce"
  top: "inception_4d/3x3"
  param {
    lr_mult: 0.25
    decay_mult: 1
  }
  param {
    lr_mult: 0.5
    decay_mult: 0
  }
  convolution_param {
    num_output: 288
    pad: 1
    kernel_size: 3
    group: 1
    stride: 1
  }
}
layer {
  name: "inception_4d/relu_3x3"
  type: "ReLU"
  bottom: "inception_4d/3x3"
  top: "inception_4d/3x3"
}
layer {
  name: "inception_4d/5x5_reduce"
  type: "Convolution"
  bottom: "inception_4c/output"
  top: "inception_4d/5x5_reduce"
  param {
    lr_mult: 0.25
    decay_mult: 1
  }
  param {
    lr_mult: 0.5
    decay_mult: 0
  }
  convolution_param {
    num_output: 32
    pad: 0
    kernel_size: 1
    group: 1
    stride: 1
  }
}
layer {
  name: "inception_4d/relu_5x5_reduce"
  type: "ReLU"
  bottom: "inception_4d/5x5_reduce"
  top: "inception_4d/5x5_reduce"
}
layer {
  name: "inception_4d/5x5"
  type: "Convolution"
  bottom: "inception_4d/5x5_reduce"
  top: "inception_4d/5x5"
  param {
    lr_mult: 0.25
    decay_mult: 1
  }
  param {
    lr_mult: 0.5
    decay_mult: 0
  }
  convolution_param {
    num_output: 64
    pad: 2
    kernel_size: 5
    group: 1
    stride: 1
  }
}
layer {
  name: "inception_4d/relu_5x5"
  type: "ReLU"
  bottom: "inception_4d/5x5"
  top: "inception_4d/5x5"
}
layer {
  name: "inception_4d/pool"
  type: "Pooling"
  bottom: "inception_4c/output"
  top: "inception_4d/pool"
  pooling_param {
    pool: MAX
    kernel_size: 3
    stride: 1
    pad: 1
  }
}
layer {
  name: "inception_4d/pool_proj"
  type: "Convolution"
  bottom: "inception_4d/pool"
  top: "inception_4d/pool_proj"
  param {
    lr_mult: 0.25
    decay_mult: 1
  }
  param {
    lr_mult: 0.5
    decay_mult: 0
  }
  convolution_param {
    num_output: 64
    pad: 0
    kernel_size: 1
    group: 1
    stride: 1
  }
}
layer {
  name: "inception_4d/relu_pool_proj"
  type: "ReLU"
  bottom: "inception_4d/pool_proj"
  top: "inception_4d/pool_proj"
}
layer {
  name: "inception_4d/output"
  type: "Concat"
  bottom: "inception_4d/1x1"
  bottom: "inception_4d/3x3"
  bottom: "inception_4d/5x5"
  bottom: "inception_4d/pool_proj"
  top: "inception_4d/output"
}
layer {
  name: "inception_4e/1x1"
  type: "Convolution"
  bottom: "inception_4d/output"
  top: "inception_4e/1x1"
  param {
    lr_mult: 0.25
    decay_mult: 1
  }
  param {
    lr_mult: 0.5
    decay_mult: 0
  }
  convolution_param {
    num_output: 256
    pad: 0
    kernel_size: 1
    group: 1
    stride: 1
  }
}
layer {
  name: "inception_4e/relu_1x1"
  type: "ReLU"
  bottom: "inception_4e/1x1"
  top: "inception_4e/1x1"
}
layer {
  name: "inception_4e/3x3_reduce"
  type: "Convolution"
  bottom: "inception_4d/output"
  top: "inception_4e/3x3_reduce"
  param {
    lr_mult: 0.25
    decay_mult: 1
  }
  param {
    lr_mult: 0.5
    decay_mult: 0
  }
  convolution_param {
    num_output: 160
    pad: 0
    kernel_size: 1
    group: 1
    stride: 1
  }
}
layer {
  name: "inception_4e/relu_3x3_reduce"
  type: "ReLU"
  bottom: "inception_4e/3x3_reduce"
  top: "inception_4e/3x3_reduce"
}
layer {
  name: "inception_4e/3x3"
  type: "Convolution"
  bottom: "inception_4e/3x3_reduce"
  top: "inception_4e/3x3"
  param {
    lr_mult: 0.25
    decay_mult: 1
  }
  param {
    lr_mult: 0.5
    decay_mult: 0
  }
  convolution_param {
    num_output: 320
    pad: 1
    kernel_size: 3
    group: 1
    stride: 1
  }
}
layer {
  name: "inception_4e/relu_3x3"
  type: "ReLU"
  bottom: "inception_4e/3x3"
  top: "inception_4e/3x3"
}
layer {
  name: "inception_4e/5x5_reduce"
  type: "Convolution"
  bottom: "inception_4d/output"
  top: "inception_4e/5x5_reduce"
  param {
    lr_mult: 0.25
    decay_mult: 1
  }
  param {
    lr_mult: 0.5
    decay_mult: 0
  }
  convolution_param {
    num_output: 32
    pad: 0
    kernel_size: 1
    group: 1
    stride: 1
  }
}
layer {
  name: "inception_4e/relu_5x5_reduce"
  type: "ReLU"
  bottom: "inception_4e/5x5_reduce"
  top: "inception_4e/5x5_reduce"
}
layer {
  name: "inception_4e/5x5"
  type: "Convolution"
  bottom: "inception_4e/5x5_reduce"
  top: "inception_4e/5x5"
  param {
    lr_mult: 0.25
    decay_mult: 1
  }
  param {
    lr_mult: 0.5
    decay_mult: 0
  }
  convolution_param {
    num_output: 128
    pad: 2
    kernel_size: 5
    group: 1
    stride: 1
  }
}
layer {
  name: "inception_4e/relu_5x5"
  type: "ReLU"
  bottom: "inception_4e/5x5"
  top: "inception_4e/5x5"
}
layer {
  name: "inception_4e/pool"
  type: "Pooling"
  bottom: "inception_4d/output"
  top: "inception_4e/pool"
  pooling_param {
    pool: MAX
    kernel_size: 3
    stride: 1
    pad: 1
  }
}
layer {
  name: "inception_4e/pool_proj"
  type: "Convolution"
  bottom: "inception_4e/pool"
  top: "inception_4e/pool_proj"
  param {
    lr_mult: 0.25
    decay_mult: 1
  }
  param {
    lr_mult: 0.5
    decay_mult: 0
  }
  convolution_param {
    num_output: 128
    pad: 0
    kernel_size: 1
    group: 1
    stride: 1
  }
}
layer {
  name: "inception_4e/relu_pool_proj"
  type: "ReLU"
  bottom: "inception_4e/pool_proj"
  top: "inception_4e/pool_proj"
}
layer {
  name: "inception_4e/output"
  type: "Concat"
  bottom: "inception_4e/1x1"
  bottom: "inception_4e/3x3"
  bottom: "inception_4e/5x5"
  bottom: "inception_4e/pool_proj"
  top: "inception_4e/output"
}
layer {
  name: "pool4/3x3_s2"
  type: "Pooling"
  bottom: "inception_4e/output"
  top: "pool4/3x3_s2"
  pooling_param {
    pool: MAX
    kernel_size: 3
    stride: 2
    pad: 0
  }
}
layer {
  name: "inception_5a/1x1"
  type: "Convolution"
  bottom: "pool4/3x3_s2"
  top: "inception_5a/1x1"
  param {
    lr_mult: 0.25
    decay_mult: 1
  }
  param {
    lr_mult: 0.5
    decay_mult: 0
  }
  convolution_param {
    num_output: 256
    pad: 0
    kernel_size: 1
    group: 1
    stride: 1
  }
}
layer {
  name: "inception_5a/relu_1x1"
  type: "ReLU"
  bottom: "inception_5a/1x1"
  top: "inception_5a/1x1"
}
layer {
  name: "inception_5a/3x3_reduce"
  type: "Convolution"
  bottom: "pool4/3x3_s2"
  top: "inception_5a/3x3_reduce"
  param {
    lr_mult: 0.25
    decay_mult: 1
  }
  param {
    lr_mult: 0.5
    decay_mult: 0
  }
  convolution_param {
    num_output: 160
    pad: 0
    kernel_size: 1
    group: 1
    stride: 1
  }
}
layer {
  name: "inception_5a/relu_3x3_reduce"
  type: "ReLU"
  bottom: "inception_5a/3x3_reduce"
  top: "inception_5a/3x3_reduce"
}
layer {
  name: "inception_5a/3x3"
  type: "Convolution"
  bottom: "inception_5a/3x3_reduce"
  top: "inception_5a/3x3"
  param {
    lr_mult: 0.25
    decay_mult: 1
  }
  param {
    lr_mult: 0.5
    decay_mult: 0
  }
  convolution_param {
    num_output: 320
    pad: 1
    kernel_size: 3
    group: 1
    stride: 1
  }
}
layer {
  name: "inception_5a/relu_3x3"
  type: "ReLU"
  bottom: "inception_5a/3x3"
  top: "inception_5a/3x3"
}
layer {
  name: "inception_5a/5x5_reduce"
  type: "Convolution"
  bottom: "pool4/3x3_s2"
  top: "inception_5a/5x5_reduce"
  param {
    lr_mult: 0.25
    decay_mult: 1
  }
  param {
    lr_mult: 0.5
    decay_mult: 0
  }
  convolution_param {
    num_output: 32
    pad: 0
    kernel_size: 1
    group: 1
    stride: 1
  }
}
layer {
  name: "inception_5a/relu_5x5_reduce"
  type: "ReLU"
  bottom: "inception_5a/5x5_reduce"
  top: "inception_5a/5x5_reduce"
}
layer {
  name: "inception_5a/5x5"
  type: "Convolution"
  bottom: "inception_5a/5x5_reduce"
  top: "inception_5a/5x5"
  param {
    lr_mult: 0.25
    decay_mult: 1
  }
  param {
    lr_mult: 0.5
    decay_mult: 0
  }
  convolution_param {
    num_output: 128
    pad: 2
    kernel_size: 5
    group: 1
    stride: 1
  }
}
layer {
  name: "inception_5a/relu_5x5"
  type: "ReLU"
  bottom: "inception_5a/5x5"
  top: "inception_5a/5x5"
}
layer {
  name: "inception_5a/pool"
  type: "Pooling"
  bottom: "pool4/3x3_s2"
  top: "inception_5a/pool"
  pooling_param {
    pool: MAX
    kernel_size: 3
    stride: 1
    pad: 1
  }
}
layer {
  name: "inception_5a/pool_proj"
  type: "Convolution"
  bottom: "inception_5a/pool"
  top: "inception_5a/pool_proj"
  param {
    lr_mult: 0.25
    decay_mult: 1
  }
  param {
    lr_mult: 0.5
    decay_mult: 0
  }
  convolution_param {
    num_output: 128
    pad: 0
    kernel_size: 1
    group: 1
    stride: 1
  }
}
layer {
  name: "inception_5a/relu_pool_proj"
  type: "ReLU"
  bottom: "inception_5a/pool_proj"
  top: "inception_5a/pool_proj"
}
layer {
  name: "inception_5a/output"
  type: "Concat"
  bottom: "inception_5a/1x1"
  bottom: "inception_5a/3x3"
  bottom: "inception_5a/5x5"
  bottom: "inception_5a/pool_proj"
  top: "inception_5a/output"
}
layer {
  name: "inception_5b/1x1"
  type: "Convolution"
  bottom: "inception_5a/output"
  top: "inception_5b/1x1"
  param {
    lr_mult: 0.25
    decay_mult: 1
  }
  param {
    lr_mult: 0.5
    decay_mult: 0
  }
  convolution_param {
    num_output: 384
    pad: 0
    kernel_size: 1
    group: 1
    stride: 1
  }
}
layer {
  name: "inception_5b/relu_1x1"
  type: "ReLU"
  bottom: "inception_5b/1x1"
  top: "inception_5b/1x1"
}
layer {
  name: "inception_5b/3x3_reduce"
  type: "Convolution"
  bottom: "inception_5a/output"
  top: "inception_5b/3x3_reduce"
  param {
    lr_mult: 0.25
    decay_mult: 1
  }
  param {
    lr_mult: 0.5
    decay_mult: 0
  }
  convolution_param {
    num_output: 192
    pad: 0
    kernel_size: 1
    group: 1
    stride: 1
  }
}
layer {
  name: "inception_5b/relu_3x3_reduce"
  type: "ReLU"
  bottom: "inception_5b/3x3_reduce"
  top: "inception_5b/3x3_reduce"
}
layer {
  name: "inception_5b/3x3"
  type: "Convolution"
  bottom: "inception_5b/3x3_reduce"
  top: "inception_5b/3x3"
  param {
    lr_mult: 0.25
    decay_mult: 1
  }
  param {
    lr_mult: 0.5
    decay_mult: 0
  }
  convolution_param {
    num_output: 384
    pad: 1
    kernel_size: 3
    group: 1
    stride: 1
  }
}
layer {
  name: "inception_5b/relu_3x3"
  type: "ReLU"
  bottom: "inception_5b/3x3"
  top: "inception_5b/3x3"
}
layer {
  name: "inception_5b/5x5_reduce"
  type: "Convolution"
  bottom: "inception_5a/output"
  top: "inception_5b/5x5_reduce"
  param {
    lr_mult: 0.25
    decay_mult: 1
  }
  param {
    lr_mult: 0.5
    decay_mult: 0
  }
  convolution_param {
    num_output: 48
    pad: 0
    kernel_size: 1
    group: 1
    stride: 1
  }
}
layer {
  name: "inception_5b/relu_5x5_reduce"
  type: "ReLU"
  bottom: "inception_5b/5x5_reduce"
  top: "inception_5b/5x5_reduce"
}
layer {
  name: "inception_5b/5x5"
  type: "Convolution"
  bottom: "inception_5b/5x5_reduce"
  top: "inception_5b/5x5"
  param {
    lr_mult: 0.25
    decay_mult: 1
  }
  param {
    lr_mult: 0.5
    decay_mult: 0
  }
  convolution_param {
    num_output: 128
    pad: 2
    kernel_size: 5
    group: 1
    stride: 1
  }
}
layer {
  name: "inception_5b/relu_5x5"
  type: "ReLU"
  bottom: "inception_5b/5x5"
  top: "inception_5b/5x5"
}
layer {
  name: "inception_5b/pool"
  type: "Pooling"
  bottom: "inception_5a/output"
  top: "inception_5b/pool"
  pooling_param {
    pool: MAX
    kernel_size: 3
    stride: 1
    pad: 1
  }
}
layer {
  name: "inception_5b/pool_proj"
  type: "Convolution"
  bottom: "inception_5b/pool"
  top: "inception_5b/pool_proj"
  param {
    lr_mult: 0.25
    decay_mult: 1
  }
  param {
    lr_mult: 0.5
    decay_mult: 0
  }
  convolution_param {
    num_output: 128
    pad: 0
    kernel_size: 1
    group: 1
    stride: 1
  }
}
layer {
  name: "inception_5b/relu_pool_proj"
  type: "ReLU"
  bottom: "inception_5b/pool_proj"
  top: "inception_5b/pool_proj"
}
layer {
  name: "inception_5b/output"
  type: "Concat"
  bottom: "inception_5b/1x1"
  bottom: "inception_5b/3x3"
  bottom: "inception_5b/5x5"
  bottom: "inception_5b/pool_proj"
  top: "inception_5b/output"
}
layer {
  name: "pool5/7x7_s1"
  type: "Pooling"
  bottom: "inception_5b/output"
  top: "pool5/7x7_s1"
  pooling_param {
    pool: AVE
    kernel_size:
I1019 22:44:00.749810 23716 net.cpp:435] Input 0 -> data
I1019 22:44:00.749866 23716 layer_factory.hpp:76] Creating layer conv1/7x7_s2
I1019 22:44:00.749886 23716 net.cpp:110] Creating Layer conv1/7x7_s2
I1019 22:44:00.749893 23716 net.cpp:477] conv1/7x7_s2 <- data
I1019 22:44:00.749903 23716 net.cpp:433] conv1/7x7_s2 -> conv1/7x7_s2
I1019 22:44:00.806354 23716 net.cpp:155] Setting up conv1/7x7_s2
I1019 22:44:00.806408 23716 net.cpp:163] Top shape: 1 64 160 160 (1638400)
I1019 22:44:00.806439 23716 layer_factory.hpp:76] Creating layer conv1/relu_7x7
I1019 22:44:00.806459 23716 net.cpp:110] Creating Layer conv1/relu_7x7
I1019 22:44:00.806468 23716 net.cpp:477] conv1/relu_7x7 <- conv1/7x7_s2
I1019 22:44:00.806478 23716 net.cpp:419] conv1/relu_7x7 -> conv1/7x7_s2 (in-place)
I1019 22:44:00.806661 23716 net.cpp:155] Setting up conv1/relu_7x7
I1019 22:44:00.806674 23716 net.cpp:163] Top shape: 1 64 160 160 (1638400)
I1019 22:44:00.806680 23716 layer_factory.hpp:76] Creating layer pool1/3x3_s2
I1019 22:44:00.806694 23716 net.cpp:110] Creating Layer pool1/3x3_s2
I1019 22:44:00.806701 23716 net.cpp:477] pool1/3x3_s2 <- conv1/7x7_s2
I1019 22:44:00.806709 23716 net.cpp:433] pool1/3x3_s2 -> pool1/3x3_s2
I1019 22:44:00.806773 23716 net.cpp:155] Setting up pool1/3x3_s2
I1019 22:44:00.806783 23716 net.cpp:163] Top shape: 1 64 80 80 (409600)
I1019 22:44:00.806789 23716 layer_factory.hpp:76] Creating layer conv2/3x3_reduce
I1019 22:44:00.806802 23716 net.cpp:110] Creating Layer conv2/3x3_reduce
I1019 22:44:00.806807 23716 net.cpp:477] conv2/3x3_reduce <- pool1/3x3_s2
I1019 22:44:00.806814 23716 net.cpp:433] conv2/3x3_reduce -> conv2/3x3_reduce
I1019 22:44:00.807687 23716 net.cpp:155] Setting up conv2/3x3_reduce
I1019 22:44:00.807700 23716 net.cpp:163] Top shape: 1 64 80 80 (409600)
I1019 22:44:00.807713 23716 layer_factory.hpp:76] Creating layer conv2/relu_3x3_reduce
I1019 22:44:00.807721 23716 net.cpp:110] Creating Layer conv2/relu_3x3_reduce
I1019 22:44:00.807728 23716 net.cpp:477] conv2/relu_3x3_reduce <- conv2/3x3_reduce
I1019 22:44:00.807735 23716 net.cpp:419] conv2/relu_3x3_reduce -> conv2/3x3_reduce (in-place)
I1019 22:44:00.807786 23716 net.cpp:155] Setting up conv2/relu_3x3_reduce
I1019 22:44:00.807796 23716 net.cpp:163] Top shape: 1 64 80 80 (409600)
I1019 22:44:00.807801 23716 layer_factory.hpp:76] Creating layer conv2/3x3
I1019 22:44:00.807811 23716 net.cpp:110] Creating Layer conv2/3x3
I1019 22:44:00.807816 23716 net.cpp:477] conv2/3x3 <- conv2/3x3_reduce
I1019 22:44:00.807822 23716 net.cpp:433] conv2/3x3 -> conv2/3x3
I1019 22:44:00.808701 23716 net.cpp:155] Setting up conv2/3x3
I1019 22:44:00.808715 23716 net.cpp:163] Top shape: 1 192 80 80 (1228800)
I1019 22:44:00.808727 23716 layer_factory.hpp:76] Creating layer conv2/relu_3x3
I1019 22:44:00.808748 23716 net.cpp:110] Creating Layer conv2/relu_3x3
I1019 22:44:00.808755 23716 net.cpp:477] conv2/relu_3x3 <- conv2/3x3
I1019 22:44:00.808763 23716 net.cpp:419] conv2/relu_3x3 -> conv2/3x3 (in-place)
I1019 22:44:00.808926 23716 net.cpp:155] Setting up conv2/relu_3x3
I1019 22:44:00.808938 23716 net.cpp:163] Top shape: 1 192 80 80 (1228800)
I1019 22:44:00.808944 23716 layer_factory.hpp:76] Creating layer pool2/3x3_s2
I1019 22:44:00.808954 23716 net.cpp:110] Creating Layer pool2/3x3_s2
I1019 22:44:00.808959 23716 net.cpp:477] pool2/3x3_s2 <- conv2/3x3
I1019 22:44:00.808966 23716 net.cpp:433] pool2/3x3_s2 -> pool2/3x3_s2
I1019 22:44:00.809018 23716 net.cpp:155] Setting up pool2/3x3_s2
I1019 22:44:00.809028 23716 net.cpp:163] Top shape: 1 192 40 40 (307200)
I1019 22:44:00.809034 23716 layer_factory.hpp:76] Creating layer pool2/3x3_s2_pool2/3x3_s2_0_split
I1019 22:44:00.809049 23716 net.cpp:110] Creating Layer pool2/3x3_s2_pool2/3x3_s2_0_split
I1019 22:44:00.809056 23716 net.cpp:477] pool2/3x3_s2_pool2/3x3_s2_0_split <- pool2/3x3_s2
I1019 22:44:00.809062 23716 net.cpp:433] pool2/3x3_s2_pool2/3x3_s2_0_split -> pool2/3x3_s2_pool2/3x3_s2_0_split_0
I1019 22:44:00.809070 23716 net.cpp:433] pool2/3x3_s2_pool2/3x3_s2_0_split -> pool2/3x3_s2_pool2/3x3_s2_0_split_1
I1019 22:44:00.809078 23716 net.cpp:433] pool2/3x3_s2_pool2/3x3_s2_0_split -> pool2/3x3_s2_pool2/3x3_s2_0_split_2
I1019 22:44:00.809087 23716 net.cpp:433] pool2/3x3_s2_pool2/3x3_s2_0_split -> pool2/3x3_s2_pool2/3x3_s2_0_split_3
I1019 22:44:00.809098 23716 net.cpp:155] Setting up pool2/3x3_s2_pool2/3x3_s2_0_split
I1019 22:44:00.809104 23716 net.cpp:163] Top shape: 1 192 40 40 (307200)
I1019 22:44:00.809110 23716 net.cpp:163] Top shape: 1 192 40 40 (307200)
I1019 22:44:00.809118 23716 net.cpp:163] Top shape: 1 192 40 40 (307200)
I1019 22:44:00.809123 23716 net.cpp:163] Top shape: 1 192 40 40 (307200)
I1019 22:44:00.809128 23716 layer_factory.hpp:76] Creating layer inception_3a/1x1
I1019 22:44:00.809136 23716 net.cpp:110] Creating Layer inception_3a/1x1
I1019 22:44:00.809141 23716 net.cpp:477] inception_3a/1x1 <- pool2/3x3_s2_pool2/3x3_s2_0_split_0
I1019 22:44:00.809152 23716 net.cpp:433] inception_3a/1x1 -> inception_3a/1x1
I1019 22:44:00.809464 23716 net.cpp:155] Setting up inception_3a/1x1
I1019 22:44:00.809478 23716 net.cpp:163] Top shape: 1 64 40 40 (102400)
I1019 22:44:00.809486 23716 layer_factory.hpp:76] Creating layer inception_3a/relu_1x1
I1019 22:44:00.809494 23716 net.cpp:110] Creating Layer inception_3a/relu_1x1
I1019 22:44:00.809500 23716 net.cpp:477] inception_3a/relu_1x1 <- inception_3a/1x1
I1019 22:44:00.809509 23716 net.cpp:419] inception_3a/relu_1x1 -> inception_3a/1x1 (in-place)
I1019 22:44:00.809572 23716 net.cpp:155] Setting up inception_3a/relu_1x1
I1019 22:44:00.809582 23716 net.cpp:163] Top shape: 1 64 40 40 (102400)
I1019 22:44:00.809588 23716 layer_factory.hpp:76] Creating layer inception_3a/3x3_reduce
I1019 22:44:00.809598 23716 net.cpp:110] Creating Layer inception_3a/3x3_reduce
I1019 22:44:00.809604 23716 net.cpp:477] inception_3a/3x3_reduce <- pool2/3x3_s2_pool2/3x3_s2_0_split_1
I1019 22:44:00.809613 23716 net.cpp:433] inception_3a/3x3_reduce -> inception_3a/3x3_reduce
I1019 22:44:00.809943 23716 net.cpp:155] Setting up inception_3a/3x3_reduce
I1019 22:44:00.809955 23716 net.cpp:163] Top shape: 1 96 40 40 (153600)
I1019 22:44:00.809967 23716 layer_factory.hpp:76] Creating layer inception_3a/relu_3x3_reduce
I1019 22:44:00.809975 23716 net.cpp:110] Creating Layer inception_3a/relu_3x3_reduce
I1019 22:44:00.809981 23716 net.cpp:477] inception_3a/relu_3x3_reduce <- inception_3a/3x3_reduce
I1019 22:44:00.809990 23716 net.cpp:419] inception_3a/relu_3x3_reduce -> inception_3a/3x3_reduce (in-place)
I1019 22:44:00.810063 23716 net.cpp:155] Setting up inception_3a/relu_3x3_reduce
I1019 22:44:00.810081 23716 net.cpp:163] Top shape: 1 96 40 40 (153600)
I1019 22:44:00.810088 23716 layer_factory.hpp:76] Creating layer inception_3a/3x3
I1019 22:44:00.810098 23716 net.cpp:110] Creating Layer inception_3a/3x3
I1019 22:44:00.810109 23716 net.cpp:477] inception_3a/3x3 <- inception_3a/3x3_reduce
I1019 22:44:00.810117 23716 net.cpp:433] inception_3a/3x3 -> inception_3a/3x3
I1019 22:44:00.810502 23716 net.cpp:155] Setting up inception_3a/3x3
I1019 22:44:00.810514 23716 net.cpp:163] Top shape: 1 128 40 40 (204800)
I1019 22:44:00.810523 23716 layer_factory.hpp:76] Creating layer inception_3a/relu_3x3
I1019 22:44:00.810531 23716 net.cpp:110] Creating Layer inception_3a/relu_3x3
I1019 22:44:00.810538 23716 net.cpp:477] inception_3a/relu_3x3 <- inception_3a/3x3
I1019 22:44:00.810544 23716 net.cpp:419] inception_3a/relu_3x3 -> inception_3a/3x3 (in-place)
I1019 22:44:00.810719 23716 net.cpp:155] Setting up inception_3a/relu_3x3
I1019 22:44:00.810730 23716 net.cpp:163] Top shape: 1 128 40 40 (204800)
I1019 22:44:00.810736 23716 layer_factory.hpp:76] Creating layer inception_3a/5x5_reduce
I1019 22:44:00.810747 23716 net.cpp:110] Creating Layer inception_3a/5x5_reduce
I1019 22:44:00.810753 23716 net.cpp:477] inception_3a/5x5_reduce <- pool2/3x3_s2_pool2/3x3_s2_0_split_2
I1019 22:44:00.810762 23716 net.cpp:433] inception_3a/5x5_reduce -> inception_3a/5x5_reduce
I1019 22:44:00.811082 23716 net.cpp:155] Setting up inception_3a/5x5_reduce
I1019 22:44:00.811097 23716 net.cpp:163] Top shape: 1 16 40 40 (25600)
I1019 22:44:00.811106 23716 layer_factory.hpp:76] Creating layer inception_3a/relu_5x5_reduce
I1019 22:44:00.811115 23716 net.cpp:110] Creating Layer inception_3a/relu_5x5_reduce
I1019 22:44:00.811122 23716 net.cpp:477] inception_3a/relu_5x5_reduce <- inception_3a/5x5_reduce
I1019 22:44:00.811130 23716 net.cpp:419] inception_3a/relu_5x5_reduce -> inception_3a/5x5_reduce (in-place)
I1019 22:44:00.811189 23716 net.cpp:155] Setting up inception_3a/relu_5x5_reduce
I1019 22:44:00.811198 23716 net.cpp:163] Top shape: 1 16 40 40 (25600)
I1019 22:44:00.811204 23716 layer_factory.hpp:76] Creating layer inception_3a/5x5
I1019 22:44:00.811214 23716 net.cpp:110] Creating Layer inception_3a/5x5
I1019 22:44:00.811220 23716 net.cpp:477] inception_3a/5x5 <- inception_3a/5x5_reduce
I1019 22:44:00.811228 23716 net.cpp:433] inception_3a/5x5 -> inception_3a/5x5
I1019 22:44:00.811564 23716 net.cpp:155] Setting up inception_3a/5x5
I1019 22:44:00.811576 23716 net.cpp:163] Top shape: 1 32 40 40 (51200)
I1019 22:44:00.811585 23716 layer_factory.hpp:76] Creating layer inception_3a/relu_5x5
I1019 22:44:00.811595 23716 net.cpp:110] Creating Layer inception_3a/relu_5x5
I1019 22:44:00.811601 23716 net.cpp:477] inception_3a/relu_5x5 <- inception_3a/5x5
I1019 22:44:00.811609 23716 net.cpp:419] inception_3a/relu_5x5 -> inception_3a/5x5 (in-place)
I1019 22:44:00.811668 23716 net.cpp:155] Setting up inception_3a/relu_5x5
I1019 22:44:00.811677 23716 net.cpp:163] Top shape: 1 32 40 40 (51200)
I1019 22:44:00.811683 23716 layer_factory.hpp:76] Creating layer inception_3a/pool
I1019 22:44:00.811691 23716 layer_factory.cpp:60] CUDNN does not support padding or multiple tops. Using Caffe's own pooling layer.
I1019 22:44:00.811697 23716 net.cpp:110] Creating Layer inception_3a/pool
I1019 22:44:00.811703 23716 net.cpp:477] inception_3a/pool <- pool2/3x3_s2_pool2/3x3_s2_0_split_3
I1019 22:44:00.811712 23716 net.cpp:433] inception_3a/pool -> inception_3a/pool
I1019 22:44:00.811723 23716 net.cpp:155] Setting up inception_3a/pool
I1019 22:44:00.811730 23716 net.cpp:163] Top shape: 1 192 40 40 (307200)
I1019 22:44:00.811735 23716 layer_factory.hpp:76] Creating layer inception_3a/pool_proj
I1019 22:44:00.811743 23716 net.cpp:110] Creating Layer inception_3a/pool_proj
I1019 22:44:00.811749 23716 net.cpp:477] inception_3a/pool_proj <- inception_3a/pool
I1019 22:44:00.811759 23716 net.cpp:433] inception_3a/pool_proj -> inception_3a/pool_proj
I1019 22:44:00.812165 23716 net.cpp:155] Setting up inception_3a/pool_proj
I1019 22:44:00.812177 23716 net.cpp:163] Top shape: 1 32 40 40 (51200)
I1019 22:44:00.812191 23716 layer_factory.hpp:76] Creating layer inception_3a/relu_pool_proj
I1019 22:44:00.812201 23716 net.cpp:110] Creating Layer inception_3a/relu_pool_proj
I1019 22:44:00.812211 23716 net.cpp:477] inception_3a/relu_pool_proj <- inception_3a/pool_proj
I1019 22:44:00.812219 23716 net.cpp:419] inception_3a/relu_pool_proj -> inception_3a/pool_proj (in-place)
I1019 22:44:00.812280 23716 net.cpp:155] Setting up inception_3a/relu_pool_proj
I1019 22:44:00.812290 23716 net.cpp:163] Top shape: 1 32 40 40 (51200)
I1019 22:44:00.812299 23716 layer_factory.hpp:76] Creating layer inception_3a/output
I1019 22:44:00.812310 23716 net.cpp:110] Creating Layer inception_3a/output
I1019 22:44:00.812316 23716 net.cpp:477] inception_3a/output <- inception_3a/1x1
I1019 22:44:00.812324 23716 net.cpp:477] inception_3a/output <- inception_3a/3x3
I1019 22:44:00.812328 23716 net.cpp:477] inception_3a/output <- inception_3a/5x5
I1019 22:44:00.812335 23716 net.cpp:477] inception_3a/output <- inception_3a/pool_proj
I1019 22:44:00.812341 23716 net.cpp:433] inception_3a/output -> inception_3a/output
I1019 22:44:00.812356 23716 net.cpp:155] Setting up inception_3a/output
I1019 22:44:00.812363 23716 net.cpp:163] Top shape: 1 256 40 40 (409600)
I1019 22:44:00.812369 23716 layer_factory.hpp:76] Creating layer inception_3a/output_inception_3a/output_0_split
I1019 22:44:00.812376 23716 net.cpp:110] Creating Layer inception_3a/output_inception_3a/output_0_split
I1019 22:44:00.812382 23716 net.cpp:477] inception_3a/output_inception_3a/output_0_split <- inception_3a/output
I1019 22:44:00.812392 23716 net.cpp:433] inception_3a/output_inception_3a/output_0_split -> inception_3a/output_inception_3a/output_0_split_0
I1019 22:44:00.812402 23716 net.cpp:433] inception_3a/output_inception_3a/output_0_split -> inception_3a/output_inception_3a/output_0_split_1
I1019 22:44:00.812409 23716 net.cpp:433] inception_3a/output_inception_3a/output_0_split -> inception_3a/output_inception_3a/output_0_split_2
I1019 22:44:00.812417 23716 net.cpp:433] inception_3a/output_inception_3a/output_0_split -> inception_3a/output_inception_3a/output_0_split_3
I1019 22:44:00.812424 23716 net.cpp:155] Setting up inception_3a/output_inception_3a/output_0_split
I1019 22:44:00.812433 23716 net.cpp:163] Top shape: 1 256 40 40 (409600)
I1019 22:44:00.812439 23716 net.cpp:163] Top shape: 1 256 40 40 (409600)
I1019 22:44:00.812445 23716 net.cpp:163] Top shape: 1 256 40 40 (409600)
I1019 22:44:00.812451 23716 net.cpp:163] Top shape: 1 256 40 40 (409600)
I1019 22:44:00.812456 23716 layer_factory.hpp:76] Creating layer inception_3b/1x1
I1019 22:44:00.812464 23716 net.cpp:110] Creating Layer inception_3b/1x1
I1019 22:44:00.812469 23716 net.cpp:477] inception_3b/1x1 <- inception_3a/output_inception_3a/output_0_split_0
I1019 22:44:00.812479 23716 net.cpp:433] inception_3b/1x1 -> inception_3b/1x1
I1019 22:44:00.812816 23716 net.cpp:155] Setting up inception_3b/1x1
I1019 22:44:00.812832 23716 net.cpp:163] Top shape: 1 128 40 40 (204800)
I1019 22:44:00.812841 23716 layer_factory.hpp:76] Creating layer inception_3b/relu_1x1
I1019 22:44:00.812849 23716 net.cpp:110] Creating Layer inception_3b/relu_1x1
I1019 22:44:00.812855 23716 net.cpp:477] inception_3b/relu_1x1 <- inception_3b/1x1
I1019 22:44:00.812862 23716 net.cpp:419] inception_3b/relu_1x1 -> inception_3b/1x1 (in-place)
I1019 22:44:00.813035 23716 net.cpp:155] Setting up inception_3b/relu_1x1
I1019 22:44:00.813047 23716 net.cpp:163] Top shape: 1 128 40 40 (204800)
I1019 22:44:00.813055 23716 layer_factory.hpp:76] Creating layer inception_3b/3x3_reduce
I1019 22:44:00.813062 23716 net.cpp:110] Creating Layer inception_3b/3x3_reduce
I1019 22:44:00.813068 23716 net.cpp:477] inception_3b/3x3_reduce <- inception_3a/output_inception_3a/output_0_split_1
I1019 22:44:00.813077 23716 net.cpp:433] inception_3b/3x3_reduce -> inception_3b/3x3_reduce
I1019 22:44:00.813416 23716 net.cpp:155] Setting up inception_3b/3x3_reduce
I1019 22:44:00.813428 23716 net.cpp:163] Top shape: 1 128 40 40 (204800)
I1019 22:44:00.813437 23716 layer_factory.hpp:76] Creating layer inception_3b/relu_3x3_reduce
I1019 22:44:00.813444 23716 net.cpp:110] Creating Layer inception_3b/relu_3x3_reduce
I1019 22:44:00.813451 23716 net.cpp:477] inception_3b/relu_3x3_reduce <- inception_3b/3x3_reduce
I1019 22:44:00.813465 23716 net.cpp:419] inception_3b/relu_3x3_reduce -> inception_3b/3x3_reduce (in-place)
I1019 22:44:00.813524 23716 net.cpp:155] Setting up inception_3b/relu_3x3_reduce
I1019 22:44:00.813534 23716 net.cpp:163] Top shape: 1 128 40 40 (204800)
I1019 22:44:00.813539 23716 layer_factory.hpp:76] Creating layer inception_3b/3x3
I1019 22:44:00.813550 23716 net.cpp:110] Creating Layer inception_3b/3x3
I1019 22:44:00.813556 23716 net.cpp:477] inception_3b/3x3 <- inception_3b/3x3_reduce
I1019 22:44:00.813563 23716 net.cpp:433] inception_3b/3x3 -> inception_3b/3x3
I1019 22:44:00.814529 23716 net.cpp:155] Setting up inception_3b/3x3
I1019 22:44:00.814545 23716 net.cpp:163] Top shape: 1 192 40 40 (307200)
I1019 22:44:00.814555 23716 layer_factory.hpp:76] Creating layer inception_3b/relu_3x3
I1019 22:44:00.814563 23716 net.cpp:110] Creating Layer inception_3b/relu_3x3
I1019 22:44:00.814568 23716 net.cpp:477] inception_3b/relu_3x3 <- inception_3b/3x3
I1019 22:44:00.814577 23716 net.cpp:419] inception_3b/relu_3x3 -> inception_3b/3x3 (in-place)
I1019 22:44:00.814640 23716 net.cpp:155] Setting up inception_3b/relu_3x3
I1019 22:44:00.814649 23716 net.cpp:163] Top shape: 1 192 40 40 (307200)
I1019 22:44:00.814656 23716 layer_factory.hpp:76] Creating layer inception_3b/5x5_reduce
I1019 22:44:00.814666 23716 net.cpp:110] Creating Layer inception_3b/5x5_reduce
I1019 22:44:00.814671 23716 net.cpp:477] inception_3b/5x5_reduce <- inception_3a/output_inception_3a/output_0_split_2
I1019 22:44:00.814682 23716 net.cpp:433] inception_3b/5x5_reduce -> inception_3b/5x5_reduce
I1019 22:44:00.815022 23716 net.cpp:155] Setting up inception_3b/5x5_reduce
I1019 22:44:00.815035 23716 net.cpp:163] Top shape: 1 32 40 40 (51200)
I1019 22:44:00.815044 23716 layer_factory.hpp:76] Creating layer inception_3b/relu_5x5_reduce
I1019 22:44:00.815052 23716 net.cpp:110] Creating Layer inception_3b/relu_5x5_reduce
I1019 22:44:00.815058 23716 net.cpp:477] inception_3b/relu_5x5_reduce <- inception_3b/5x5_reduce
I1019 22:44:00.815065 23716 net.cpp:419] inception_3b/relu_5x5_reduce -> inception_3b/5x5_reduce (in-place)
I1019 22:44:00.815124 23716 net.cpp:155] Setting up inception_3b/relu_5x5_reduce
I1019 22:44:00.815134 23716 net.cpp:163] Top shape: 1 32 40 40 (51200)
I1019 22:44:00.815140 23716 layer_factory.hpp:76] Creating layer inception_3b/5x5
I1019 22:44:00.815151 23716 net.cpp:110] Creating Layer inception_3b/5x5
I1019 22:44:00.815157 23716 net.cpp:477] inception_3b/5x5 <- inception_3b/5x5_reduce
I1019 22:44:00.815167 23716 net.cpp:433] inception_3b/5x5 -> inception_3b/5x5
I1019 22:44:00.816041 23716 net.cpp:155] Setting up inception_3b/5x5
I1019 22:44:00.816053 23716 net.cpp:163] Top shape: 1 96 40 40 (153600)
I1019 22:44:00.816063 23716 layer_factory.hpp:76] Creating layer inception_3b/relu_5x5
I1019 22:44:00.816071 23716 net.cpp:110] Creating Layer inception_3b/relu_5x5
I1019 22:44:00.816076 23716 net.cpp:477] inception_3b/relu_5x5 <- inception_3b/5x5
I1019 22:44:00.816085 23716 net.cpp:419] inception_3b/relu_5x5 -> inception_3b/5x5 (in-place)
I1019 22:44:00.816254 23716 net.cpp:155] Setting up inception_3b/relu_5x5
I1019 22:44:00.816267 23716 net.cpp:163] Top shape: 1 96 40 40 (153600)
I1019 22:44:00.816272 23716 layer_factory.hpp:76] Creating layer inception_3b/pool
I1019 22:44:00.816279 23716 layer_factory.cpp:60] CUDNN does not support padding or multiple tops. Using Caffe's own pooling layer.
I1019 22:44:00.816287 23716 net.cpp:110] Creating Layer inception_3b/pool
I1019 22:44:00.816293 23716 net.cpp:477] inception_3b/pool <- inception_3a/output_inception_3a/output_0_split_3
I1019 22:44:00.816299 23716 net.cpp:433] inception_3b/pool -> inception_3b/pool
I1019 22:44:00.816309 23716 net.cpp:155] Setting up inception_3b/pool
I1019 22:44:00.816316 23716 net.cpp:163] Top shape: 1 256 40 40 (409600)
I1019 22:44:00.816323 23716 layer_factory.hpp:76] Creating layer inception_3b/pool_proj
I1019 22:44:00.816331 23716 net.cpp:110] Creating Layer inception_3b/pool_proj
I1019 22:44:00.816337 23716 net.cpp:477] inception_3b/pool_proj <- inception_3b/pool
I1019 22:44:00.816351 23716 net.cpp:433] inception_3b/pool_proj -> inception_3b/pool_proj
I1019 22:44:00.816690 23716 net.cpp:155] Setting up inception_3b/pool_proj
I1019 22:44:00.816704 23716 net.cpp:163] Top shape: 1 64 40 40 (102400)
I1019 22:44:00.816712 23716 layer_factory.hpp:76] Creating layer inception_3b/relu_pool_proj
I1019 22:44:00.816720 23716 net.cpp:110] Creating Layer inception_3b/relu_pool_proj
I1019 22:44:00.816726 23716 net.cpp:477] inception_3b/relu_pool_proj <- inception_3b/pool_proj
I1019 22:44:00.816735 23716 net.cpp:419] inception_3b/relu_pool_proj -> inception_3b/pool_proj (in-place)
I1019 22:44:00.816797 23716 net.cpp:155] Setting up inception_3b/relu_pool_proj
I1019 22:44:00.816808 23716 net.cpp:163] Top shape: 1 64 40 40 (102400)
I1019 22:44:00.816814 23716 layer_factory.hpp:76] Creating layer inception_3b/output
I1019 22:44:00.816823 23716 net.cpp:110] Creating Layer inception_3b/output
I1019 22:44:00.816828 23716 net.cpp:477] inception_3b/output <- inception_3b/1x1
I1019 22:44:00.816834 23716 net.cpp:477] inception_3b/output <- inception_3b/3x3
I1019 22:44:00.816840 23716 net.cpp:477] inception_3b/output <- inception_3b/5x5
I1019 22:44:00.816846 23716 net.cpp:477] inception_3b/output <- inception_3b/pool_proj
I1019 22:44:00.816853 23716 net.cpp:433] inception_3b/output -> inception_3b/output
I1019 22:44:00.816861 23716 net.cpp:155] Setting up inception_3b/output
I1019 22:44:00.816869 23716 net.cpp:163] Top shape: 1 480 40 40 (768000)
I1019 22:44:00.816874 23716 layer_factory.hpp:76] Creating layer pool3/3x3_s2
I1019 22:44:00.816884 23716 net.cpp:110] Creating Layer pool3/3x3_s2
I1019 22:44:00.816890 23716 net.cpp:477] pool3/3x3_s2 <- inception_3b/output
I1019 22:44:00.816897 23716 net.cpp:433] pool3/3x3_s2 -> pool3/3x3_s2
I1019 22:44:00.816957 23716 net.cpp:155] Setting up pool3/3x3_s2
I1019 22:44:00.816967 23716 net.cpp:163] Top shape: 1 480 20 20 (192000)
I1019 22:44:00.816973 23716 layer_factory.hpp:76] Creating layer pool3/3x3_s2_pool3/3x3_s2_0_split
I1019 22:44:00.816982 23716 net.cpp:110] Creating Layer pool3/3x3_s2_pool3/3x3_s2_0_split
I1019 22:44:00.816987 23716 net.cpp:477] pool3/3x3_s2_pool3/3x3_s2_0_split <- pool3/3x3_s2
I1019 22:44:00.816993 23716 net.cpp:433] pool3/3x3_s2_pool3/3x3_s2_0_split -> pool3/3x3_s2_pool3/3x3_s2_0_split_0
I1019 22:44:00.817000 23716 net.cpp:433] pool3/3x3_s2_pool3/3x3_s2_0_split -> pool3/3x3_s2_pool3/3x3_s2_0_split_1
I1019 22:44:00.817010 23716 net.cpp:433] pool3/3x3_s2_pool3/3x3_s2_0_split -> pool3/3x3_s2_pool3/3x3_s2_0_split_2
I1019 22:44:00.817018 23716 net.cpp:433] pool3/3x3_s2_pool3/3x3_s2_0_split -> pool3/3x3_s2_pool3/3x3_s2_0_split_3
I1019 22:44:00.817026 23716 net.cpp:155] Setting up pool3/3x3_s2_pool3/3x3_s2_0_split
I1019 22:44:00.817033 23716 net.cpp:163] Top shape: 1 480 20 20 (192000)
I1019 22:44:00.817041 23716 net.cpp:163] Top shape: 1 480 20 20 (192000)
I1019 22:44:00.817047 23716 net.cpp:163] Top shape: 1 480 20 20 (192000)
I1019 22:44:00.817054 23716 net.cpp:163] Top shape: 1 480 20 20 (192000)
I1019 22:44:00.817059 23716 layer_factory.hpp:76] Creating layer inception_4a/1x1
I1019 22:44:00.817066 23716 net.cpp:110] Creating Layer inception_4a/1x1
I1019 22:44:00.817071 23716 net.cpp:477] inception_4a/1x1 <- pool3/3x3_s2_pool3/3x3_s2_0_split_0
I1019 22:44:00.817081 23716 net.cpp:433] inception_4a/1x1 -> inception_4a/1x1
I1019 22:44:00.817953 23716 net.cpp:155] Setting up inception_4a/1x1
I1019 22:44:00.817966 23716 net.cpp:163] Top shape: 1 192 20 20 (76800)
I1019 22:44:00.817977 23716 layer_factory.hpp:76] Creating layer inception_4a/relu_1x1
I1019 22:44:00.817986 23716 net.cpp:110] Creating Layer inception_4a/relu_1x1
I1019 22:44:00.817992 23716 net.cpp:477] inception_4a/relu_1x1 <- inception_4a/1x1
I1019 22:44:00.818001 23716 net.cpp:419] inception_4a/relu_1x1 -> inception_4a/1x1 (in-place)
I1019 22:44:00.818192 23716 net.cpp:155] Setting up inception_4a/relu_1x1
I1019 22:44:00.818207 23716 net.cpp:163] Top shape: 1 192 20 20 (76800)
I1019 22:44:00.818213 23716 layer_factory.hpp:76] Creating layer inception_4a/3x3_reduce
I1019 22:44:00.818229 23716 net.cpp:110] Creating Layer inception_4a/3x3_reduce
I1019 22:44:00.818235 23716 net.cpp:477] inception_4a/3x3_reduce <- pool3/3x3_s2_pool3/3x3_s2_0_split_1
I1019 22:44:00.818243 23716 net.cpp:433] inception_4a/3x3_reduce -> inception_4a/3x3_reduce
I1019 22:44:00.818598 23716 net.cpp:155] Setting up inception_4a/3x3_reduce
I1019 22:44:00.818610 23716 net.cpp:163] Top shape: 1 96 20 20 (38400)
I1019 22:44:00.818627 23716 layer_factory.hpp:76] Creating layer inception_4a/relu_3x3_reduce
I1019 22:44:00.818635 23716 net.cpp:110] Creating Layer inception_4a/relu_3x3_reduce
I1019 22:44:00.818642 23716 net.cpp:477] inception_4a/relu_3x3_reduce <- inception_4a/3x3_reduce
I1019 22:44:00.818649 23716 net.cpp:419] inception_4a/relu_3x3_reduce -> inception_4a/3x3_reduce (in-place)
I1019 22:44:00.818708 23716 net.cpp:155] Setting up inception_4a/relu_3x3_reduce
I1019 22:44:00.818718 23716 net.cpp:163] Top shape: 1 96 20 20 (38400)
I1019 22:44:00.818727 23716 layer_factory.hpp:76] Creating layer inception_4a/3x3
I1019 22:44:00.818735 23716 net.cpp:110] Creating Layer inception_4a/3x3
I1019 22:44:00.818740 23716 net.cpp:477] inception_4a/3x3 <- inception_4a/3x3_reduce
I1019 22:44:00.818747 23716 net.cpp:433] inception_4a/3x3 -> inception_4a/3x3
I1019 22:44:00.819679 23716 net.cpp:155] Setting up inception_4a/3x3
I1019 22:44:00.819691 23716 net.cpp:163] Top shape: 1 208 20 20 (83200)
I1019 22:44:00.819700 23716 layer_factory.hpp:76] Creating layer inception_4a/relu_3x3
I1019 22:44:00.819708 23716 net.cpp:110] Creating Layer inception_4a/relu_3x3
I1019 22:44:00.819715 23716 net.cpp:477] inception_4a/relu_3x3 <- inception_4a/3x3
I1019 22:44:00.819721 23716 net.cpp:419] inception_4a/relu_3x3 -> inception_4a/3x3 (in-place)
I1019 22:44:00.819782 23716 net.cpp:155] Setting up inception_4a/relu_3x3
I1019 22:44:00.819792 23716 net.cpp:163] Top shape: 1 208 20 20 (83200)
I1019 22:44:00.819798 23716 layer_factory.hpp:76] Creating layer inception_4a/5x5_reduce
I1019 22:44:00.819807 23716 net.cpp:110] Creating Layer inception_4a/5x5_reduce
I1019 22:44:00.819813 23716 net.cpp:477] inception_4a/5x5_reduce <- pool3/3x3_s2_pool3/3x3_s2_0_split_2
I1019 22:44:00.819821 23716 net.cpp:433] inception_4a/5x5_reduce -> inception_4a/5x5_reduce
I1019 22:44:00.820166 23716 net.cpp:155] Setting up inception_4a/5x5_reduce
I1019 22:44:00.820179 23716 net.cpp:163] Top shape: 1 16 20 20 (6400)
I1019 22:44:00.820188 23716 layer_factory.hpp:76] Creating layer inception_4a/relu_5x5_reduce
I1019 22:44:00.820199 23716 net.cpp:110] Creating Layer inception_4a/relu_5x5_reduce
I1019 22:44:00.820204 23716 net.cpp:477] inception_4a/relu_5x5_reduce <- inception_4a/5x5_reduce
I1019 22:44:00.820211 23716 net.cpp:419] inception_4a/relu_5x5_reduce -> inception_4a/5x5_reduce (in-place)
I1019 22:44:00.820274 23716 net.cpp:155] Setting up inception_4a/relu_5x5_reduce
I1019 22:44:00.820284 23716 net.cpp:163] Top shape: 1 16 20 20 (6400)
I1019 22:44:00.820291 23716 layer_factory.hpp:76] Creating layer inception_4a/5x5
I1019 22:44:00.820298 23716 net.cpp:110] Creating Layer inception_4a/5x5
I1019 22:44:00.820307 23716 net.cpp:477] inception_4a/5x5 <- inception_4a/5x5_reduce
I1019 22:44:00.820314 23716 net.cpp:433] inception_4a/5x5 -> inception_4a/5x5
I1019 22:44:00.820658 23716 net.cpp:155] Setting up inception_4a/5x5
I1019 22:44:00.820670 23716 net.cpp:163] Top shape: 1 48 20 20 (19200)
I1019 22:44:00.820679 23716 layer_factory.hpp:76] Creating layer inception_4a/relu_5x5
I1019 22:44:00.820688 23716 net.cpp:110] Creating Layer inception_4a/relu_5x5
I1019 22:44:00.820693 23716 net.cpp:477] inception_4a/relu_5x5 <- inception_4a/5x5
I1019 22:44:00.820703 23716 net.cpp:419] inception_4a/relu_5x5 -> inception_4a/5x5 (in-place)
I1019 22:44:00.820875 23716 net.cpp:155] Setting up inception_4a/relu_5x5
I1019 22:44:00.820888 23716 net.cpp:163] Top shape: 1 48 20 20 (19200)
I1019 22:44:00.820894 23716 layer_factory.hpp:76] Creating layer inception_4a/pool
I1019 22:44:00.820900 23716 layer_factory.cpp:60] CUDNN does not support padding or multiple tops. Using Caffe's own pooling layer.
I1019 22:44:00.820912 23716 net.cpp:110] Creating Layer inception_4a/pool
I1019 22:44:00.820919 23716 net.cpp:477] inception_4a/pool <- pool3/3x3_s2_pool3/3x3_s2_0_split_3
I1019 22:44:00.820930 23716 net.cpp:433] inception_4a/pool -> inception_4a/pool
I1019 22:44:00.820940 23716 net.cpp:155] Setting up inception_4a/pool
I1019 22:44:00.820947 23716 net.cpp:163] Top shape: 1 480 20 20 (192000)
I1019 22:44:00.820952 23716 layer_factory.hpp:76] Creating layer inception_4a/pool_proj
I1019 22:44:00.820960 23716 net.cpp:110] Creating Layer inception_4a/pool_proj
I1019 22:44:00.820966 23716 net.cpp:477] inception_4a/pool_proj <- inception_4a/pool
I1019 22:44:00.820976 23716 net.cpp:433] inception_4a/pool_proj -> inception_4a/pool_proj
I1019 22:44:00.821318 23716 net.cpp:155] Setting up inception_4a/pool_proj
I1019 22:44:00.821331 23716 net.cpp:163] Top shape: 1 64 20 20 (25600)
I1019 22:44:00.821339 23716 layer_factory.hpp:76] Creating layer inception_4a/relu_pool_proj
I1019 22:44:00.821349 23716 net.cpp:110] Creating Layer inception_4a/relu_pool_proj
I1019 22:44:00.821357 23716 net.cpp:477] inception_4a/relu_pool_proj <- inception_4a/pool_proj
I1019 22:44:00.821363 23716 net.cpp:419] inception_4a/relu_pool_proj -> inception_4a/pool_proj (in-place)
I1019 22:44:00.821429 23716 net.cpp:155] Setting up inception_4a/relu_pool_proj
I1019 22:44:00.821439 23716 net.cpp:163] Top shape: 1 64 20 20 (25600)
I1019 22:44:00.821445 23716 layer_factory.hpp:76] Creating layer inception_4a/output
I1019 22:44:00.821454 23716 net.cpp:110] Creating Layer inception_4a/output
I1019 22:44:00.821458 23716 net.cpp:477] inception_4a/output <- inception_4a/1x1
I1019 22:44:00.821465 23716 net.cpp:477] inception_4a/output <- inception_4a/3x3
I1019 22:44:00.821471 23716 net.cpp:477] inception_4a/output <- inception_4a/5x5
I1019 22:44:00.821476 23716 net.cpp:477] inception_4a/output <- inception_4a/pool_proj
I1019 22:44:00.821485 23716 net.cpp:433] inception_4a/output -> inception_4a/output
I1019 22:44:00.821496 23716 net.cpp:155] Setting up inception_4a/output
I1019 22:44:00.821502 23716 net.cpp:163] Top shape: 1 512 20 20 (204800)
I1019 22:44:00.821508 23716 layer_factory.hpp:76] Creating layer inception_4a/output_inception_4a/output_0_split
I1019 22:44:00.821516 23716 net.cpp:110] Creating Layer inception_4a/output_inception_4a/output_0_split
I1019 22:44:00.821521 23716 net.cpp:477] inception_4a/output_inception_4a/output_0_split <- inception_4a/output
I1019 22:44:00.821528 23716 net.cpp:433] inception_4a/output_inception_4a/output_0_split -> inception_4a/output_inception_4a/output_0_split_0
I1019 22:44:00.821535 23716 net.cpp:433] inception_4a/output_inception_4a/output_0_split -> inception_4a/output_inception_4a/output_0_split_1
I1019 22:44:00.821545 23716 net.cpp:433] inception_4a/output_inception_4a/output_0_split -> inception_4a/output_inception_4a/output_0_split_2
I1019 22:44:00.821553 23716 net.cpp:433] inception_4a/output_inception_4a/output_0_split -> inception_4a/output_inception_4a/output_0_split_3
I1019 22:44:00.821562 23716 net.cpp:155] Setting up inception_4a/output_inception_4a/output_0_split
I1019 22:44:00.821568 23716 net.cpp:163] Top shape: 1 512 20 20 (204800)
I1019 22:44:00.821574 23716 net.cpp:163] Top shape: 1 512 20 20 (204800)
I1019 22:44:00.821580 23716 net.cpp:163] Top shape: 1 512 20 20 (204800)
I1019 22:44:00.821586 23716 net.cpp:163] Top shape: 1 512 20 20 (204800)
I1019 22:44:00.821591 23716 layer_factory.hpp:76] Creating layer inception_4b/1x1
I1019 22:44:00.821601 23716 net.cpp:110] Creating Layer inception_4b/1x1
I1019 22:44:00.821606 23716 net.cpp:477] inception_4b/1x1 <- inception_4a/output_inception_4a/output_0_split_0
I1019 22:44:00.821614 23716 net.cpp:433] inception_4b/1x1 -> inception_4b/1x1
I1019 22:44:00.821980 23716 net.cpp:155] Setting up inception_4b/1x1
I1019 22:44:00.821992 23716 net.cpp:163] Top shape: 1 160 20 20 (64000)
I1019 22:44:00.822001 23716 layer_factory.hpp:76] Creating layer inception_4b/relu_1x1
I1019 22:44:00.822010 23716 net.cpp:110] Creating Layer inception_4b/relu_1x1
I1019 22:44:00.822021 23716 net.cpp:477] inception_4b/relu_1x1 <- inception_4b/1x1
I1019 22:44:00.822031 23716 net.cpp:419] inception_4b/relu_1x1 -> inception_4b/1x1 (in-place)
I1019 22:44:00.822103 23716 net.cpp:155] Setting up inception_4b/relu_1x1
I1019 22:44:00.822115 23716 net.cpp:163] Top shape: 1 160 20 20 (64000)
I1019 22:44:00.822123 23716 layer_factory.hpp:76] Creating layer inception_4b/3x3_reduce
I1019 22:44:00.822132 23716 net.cpp:110] Creating Layer inception_4b/3x3_reduce
I1019 22:44:00.822139 23716 net.cpp:477] inception_4b/3x3_reduce <- inception_4a/output_inception_4a/output_0_split_1
I1019 22:44:00.822147 23716 net.cpp:433] inception_4b/3x3_reduce -> inception_4b/3x3_reduce
I1019 22:44:00.823019 23716 net.cpp:155] Setting up inception_4b/3x3_reduce
I1019 22:44:00.823034 23716 net.cpp:163] Top shape: 1 112 20 20 (44800)
I1019 22:44:00.823041 23716 layer_factory.hpp:76] Creating layer inception_4b/relu_3x3_reduce
I1019 22:44:00.823050 23716 net.cpp:110] Creating Layer inception_4b/relu_3x3_reduce
I1019 22:44:00.823055 23716 net.cpp:477] inception_4b/relu_3x3_reduce <- inception_4b/3x3_reduce
I1019 22:44:00.823065 23716 net.cpp:419] inception_4b/relu_3x3_reduce -> inception_4b/3x3_reduce (in-place)
I1019 22:44:00.823127 23716 net.cpp:155] Setting up inception_4b/relu_3x3_reduce
I1019 22:44:00.823137 23716 net.cpp:163] Top shape: 1 112 20 20 (44800)
I1019 22:44:00.823143 23716 layer_factory.hpp:76] Creating layer inception_4b/3x3
I1019 22:44:00.823153 23716 net.cpp:110] Creating Layer inception_4b/3x3
I1019 22:44:00.823159 23716 net.cpp:477] inception_4b/3x3 <- inception_4b/3x3_reduce
I1019 22:44:00.823166 23716 net.cpp:433] inception_4b/3x3 -> inception_4b/3x3
I1019 22:44:00.824129 23716 net.cpp:155] Setting up inception_4b/3x3
I1019 22:44:00.824141 23716 net.cpp:163] Top shape: 1 224 20 20 (89600)
I1019 22:44:00.824151 23716 layer_factory.hpp:76] Creating layer inception_4b/relu_3x3
I1019 22:44:00.824162 23716 net.cpp:110] Creating Layer inception_4b/relu_3x3
I1019 22:44:00.824167 23716 net.cpp:477] inception_4b/relu_3x3 <- inception_4b/3x3
I1019 22:44:00.824174 23716 net.cpp:419] inception_4b/relu_3x3 -> inception_4b/3x3 (in-place)
I1019 22:44:00.824353 23716 net.cpp:155] Setting up inception_4b/relu_3x3
I1019 22:44:00.824365 23716 net.cpp:163] Top shape: 1 224 20 20 (89600)
I1019 22:44:00.824372 23716 layer_factory.hpp:76] Creating layer inception_4b/5x5_reduce
I1019 22:44:00.824379 23716 net.cpp:110] Creating Layer inception_4b/5x5_reduce
I1019 22:44:00.824385 23716 net.cpp:477] inception_4b/5x5_reduce <- inception_4a/output_inception_4a/output_0_split_2
I1019 22:44:00.824395 23716 net.cpp:433] inception_4b/5x5_reduce -> inception_4b/5x5_reduce
I1019 22:44:00.824738 23716 net.cpp:155] Setting up inception_4b/5x5_reduce
I1019 22:44:00.824750 23716 net.cpp:163] Top shape: 1 24 20 20 (9600)
I1019 22:44:00.824759 23716 layer_factory.hpp:76] Creating layer inception_4b/relu_5x5_reduce
I1019 22:44:00.824767 23716 net.cpp:110] Creating Layer inception_4b/relu_5x5_reduce
I1019 22:44:00.824775 23716 net.cpp:477] inception_4b/relu_5x5_reduce <- inception_4b/5x5_reduce
I1019 22:44:00.824782 23716 net.cpp:419] inception_4b/relu_5x5_reduce -> inception_4b/5x5_reduce (in-place)
I1019 22:44:00.824846 23716 net.cpp:155] Setting up inception_4b/relu_5x5_reduce
I1019 22:44:00.824856 23716 net.cpp:163] Top shape: 1 24 20 20 (9600)
I1019 22:44:00.824862 23716 layer_factory.hpp:76] Creating layer inception_4b/5x5
I1019 22:44:00.824872 23716 net.cpp:110] Creating Layer inception_4b/5x5
I1019 22:44:00.824879 23716 net.cpp:477] inception_4b/5x5 <- inception_4b/5x5_reduce
I1019 22:44:00.824887 23716 net.cpp:433] inception_4b/5x5 -> inception_4b/5x5
I1019 22:44:00.825240 23716 net.cpp:155] Setting up inception_4b/5x5
I1019 22:44:00.825253 23716 net.cpp:163] Top shape: 1 64 20 20 (25600)
I1019 22:44:00.825263 23716 layer_factory.hpp:76] Creating layer inception_4b/relu_5x5
I1019 22:44:00.825278 23716 net.cpp:110] Creating Layer inception_4b/relu_5x5
I1019 22:44:00.825284 23716 net.cpp:477] inception_4b/relu_5x5 <- inception_4b/5x5
I1019 22:44:00.825302 23716 net.cpp:419] inception_4b/relu_5x5 -> inception_4b/5x5 (in-place)
I1019 22:44:00.825364 23716 net.cpp:155] Setting up inception_4b/relu_5x5
I1019 22:44:00.825376 23716 net.cpp:163] Top shape: 1 64 20 20 (25600)
I1019 22:44:00.825383 23716 layer_factory.hpp:76] Creating layer inception_4b/pool
I1019 22:44:00.825389 23716 layer_factory.cpp:60] CUDNN does not support padding or multiple tops. Using Caffe's own pooling layer.
I1019 22:44:00.825397 23716 net.cpp:110] Creating Layer inception_4b/pool
I1019 22:44:00.825402 23716 net.cpp:477] inception_4b/pool <- inception_4a/output_inception_4a/output_0_split_3
I1019 22:44:00.825409 23716 net.cpp:433] inception_4b/pool -> inception_4b/pool
I1019 22:44:00.825418 23716 net.cpp:155] Setting up inception_4b/pool
I1019 22:44:00.825425 23716 net.cpp:163] Top shape: 1 512 20 20 (204800)
I1019 22:44:00.825431 23716 layer_factory.hpp:76] Creating layer inception_4b/pool_proj
I1019 22:44:00.825441 23716 net.cpp:110] Creating Layer inception_4b/pool_proj
I1019 22:44:00.825448 23716 net.cpp:477] inception_4b/pool_proj <- inception_4b/pool
I1019 22:44:00.825456 23716 net.cpp:433] inception_4b/pool_proj -> inception_4b/pool_proj
I1019 22:44:00.825829 23716 net.cpp:155] Setting up inception_4b/pool_proj
I1019 22:44:00.825841 23716 net.cpp:163] Top shape: 1 64 20 20 (25600)
I1019 22:44:00.825850 23716 layer_factory.hpp:76] Creating layer inception_4b/relu_pool_proj
I1019 22:44:00.825858 23716 net.cpp:110] Creating Layer inception_4b/relu_pool_proj
I1019 22:44:00.825865 23716 net.cpp:477] inception_4b/relu_pool_proj <- inception_4b/pool_proj
I1019 22:44:00.825871 23716 net.cpp:419] inception_4b/relu_pool_proj -> inception_4b/pool_proj (in-place)
I1019 22:44:00.825934 23716 net.cpp:155] Setting up inception_4b/relu_pool_proj
I1019 22:44:00.825943 23716 net.cpp:163] Top shape: 1 64 20 20 (25600)
I1019 22:44:00.825952 23716 layer_factory.hpp:76] Creating layer inception_4b/output
I1019 22:44:00.825959 23716 net.cpp:110] Creating Layer inception_4b/output
I1019 22:44:00.825965 23716 net.cpp:477] inception_4b/output <- inception_4b/1x1
I1019 22:44:00.825973 23716 net.cpp:477] inception_4b/output <- inception_4b/3x3
I1019 22:44:00.825978 23716 net.cpp:477] inception_4b/output <- inception_4b/5x5
I1019 22:44:00.825984 23716 net.cpp:477] inception_4b/output <- inception_4b/pool_proj
I1019 22:44:00.825990 23716 net.cpp:433] inception_4b/output -> inception_4b/output
I1019 22:44:00.825999 23716 net.cpp:155] Setting up inception_4b/output
I1019 22:44:00.826006 23716 net.cpp:163] Top shape: 1 512 20 20 (204800)
I1019 22:44:00.826012 23716 layer_factory.hpp:76] Creating layer inception_4b/output_inception_4b/output_0_split
I1019 22:44:00.826020 23716 net.cpp:110] Creating Layer inception_4b/output_inception_4b/output_0_split
I1019 22:44:00.826025 23716 net.cpp:477] inception_4b/output_inception_4b/output_0_split <- inception_4b/output
I1019 22:44:00.826035 23716 net.cpp:433] inception_4b/output_inception_4b/output_0_split -> inception_4b/output_inception_4b/output_0_split_0
I1019 22:44:00.826048 23716 net.cpp:433] inception_4b/output_inception_4b/output_0_split -> inception_4b/output_inception_4b/output_0_split_1
I1019 22:44:00.826061 23716 net.cpp:433] inception_4b/output_inception_4b/output_0_split -> inception_4b/output_inception_4b/output_0_split_2
I1019 22:44:00.826068 23716 net.cpp:433] inception_4b/output_inception_4b/output_0_split -> inception_4b/output_inception_4b/output_0_split_3
I1019 22:44:00.826077 23716 net.cpp:155] Setting up inception_4b/output_inception_4b/output_0_split
I1019 22:44:00.826086 23716 net.cpp:163] Top shape: 1 512 20 20 (204800)
I1019 22:44:00.826092 23716 net.cpp:163] Top shape: 1 512 20 20 (204800)
I1019 22:44:00.826098 23716 net.cpp:163] Top shape: 1 512 20 20 (204800)
I1019 22:44:00.826104 23716 net.cpp:163] Top shape: 1 512 20 20 (204800)
I1019 22:44:00.826109 23716 layer_factory.hpp:76] Creating layer inception_4c/1x1
I1019 22:44:00.826117 23716 net.cpp:110] Creating Layer inception_4c/1x1
I1019 22:44:00.826123 23716 net.cpp:477] inception_4c/1x1 <- inception_4b/output_inception_4b/output_0_split_0
I1019 22:44:00.826138 23716 net.cpp:433] inception_4c/1x1 -> inception_4c/1x1
I1019 22:44:00.826503 23716 net.cpp:155] Setting up inception_4c/1x1
I1019 22:44:00.826515 23716 net.cpp:163] Top shape: 1 128 20 20 (51200)
I1019 22:44:00.826524 23716 layer_factory.hpp:76] Creating layer inception_4c/relu_1x1
I1019 22:44:00.826532 23716 net.cpp:110] Creating Layer inception_4c/relu_1x1
I1019 22:44:00.826539 23716 net.cpp:477] inception_4c/relu_1x1 <- inception_4c/1x1
I1019 22:44:00.826547 23716 net.cpp:419] inception_4c/relu_1x1 -> inception_4c/1x1 (in-place)
I1019 22:44:00.826724 23716 net.cpp:155] Setting up inception_4c/relu_1x1
I1019 22:44:00.826735 23716 net.cpp:163] Top shape: 1 128 20 20 (51200)
I1019 22:44:00.826741 23716 layer_factory.hpp:76] Creating layer inception_4c/3x3_reduce
I1019 22:44:00.826750 23716 net.cpp:110] Creating Layer inception_4c/3x3_reduce
I1019 22:44:00.826756 23716 net.cpp:477] inception_4c/3x3_reduce <- inception_4b/output_inception_4b/output_0_split_1
I1019 22:44:00.826766 23716 net.cpp:433] inception_4c/3x3_reduce -> inception_4c/3x3_reduce
I1019 22:44:00.827132 23716 net.cpp:155] Setting up inception_4c/3x3_reduce
I1019 22:44:00.827144 23716 net.cpp:163] Top shape: 1 128 20 20 (51200)
I1019 22:44:00.827153 23716 layer_factory.hpp:76] Creating layer inception_4c/relu_3x3_reduce
I1019 22:44:00.827162 23716 net.cpp:110] Creating Layer inception_4c/relu_3x3_reduce
I1019 22:44:00.827167 23716 net.cpp:477] inception_4c/relu_3x3_reduce <- inception_4c/3x3_reduce
I1019 22:44:00.827177 23716 net.cpp:419] inception_4c/relu_3x3_reduce -> inception_4c/3x3_reduce (in-place)
I1019 22:44:00.827239 23716 net.cpp:155] Setting up inception_4c/relu_3x3_reduce
I1019 22:44:00.827249 23716 net.cpp:163] Top shape: 1 128 20 20 (51200)
I1019 22:44:00.827255 23716 layer_factory.hpp:76] Creating layer inception_4c/3x3
I1019 22:44:00.827265 23716 net.cpp:110] Creating Layer inception_4c/3x3
I1019 22:44:00.827270 23716 net.cpp:477] inception_4c/3x3 <- inception_4c/3x3_reduce
I1019 22:44:00.827280 23716 net.cpp:433] inception_4c/3x3 -> inception_4c/3x3
I1019 22:44:00.828344 23716 net.cpp:155] Setting up inception_4c/3x3
I1019 22:44:00.828357 23716 net.cpp:163] Top shape: 1 256 20 20 (102400)
I1019 22:44:00.828366 23716 layer_factory.hpp:76] Creating layer inception_4c/relu_3x3
I1019 22:44:00.828374 23716 net.cpp:110] Creating Layer inception_4c/relu_3x3
I1019 22:44:00.828380 23716 net.cpp:477] inception_4c/relu_3x3 <- inception_4c/3x3
I1019 22:44:00.828389 23716 net.cpp:419] inception_4c/relu_3x3 -> inception_4c/3x3 (in-place)
I1019 22:44:00.828454 23716 net.cpp:155] Setting up inception_4c/relu_3x3
I1019 22:44:00.828462 23716 net.cpp:163] Top shape: 1 256 20 20 (102400)
I1019 22:44:00.828469 23716 layer_factory.hpp:76] Creating layer inception_4c/5x5_reduce
I1019 22:44:00.828480 23716 net.cpp:110] Creating Layer inception_4c/5x5_reduce
I1019 22:44:00.828485 23716 net.cpp:477] inception_4c/5x5_reduce <- inception_4b/output_inception_4b/output_0_split_2
I1019 22:44:00.828495 23716 net.cpp:433] inception_4c/5x5_reduce -> inception_4c/5x5_reduce
I1019 22:44:00.828835 23716 net.cpp:155] Setting up inception_4c/5x5_reduce
I1019 22:44:00.828850 23716 net.cpp:163] Top shape: 1 24 20 20 (9600)
I1019 22:44:00.828858 23716 layer_factory.hpp:76] Creating layer inception_4c/relu_5x5_reduce
I1019 22:44:00.828866 23716 net.cpp:110] Creating Layer inception_4c/relu_5x5_reduce
I1019 22:44:00.828872 23716 net.cpp:477] inception_4c/relu_5x5_reduce <- inception_4c/5x5_reduce
I1019 22:44:00.828878 23716 net.cpp:419] inception_4c/relu_5x5_reduce -> inception_4c/5x5_reduce (in-place)
I1019 22:44:00.829053 23716 net.cpp:155] Setting up inception_4c/relu_5x5_reduce
I1019 22:44:00.829064 23716 net.cpp:163] Top shape: 1 24 20 20 (9600)
I1019 22:44:00.829071 23716 layer_factory.hpp:76] Creating layer inception_4c/5x5
I1019 22:44:00.829082 23716 net.cpp:110] Creating Layer inception_4c/5x5
I1019 22:44:00.829087 23716 net.cpp:477] inception_4c/5x5 <- inception_4c/5x5_reduce
I1019 22:44:00.829102 23716 net.cpp:433] inception_4c/5x5 -> inception_4c/5x5
I1019 22:44:00.829465 23716 net.cpp:155] Setting up inception_4c/5x5
I1019 22:44:00.829478 23716 net.cpp:163] Top shape: 1 64 20 20 (25600)
I1019 22:44:00.829486 23716 layer_factory.hpp:76] Creating layer inception_4c/relu_5x5
I1019 22:44:00.829494 23716 net.cpp:110] Creating Layer inception_4c/relu_5x5
I1019 22:44:00.829500 23716 net.cpp:477] inception_4c/relu_5x5 <- inception_4c/5x5
I1019 22:44:00.829507 23716 net.cpp:419] inception_4c/relu_5x5 -> inception_4c/5x5 (in-place)
I1019 22:44:00.829574 23716 net.cpp:155] Setting up inception_4c/relu_5x5
I1019 22:44:00.829584 23716 net.cpp:163] Top shape: 1 64 20 20 (25600)
I1019 22:44:00.829589 23716 layer_factory.hpp:76] Creating layer inception_4c/pool
I1019 22:44:00.829596 23716 layer_factory.cpp:60] CUDNN does not support padding or multiple tops. Using Caffe's own pooling layer.
I1019 22:44:00.829604 23716 net.cpp:110] Creating Layer inception_4c/pool
I1019 22:44:00.829610 23716 net.cpp:477] inception_4c/pool <- inception_4b/output_inception_4b/output_0_split_3
I1019 22:44:00.829618 23716 net.cpp:433] inception_4c/pool -> inception_4c/pool
I1019 22:44:00.829633 23716 net.cpp:155] Setting up inception_4c/pool
I1019 22:44:00.829641 23716 net.cpp:163] Top shape: 1 512 20 20 (204800)
I1019 22:44:00.829648 23716 layer_factory.hpp:76] Creating layer inception_4c/pool_proj
I1019 22:44:00.829658 23716 net.cpp:110] Creating Layer inception_4c/pool_proj
I1019 22:44:00.829663 23716 net.cpp:477] inception_4c/pool_proj <- inception_4c/pool
I1019 22:44:00.829670 23716 net.cpp:433] inception_4c/pool_proj -> inception_4c/pool_proj
I1019 22:44:00.830543 23716 net.cpp:155] Setting up inception_4c/pool_proj
I1019 22:44:00.830559 23716 net.cpp:163] Top shape: 1 64 20 20 (25600)
I1019 22:44:00.830579 23716 layer_factory.hpp:76] Creating layer inception_4c/relu_pool_proj
I1019 22:44:00.830590 23716 net.cpp:110] Creating Layer inception_4c/relu_pool_proj
I1019 22:44:00.830596 23716 net.cpp:477] inception_4c/relu_pool_proj <- inception_4c/pool_proj
I1019 22:44:00.830603 23716 net.cpp:419] inception_4c/relu_pool_proj -> inception_4c/pool_proj (in-place)
I1019 22:44:00.830665 23716 net.cpp:155] Setting up inception_4c/relu_pool_proj
I1019 22:44:00.830675 23716 net.cpp:163] Top shape: 1 64 20 20 (25600)
I1019 22:44:00.830682 23716 layer_factory.hpp:76] Creating layer inception_4c/output
I1019 22:44:00.830688 23716 net.cpp:110] Creating Layer inception_4c/output
I1019 22:44:00.830696 23716 net.cpp:477] inception_4c/output <- inception_4c/1x1
I1019 22:44:00.830703 23716 net.cpp:477] inception_4c/output <- inception_4c/3x3
I1019 22:44:00.830709 23716 net.cpp:477] inception_4c/output <- inception_4c/5x5
I1019 22:44:00.830715 23716 net.cpp:477] inception_4c/output <- inception_4c/pool_proj
I1019 22:44:00.830723 23716 net.cpp:433] inception_4c/output -> inception_4c/output
I1019 22:44:00.830731 23716 net.cpp:155] Setting up inception_4c/output
I1019 22:44:00.830739 23716 net.cpp:163] Top shape: 1 512 20 20 (204800)
I1019 22:44:00.830744 23716 layer_factory.hpp:76] Creating layer inception_4c/output_inception_4c/output_0_split
I1019 22:44:00.830752 23716 net.cpp:110] Creating Layer inception_4c/output_inception_4c/output_0_split
I1019 22:44:00.830757 23716 net.cpp:477] inception_4c/output_inception_4c/output_0_split <- inception_4c/output
I1019 22:44:00.830767 23716 net.cpp:433] inception_4c/output_inception_4c/output_0_split -> inception_4c/output_inception_4c/output_0_split_0
I1019 22:44:00.830776 23716 net.cpp:433] inception_4c/output_inception_4c/output_0_split -> inception_4c/output_inception_4c/output_0_split_1
I1019 22:44:00.830785 23716 net.cpp:433] inception_4c/output_inception_4c/output_0_split -> inception_4c/output_inception_4c/output_0_split_2
I1019 22:44:00.830791 23716 net.cpp:433] inception_4c/output_inception_4c/output_0_split -> inception_4c/output_inception_4c/output_0_split_3
I1019 22:44:00.830799 23716 net.cpp:155] Setting up inception_4c/output_inception_4c/output_0_split
I1019 22:44:00.830806 23716 net.cpp:163] Top shape: 1 512 20 20 (204800)
I1019 22:44:00.830816 23716 net.cpp:163] Top shape: 1 512 20 20 (204800)
I1019 22:44:00.830823 23716 net.cpp:163] Top shape: 1 512 20 20 (204800)
I1019 22:44:00.830829 23716 net.cpp:163] Top shape: 1 512 20 20 (204800)
I1019 22:44:00.830834 23716 layer_factory.hpp:76] Creating layer inception_4d/1x1
I1019 22:44:00.830844 23716 net.cpp:110] Creating Layer inception_4d/1x1
I1019 22:44:00.830850 23716 net.cpp:477] inception_4d/1x1 <- inception_4c/output_inception_4c/output_0_split_0
I1019 22:44:00.830857 23716 net.cpp:433] inception_4d/1x1 -> inception_4d/1x1
I1019 22:44:00.831225 23716 net.cpp:155] Setting up inception_4d/1x1
I1019 22:44:00.831238 23716 net.cpp:163] Top shape: 1 112 20 20 (44800)
I1019 22:44:00.831248 23716 layer_factory.hpp:76] Creating layer inception_4d/relu_1x1
I1019 22:44:00.831257 23716 net.cpp:110] Creating Layer inception_4d/relu_1x1
I1019 22:44:00.831264 23716 net.cpp:477] inception_4d/relu_1x1 <- inception_4d/1x1
I1019 22:44:00.831270 23716 net.cpp:419] inception_4d/relu_1x1 -> inception_4d/1x1 (in-place)
I1019 22:44:00.831334 23716 net.cpp:155] Setting up inception_4d/relu_1x1
I1019 22:44:00.831344 23716 net.cpp:163] Top shape: 1 112 20 20 (44800)
I1019 22:44:00.831351 23716 layer_factory.hpp:76] Creating layer inception_4d/3x3_reduce
I1019 22:44:00.831358 23716 net.cpp:110] Creating Layer inception_4d/3x3_reduce
I1019 22:44:00.831364 23716 net.cpp:477] inception_4d/3x3_reduce <- inception_4c/output_inception_4c/output_0_split_1
I1019 22:44:00.831373 23716 net.cpp:433] inception_4d/3x3_reduce -> inception_4d/3x3_reduce
I1019 22:44:00.831754 23716 net.cpp:155] Setting up inception_4d/3x3_reduce
I1019 22:44:00.831768 23716 net.cpp:163] Top shape: 1 144 20 20 (57600)
I1019 22:44:00.831776 23716 layer_factory.hpp:76] Creating layer inception_4d/relu_3x3_reduce
I1019 22:44:00.831784 23716 net.cpp:110] Creating Layer inception_4d/relu_3x3_reduce
I1019 22:44:00.831789 23716 net.cpp:477] inception_4d/relu_3x3_reduce <- inception_4d/3x3_reduce
I1019 22:44:00.831799 23716 net.cpp:419] inception_4d/relu_3x3_reduce -> inception_4d/3x3_reduce (in-place)
I1019 22:44:00.831979 23716 net.cpp:155] Setting up inception_4d/relu_3x3_reduce
I1019 22:44:00.831991 23716 net.cpp:163] Top shape: 1 144 20 20 (57600)
I1019 22:44:00.831997 23716 layer_factory.hpp:76] Creating layer inception_4d/3x3
I1019 22:44:00.832007 23716 net.cpp:110] Creating Layer inception_4d/3x3
I1019 22:44:00.832015 23716 net.cpp:477] inception_4d/3x3 <- inception_4d/3x3_reduce
I1019 22:44:00.832023 23716 net.cpp:433] inception_4d/3x3 -> inception_4d/3x3
I1019 22:44:00.833216 23716 net.cpp:155] Setting up inception_4d/3x3
I1019 22:44:00.833230 23716 net.cpp:163] Top shape: 1 288 20 20 (115200)
I1019 22:44:00.833238 23716 layer_factory.hpp:76] Creating layer inception_4d/relu_3x3
I1019 22:44:00.833248 23716 net.cpp:110] Creating Layer inception_4d/relu_3x3
I1019 22:44:00.833256 23716 net.cpp:477] inception_4d/relu_3x3 <- inception_4d/3x3
I1019 22:44:00.833263 23716 net.cpp:419] inception_4d/relu_3x3 -> inception_4d/3x3 (in-place)
I1019 22:44:00.833325 23716 net.cpp:155] Setting up inception_4d/relu_3x3
I1019 22:44:00.833335 23716 net.cpp:163] Top shape: 1 288 20 20 (115200)
I1019 22:44:00.833341 23716 layer_factory.hpp:76] Creating layer inception_4d/5x5_reduce
I1019 22:44:00.833351 23716 net.cpp:110] Creating Layer inception_4d/5x5_reduce
I1019 22:44:00.833358 23716 net.cpp:477] inception_4d/5x5_reduce <- inception_4c/output_inception_4c/output_0_split_2
I1019 22:44:00.833364 23716 net.cpp:433] inception_4d/5x5_reduce -> inception_4d/5x5_reduce
I1019 22:44:00.833716 23716 net.cpp:155] Setting up inception_4d/5x5_reduce
I1019 22:44:00.833729 23716 net.cpp:163] Top shape: 1 32 20 20 (12800)
I1019 22:44:00.833739 23716 layer_factory.hpp:76] Creating layer inception_4d/relu_5x5_reduce
I1019 22:44:00.833746 23716 net.cpp:110] Creating Layer inception_4d/relu_5x5_reduce
I1019 22:44:00.833752 23716 net.cpp:477] inception_4d/relu_5x5_reduce <- inception_4d/5x5_reduce
I1019 22:44:00.833762 23716 net.cpp:419] inception_4d/relu_5x5_reduce -> inception_4d/5x5_reduce (in-place)
I1019 22:44:00.833832 23716 net.cpp:155] Setting up inception_4d/relu_5x5_reduce
I1019 22:44:00.833842 23716 net.cpp:163] Top shape: 1 32 20 20 (12800)
I1019 22:44:00.833848 23716 layer_factory.hpp:76] Creating layer inception_4d/5x5
I1019 22:44:00.833856 23716 net.cpp:110] Creating Layer inception_4d/5x5
I1019 22:44:00.833863 23716 net.cpp:477] inception_4d/5x5 <- inception_4d/5x5_reduce
I1019 22:44:00.833873 23716 net.cpp:433] inception_4d/5x5 -> inception_4d/5x5
I1019 22:44:00.834239 23716 net.cpp:155] Setting up inception_4d/5x5
I1019 22:44:00.834254 23716 net.cpp:163] Top shape: 1 64 20 20 (25600)
I1019 22:44:00.834264 23716 layer_factory.hpp:76] Creating layer inception_4d/relu_5x5
I1019 22:44:00.834272 23716 net.cpp:110] Creating Layer inception_4d/relu_5x5
I1019 22:44:00.834278 23716 net.cpp:477] inception_4d/relu_5x5 <- inception_4d/5x5
I1019 22:44:00.834285 23716 net.cpp:419] inception_4d/relu_5x5 -> inception_4d/5x5 (in-place)
I1019 22:44:00.834347 23716 net.cpp:155] Setting up inception_4d/relu_5x5
I1019 22:44:00.834357 23716 net.cpp:163] Top shape: 1 64 20 20 (25600)
I1019 22:44:00.834362 23716 layer_factory.hpp:76] Creating layer inception_4d/pool
I1019 22:44:00.834368 23716 layer_factory.cpp:60] CUDNN does not support padding or multiple tops. Using Caffe's own pooling layer.
I1019 22:44:00.834377 23716 net.cpp:110] Creating Layer inception_4d/pool
I1019 22:44:00.834383 23716 net.cpp:477] inception_4d/pool <- inception_4c/output_inception_4c/output_0_split_3
I1019 22:44:00.834390 23716 net.cpp:433] inception_4d/pool -> inception_4d/pool
I1019 22:44:00.834399 23716 net.cpp:155] Setting up inception_4d/pool
I1019 22:44:00.834406 23716 net.cpp:163] Top shape: 1 512 20 20 (204800)
I1019 22:44:00.834413 23716 layer_factory.hpp:76] Creating layer inception_4d/pool_proj
I1019 22:44:00.834422 23716 net.cpp:110] Creating Layer inception_4d/pool_proj
I1019 22:44:00.834429 23716 net.cpp:477] inception_4d/pool_proj <- inception_4d/pool
I1019 22:44:00.834437 23716 net.cpp:433] inception_4d/pool_proj -> inception_4d/pool_proj
I1019 22:44:00.834794 23716 net.cpp:155] Setting up inception_4d/pool_proj
I1019 22:44:00.834806 23716 net.cpp:163] Top shape: 1 64 20 20 (25600)
I1019 22:44:00.834816 23716 layer_factory.hpp:76] Creating layer inception_4d/relu_pool_proj
I1019 22:44:00.834823 23716 net.cpp:110] Creating Layer inception_4d/relu_pool_proj
I1019 22:44:00.834830 23716 net.cpp:477] inception_4d/relu_pool_proj <- inception_4d/pool_proj
I1019 22:44:00.834836 23716 net.cpp:419] inception_4d/relu_pool_proj -> inception_4d/pool_proj (in-place)
I1019 22:44:00.835012 23716 net.cpp:155] Setting up inception_4d/relu_pool_proj
I1019 22:44:00.835024 23716 net.cpp:163] Top shape: 1 64 20 20 (25600)
I1019 22:44:00.835031 23716 layer_factory.hpp:76] Creating layer inception_4d/output
I1019 22:44:00.835041 23716 net.cpp:110] Creating Layer inception_4d/output
I1019 22:44:00.835047 23716 net.cpp:477] inception_4d/output <- inception_4d/1x1
I1019 22:44:00.835053 23716 net.cpp:477] inception_4d/output <- inception_4d/3x3
I1019 22:44:00.835059 23716 net.cpp:477] inception_4d/output <- inception_4d/5x5
I1019 22:44:00.835065 23716 net.cpp:477] inception_4d/output <- inception_4d/pool_proj
I1019 22:44:00.835072 23716 net.cpp:433] inception_4d/output -> inception_4d/output
I1019 22:44:00.835081 23716 net.cpp:155] Setting up inception_4d/output
I1019 22:44:00.835088 23716 net.cpp:163] Top shape: 1 528 20 20 (211200)
I1019 22:44:00.835094 23716 layer_factory.hpp:76] Creating layer inception_4d/output_inception_4d/output_0_split
I1019 22:44:00.835103 23716 net.cpp:110] Creating Layer inception_4d/output_inception_4d/output_0_split
I1019 22:44:00.835110 23716 net.cpp:477] inception_4d/output_inception_4d/output_0_split <- inception_4d/output
I1019 22:44:00.835117 23716 net.cpp:433] inception_4d/output_inception_4d/output_0_split -> inception_4d/output_inception_4d/output_0_split_0
I1019 22:44:00.835124 23716 net.cpp:433] inception_4d/output_inception_4d/output_0_split -> inception_4d/output_inception_4d/output_0_split_1
I1019 22:44:00.835139 23716 net.cpp:433] inception_4d/output_inception_4d/output_0_split -> inception_4d/output_inception_4d/output_0_split_2
I1019 22:44:00.835146 23716 net.cpp:433] inception_4d/output_inception_4d/output_0_split -> inception_4d/output_inception_4d/output_0_split_3
I1019 22:44:00.835155 23716 net.cpp:155] Setting up inception_4d/output_inception_4d/output_0_split
I1019 22:44:00.835161 23716 net.cpp:163] Top shape: 1 528 20 20 (211200)
I1019 22:44:00.835167 23716 net.cpp:163] Top shape: 1 528 20 20 (211200)
I1019 22:44:00.835173 23716 net.cpp:163] Top shape: 1 528 20 20 (211200)
I1019 22:44:00.835180 23716 net.cpp:163] Top shape: 1 528 20 20 (211200)
I1019 22:44:00.835186 23716 layer_factory.hpp:76] Creating layer inception_4e/1x1
I1019 22:44:00.835194 23716 net.cpp:110] Creating Layer inception_4e/1x1
I1019 22:44:00.835201 23716 net.cpp:477] inception_4e/1x1 <- inception_4d/output_inception_4d/output_0_split_0
I1019 22:44:00.835209 23716 net.cpp:433] inception_4e/1x1 -> inception_4e/1x1
I1019 22:44:00.836127 23716 net.cpp:155] Setting up inception_4e/1x1
I1019 22:44:00.836139 23716 net.cpp:163] Top shape: 1 256 20 20 (102400)
I1019 22:44:00.836148 23716 layer_factory.hpp:76] Creating layer inception_4e/relu_1x1
I1019 22:44:00.836156 23716 net.cpp:110] Creating Layer inception_4e/relu_1x1
I1019 22:44:00.836163 23716 net.cpp:477] inception_4e/relu_1x1 <- inception_4e/1x1
I1019 22:44:00.836172 23716 net.cpp:419] inception_4e/relu_1x1 -> inception_4e/1x1 (in-place)
I1019 22:44:00.836237 23716 net.cpp:155] Setting up inception_4e/relu_1x1
I1019 22:44:00.836246 23716 net.cpp:163] Top shape: 1 256 20 20 (102400)
I1019 22:44:00.836252 23716 layer_factory.hpp:76] Creating layer inception_4e/3x3_reduce
I1019 22:44:00.836262 23716 net.cpp:110] Creating Layer inception_4e/3x3_reduce
I1019 22:44:00.836268 23716 net.cpp:477] inception_4e/3x3_reduce <- inception_4d/output_inception_4d/output_0_split_1
I1019 22:44:00.836278 23716 net.cpp:433] inception_4e/3x3_reduce -> inception_4e/3x3_reduce
I1019 22:44:00.836657 23716 net.cpp:155] Setting up inception_4e/3x3_reduce
I1019 22:44:00.836668 23716 net.cpp:163] Top shape: 1 160 20 20 (64000)
I1019 22:44:00.836678 23716 layer_factory.hpp:76] Creating layer inception_4e/relu_3x3_reduce
I1019 22:44:00.836685 23716 net.cpp:110] Creating Layer inception_4e/relu_3x3_reduce
I1019 22:44:00.836691 23716 net.cpp:477] inception_4e/relu_3x3_reduce <- inception_4e/3x3_reduce
I1019 22:44:00.836699 23716 net.cpp:419] inception_4e/relu_3x3_reduce -> inception_4e/3x3_reduce (in-place)
I1019 22:44:00.836760 23716 net.cpp:155] Setting up inception_4e/relu_3x3_reduce
I1019 22:44:00.836769 23716 net.cpp:163] Top shape: 1 160 20 20 (64000)
I1019 22:44:00.836776 23716 layer_factory.hpp:76] Creating layer inception_4e/3x3
I1019 22:44:00.836783 23716 net.cpp:110] Creating Layer inception_4e/3x3
I1019 22:44:00.836789 23716 net.cpp:477] inception_4e/3x3 <- inception_4e/3x3_reduce
I1019 22:44:00.836798 23716 net.cpp:433] inception_4e/3x3 -> inception_4e/3x3
I1019 22:44:00.838176 23716 net.cpp:155] Setting up inception_4e/3x3
I1019 22:44:00.838192 23716 net.cpp:163] Top shape: 1 320 20 20 (128000)
I1019 22:44:00.838201 23716 layer_factory.hpp:76] Creating layer inception_4e/relu_3x3
I1019 22:44:00.838209 23716 net.cpp:110] Creating Layer inception_4e/relu_3x3
I1019 22:44:00.838215 23716 net.cpp:477] inception_4e/relu_3x3 <- inception_4e/3x3
I1019 22:44:00.838225 23716 net.cpp:419] inception_4e/relu_3x3 -> inception_4e/3x3 (in-place)
I1019 22:44:00.838289 23716 net.cpp:155] Setting up inception_4e/relu_3x3
I1019 22:44:00.838297 23716 net.cpp:163] Top shape: 1 320 20 20 (128000)
I1019 22:44:00.838304 23716 layer_factory.hpp:76] Creating layer inception_4e/5x5_reduce
I1019 22:44:00.838313 23716 net.cpp:110] Creating Layer inception_4e/5x5_reduce
I1019 22:44:00.838320 23716 net.cpp:477] inception_4e/5x5_reduce <- inception_4d/output_inception_4d/output_0_split_2
I1019 22:44:00.838327 23716 net.cpp:433] inception_4e/5x5_reduce -> inception_4e/5x5_reduce
I1019 22:44:00.838698 23716 net.cpp:155] Setting up inception_4e/5x5_reduce
I1019 22:44:00.838717 23716 net.cpp:163] Top shape: 1 32 20 20 (12800)
I1019 22:44:00.838727 23716 layer_factory.hpp:76] Creating layer inception_4e/relu_5x5_reduce
I1019 22:44:00.838735 23716 net.cpp:110] Creating Layer inception_4e/relu_5x5_reduce
I1019 22:44:00.838742 23716 net.cpp:477] inception_4e/relu_5x5_reduce <- inception_4e/5x5_reduce
I1019 22:44:00.838748 23716 net.cpp:419] inception_4e/relu_5x5_reduce -> inception_4e/5x5_reduce (in-place)
I1019 22:44:00.838924 23716 net.cpp:155] Setting up inception_4e/relu_5x5_reduce
I1019 22:44:00.838937 23716 net.cpp:163] Top shape: 1 32 20 20 (12800)
I1019 22:44:00.838943 23716 layer_factory.hpp:76] Creating layer inception_4e/5x5
I1019 22:44:00.838950 23716 net.cpp:110] Creating Layer inception_4e/5x5
I1019 22:44:00.838956 23716 net.cpp:477] inception_4e/5x5 <- inception_4e/5x5_reduce
I1019 22:44:00.838966 23716 net.cpp:433] inception_4e/5x5 -> inception_4e/5x5
I1019 22:44:00.839870 23716 net.cpp:155] Setting up inception_4e/5x5
I1019 22:44:00.839884 23716 net.cpp:163] Top shape: 1 128 20 20 (51200)
I1019 22:44:00.839892 23716 layer_factory.hpp:76] Creating layer inception_4e/relu_5x5
I1019 22:44:00.839900 23716 net.cpp:110] Creating Layer inception_4e/relu_5x5
I1019 22:44:00.839906 23716 net.cpp:477] inception_4e/relu_5x5 <- inception_4e/5x5
I1019 22:44:00.839915 23716 net.cpp:419] inception_4e/relu_5x5 -> inception_4e/5x5 (in-place)
I1019 22:44:00.839979 23716 net.cpp:155] Setting up inception_4e/relu_5x5
I1019 22:44:00.839988 23716 net.cpp:163] Top shape: 1 128 20 20 (51200)
I1019 22:44:00.839994 23716 layer_factory.hpp:76] Creating layer inception_4e/pool
I1019 22:44:00.840001 23716 layer_factory.cpp:60] CUDNN does not support padding or multiple tops. Using Caffe's own pooling layer.
I1019 22:44:00.840009 23716 net.cpp:110] Creating Layer inception_4e/pool
I1019 22:44:00.840015 23716 net.cpp:477] inception_4e/pool <- inception_4d/output_inception_4d/output_0_split_3
I1019 22:44:00.840023 23716 net.cpp:433] inception_4e/pool -> inception_4e/pool
I1019 22:44:00.840032 23716 net.cpp:155] Setting up inception_4e/pool
I1019 22:44:00.840039 23716 net.cpp:163] Top shape: 1 528 20 20 (211200)
I1019 22:44:00.840045 23716 layer_factory.hpp:76] Creating layer inception_4e/pool_proj
I1019 22:44:00.840055 23716 net.cpp:110] Creating Layer inception_4e/pool_proj
I1019 22:44:00.840061 23716 net.cpp:477] inception_4e/pool_proj <- inception_4e/pool
I1019 22:44:00.840068 23716 net.cpp:433] inception_4e/pool_proj -> inception_4e/pool_proj
I1019 22:44:00.840436 23716 net.cpp:155] Setting up inception_4e/pool_proj
I1019 22:44:00.840448 23716 net.cpp:163] Top shape: 1 128 20 20 (51200)
I1019 22:44:00.840457 23716 layer_factory.hpp:76] Creating layer inception_4e/relu_pool_proj
I1019 22:44:00.840467 23716 net.cpp:110] Creating Layer inception_4e/relu_pool_proj
I1019 22:44:00.840473 23716 net.cpp:477] inception_4e/relu_pool_proj <- inception_4e/pool_proj
I1019 22:44:00.840481 23716 net.cpp:419] inception_4e/relu_pool_proj -> inception_4e/pool_proj (in-place)
I1019 22:44:00.840545 23716 net.cpp:155] Setting up inception_4e/relu_pool_proj
I1019 22:44:00.840554 23716 net.cpp:163] Top shape: 1 128 20 20 (51200)
I1019 22:44:00.840560 23716 layer_factory.hpp:76] Creating layer inception_4e/output
I1019 22:44:00.840569 23716 net.cpp:110] Creating Layer inception_4e/output
I1019 22:44:00.840574 23716 net.cpp:477] inception_4e/output <- inception_4e/1x1
I1019 22:44:00.840580 23716 net.cpp:477] inception_4e/output <- inception_4e/3x3
I1019 22:44:00.840586 23716 net.cpp:477] inception_4e/output <- inception_4e/5x5
I1019 22:44:00.840592 23716 net.cpp:477] inception_4e/output <- inception_4e/pool_proj
I1019 22:44:00.840600 23716 net.cpp:433] inception_4e/output -> inception_4e/output
I1019 22:44:00.840610 23716 net.cpp:155] Setting up inception_4e/output
I1019 22:44:00.840617 23716 net.cpp:163] Top shape: 1 832 20 20 (332800)
I1019 22:44:00.840622 23716 layer_factory.hpp:76] Creating layer pool4/3x3_s2
I1019 22:44:00.840631 23716 net.cpp:110] Creating Layer pool4/3x3_s2
I1019 22:44:00.840641 23716 net.cpp:477] pool4/3x3_s2 <- inception_4e/output
I1019 22:44:00.840651 23716 net.cpp:433] pool4/3x3_s2 -> pool4/3x3_s2
I1019 22:44:00.840831 23716 net.cpp:155] Setting up pool4/3x3_s2
I1019 22:44:00.840843 23716 net.cpp:163] Top shape: 1 832 10 10 (83200)
I1019 22:44:00.840849 23716 layer_factory.hpp:76] Creating layer pool4/3x3_s2_pool4/3x3_s2_0_split
I1019 22:44:00.840857 23716 net.cpp:110] Creating Layer pool4/3x3_s2_pool4/3x3_s2_0_split
I1019 22:44:00.840863 23716 net.cpp:477] pool4/3x3_s2_pool4/3x3_s2_0_split <- pool4/3x3_s2
I1019 22:44:00.840873 23716 net.cpp:433] pool4/3x3_s2_pool4/3x3_s2_0_split -> pool4/3x3_s2_pool4/3x3_s2_0_split_0
I1019 22:44:00.840881 23716 net.cpp:433] pool4/3x3_s2_pool4/3x3_s2_0_split -> pool4/3x3_s2_pool4/3x3_s2_0_split_1
I1019 22:44:00.840889 23716 net.cpp:433] pool4/3x3_s2_pool4/3x3_s2_0_split -> pool4/3x3_s2_pool4/3x3_s2_0_split_2
I1019 22:44:00.840896 23716 net.cpp:433] pool4/3x3_s2_pool4/3x3_s2_0_split -> pool4/3x3_s2_pool4/3x3_s2_0_split_3
I1019 22:44:00.840905 23716 net.cpp:155] Setting up pool4/3x3_s2_pool4/3x3_s2_0_split
I1019 22:44:00.840911 23716 net.cpp:163] Top shape: 1 832 10 10 (83200)
I1019 22:44:00.840919 23716 net.cpp:163] Top shape: 1 832 10 10 (83200)
I1019 22:44:00.840924 23716 net.cpp:163] Top shape: 1 832 10 10 (83200)
I1019 22:44:00.840929 23716 net.cpp:163] Top shape: 1 832 10 10 (83200)
I1019 22:44:00.840935 23716 layer_factory.hpp:76] Creating layer inception_5a/1x1
I1019 22:44:00.840945 23716 net.cpp:110] Creating Layer inception_5a/1x1
I1019 22:44:00.840951 23716 net.cpp:477] inception_5a/1x1 <- pool4/3x3_s2_pool4/3x3_s2_0_split_0
I1019 22:44:00.840958 23716 net.cpp:433] inception_5a/1x1 -> inception_5a/1x1
I1019 22:44:00.841915 23716 net.cpp:155] Setting up inception_5a/1x1
I1019 22:44:00.841928 23716 net.cpp:163] Top shape: 1 256 10 10 (25600)
I1019 22:44:00.841938 23716 layer_factory.hpp:76] Creating layer inception_5a/relu_1x1
I1019 22:44:00.841945 23716 net.cpp:110] Creating Layer inception_5a/relu_1x1
I1019 22:44:00.841951 23716 net.cpp:477] inception_5a/relu_1x1 <- inception_5a/1x1
I1019 22:44:00.841960 23716 net.cpp:419] inception_5a/relu_1x1 -> inception_5a/1x1 (in-place)
I1019 22:44:00.842021 23716 net.cpp:155] Setting up inception_5a/relu_1x1
I1019 22:44:00.842031 23716 net.cpp:163] Top shape: 1 256 10 10 (25600)
I1019 22:44:00.842036 23716 layer_factory.hpp:76] Creating layer inception_5a/3x3_reduce
I1019 22:44:00.842052 23716 net.cpp:110] Creating Layer inception_5a/3x3_reduce
I1019 22:44:00.842062 23716 net.cpp:477] inception_5a/3x3_reduce <- pool4/3x3_s2_pool4/3x3_s2_0_split_1
I1019 22:44:00.842070 23716 net.cpp:433] inception_5a/3x3_reduce -> inception_5a/3x3_reduce
I1019 22:44:00.843005 23716 net.cpp:155] Setting up inception_5a/3x3_reduce
I1019 22:44:00.843020 23716 net.cpp:163] Top shape: 1 160 10 10 (16000)
I1019 22:44:00.843029 23716 layer_factory.hpp:76] Creating layer inception_5a/relu_3x3_reduce
I1019 22:44:00.843037 23716 net.cpp:110] Creating Layer inception_5a/relu_3x3_reduce
I1019 22:44:00.843044 23716 net.cpp:477] inception_5a/relu_3x3_reduce <- inception_5a/3x3_reduce
I1019 22:44:00.843050 23716 net.cpp:419] inception_5a/relu_3x3_reduce -> inception_5a/3x3_reduce (in-place)
I1019 22:44:00.843114 23716 net.cpp:155] Setting up inception_5a/relu_3x3_reduce
I1019 22:44:00.843124 23716 net.cpp:163] Top shape: 1 160 10 10 (16000)
I1019 22:44:00.843130 23716 layer_factory.hpp:76] Creating layer inception_5a/3x3
I1019 22:44:00.843140 23716 net.cpp:110] Creating Layer inception_5a/3x3
I1019 22:44:00.843147 23716 net.cpp:477] inception_5a/3x3 <- inception_5a/3x3_reduce
I1019 22:44:00.843153 23716 net.cpp:433] inception_5a/3x3 -> inception_5a/3x3
I1019 22:44:00.844555 23716 net.cpp:155] Setting up inception_5a/3x3
I1019 22:44:00.844569 23716 net.cpp:163] Top shape: 1 320 10 10 (32000)
I1019 22:44:00.844578 23716 layer_factory.hpp:76] Creating layer inception_5a/relu_3x3
I1019 22:44:00.844589 23716 net.cpp:110] Creating Layer inception_5a/relu_3x3
I1019 22:44:00.844595 23716 net.cpp:477] inception_5a/relu_3x3 <- inception_5a/3x3
I1019 22:44:00.844607 23716 net.cpp:419] inception_5a/relu_3x3 -> inception_5a/3x3 (in-place)
I1019 22:44:00.844668 23716 net.cpp:155] Setting up inception_5a/relu_3x3
I1019 22:44:00.844681 23716 net.cpp:163] Top shape: 1 320 10 10 (32000)
I1019 22:44:00.844686 23716 layer_factory.hpp:76] Creating layer inception_5a/5x5_reduce
I1019 22:44:00.844694 23716 net.cpp:110] Creating Layer inception_5a/5x5_reduce
I1019 22:44:00.844701 23716 net.cpp:477] inception_5a/5x5_reduce <- pool4/3x3_s2_pool4/3x3_s2_0_split_2
I1019 22:44:00.844708 23716 net.cpp:433] inception_5a/5x5_reduce -> inception_5a/5x5_reduce
I1019 22:44:00.845077 23716 net.cpp:155] Setting up inception_5a/5x5_reduce
I1019 22:44:00.845089 23716 net.cpp:163] Top shape: 1 32 10 10 (3200)
I1019 22:44:00.845098 23716 layer_factory.hpp:76] Creating layer inception_5a/relu_5x5_reduce
I1019 22:44:00.845106 23716 net.cpp:110] Creating Layer inception_5a/relu_5x5_reduce
I1019 22:44:00.845113 23716 net.cpp:477] inception_5a/relu_5x5_reduce <- inception_5a/5x5_reduce
I1019 22:44:00.845120 23716 net.cpp:419] inception_5a/relu_5x5_reduce -> inception_5a/5x5_reduce (in-place)
I1019 22:44:00.845304 23716 net.cpp:155] Setting up inception_5a/relu_5x5_reduce
I1019 22:44:00.845316 23716 net.cpp:163] Top shape: 1 32 10 10 (3200)
I1019 22:44:00.845322 23716 layer_factory.hpp:76] Creating layer inception_5a/5x5
I1019 22:44:00.845334 23716 net.cpp:110] Creating Layer inception_5a/5x5
I1019 22:44:00.845340 23716 net.cpp:477] inception_5a/5x5 <- inception_5a/5x5_reduce
I1019 22:44:00.845347 23716 net.cpp:433] inception_5a/5x5 -> inception_5a/5x5
I1019 22:44:00.845736 23716 net.cpp:155] Setting up inception_5a/5x5
I1019 22:44:00.845748 23716 net.cpp:163] Top shape: 1 128 10 10 (12800)
I1019 22:44:00.845757 23716 layer_factory.hpp:76] Creating layer inception_5a/relu_5x5
I1019 22:44:00.845767 23716 net.cpp:110] Creating Layer inception_5a/relu_5x5
I1019 22:44:00.845773 23716 net.cpp:477] inception_5a/relu_5x5 <- inception_5a/5x5
I1019 22:44:00.845782 23716 net.cpp:419] inception_5a/relu_5x5 -> inception_5a/5x5 (in-place)
I1019 22:44:00.845845 23716 net.cpp:155] Setting up inception_5a/relu_5x5
I1019 22:44:00.845855 23716 net.cpp:163] Top shape: 1 128 10 10 (12800)
I1019 22:44:00.845861 23716 layer_factory.hpp:76] Creating layer inception_5a/pool
I1019 22:44:00.845867 23716 layer_factory.cpp:60] CUDNN does not support padding or multiple tops. Using Caffe's own pooling layer.
I1019 22:44:00.845876 23716 net.cpp:110] Creating Layer inception_5a/pool
I1019 22:44:00.845882 23716 net.cpp:477] inception_5a/pool <- pool4/3x3_s2_pool4/3x3_s2_0_split_3
I1019 22:44:00.845890 23716 net.cpp:433] inception_5a/pool -> inception_5a/pool
I1019 22:44:00.845899 23716 net.cpp:155] Setting up inception_5a/pool
I1019 22:44:00.845909 23716 net.cpp:163] Top shape: 1 832 10 10 (83200)
I1019 22:44:00.845916 23716 layer_factory.hpp:76] Creating layer inception_5a/pool_proj
I1019 22:44:00.845923 23716 net.cpp:110] Creating Layer inception_5a/pool_proj
I1019 22:44:00.845928 23716 net.cpp:477] inception_5a/pool_proj <- inception_5a/pool
I1019 22:44:00.845937 23716 net.cpp:433] inception_5a/pool_proj -> inception_5a/pool_proj
I1019 22:44:00.846868 23716 net.cpp:155] Setting up inception_5a/pool_proj
I1019 22:44:00.846884 23716 net.cpp:163] Top shape: 1 128 10 10 (12800)
I1019 22:44:00.846894 23716 layer_factory.hpp:76] Creating layer inception_5a/relu_pool_proj
I1019 22:44:00.846915 23716 net.cpp:110] Creating Layer inception_5a/relu_pool_proj
I1019 22:44:00.846922 23716 net.cpp:477] inception_5a/relu_pool_proj <- inception_5a/pool_proj
I1019 22:44:00.846930 23716 net.cpp:419] inception_5a/relu_pool_proj -> inception_5a/pool_proj (in-place)
I1019 22:44:00.846992 23716 net.cpp:155] Setting up inception_5a/relu_pool_proj
I1019 22:44:00.847000 23716 net.cpp:163] Top shape: 1 128 10 10 (12800)
I1019 22:44:00.847007 23716 layer_factory.hpp:76] Creating layer inception_5a/output
I1019 22:44:00.847014 23716 net.cpp:110] Creating Layer inception_5a/output
I1019 22:44:00.847020 23716 net.cpp:477] inception_5a/output <- inception_5a/1x1
I1019 22:44:00.847030 23716 net.cpp:477] inception_5a/output <- inception_5a/3x3
I1019 22:44:00.847038 23716 net.cpp:477] inception_5a/output <- inception_5a/5x5
I1019 22:44:00.847043 23716 net.cpp:477] inception_5a/output <- inception_5a/pool_proj
I1019 22:44:00.847053 23716 net.cpp:433] inception_5a/output -> inception_5a/output
I1019 22:44:00.847061 23716 net.cpp:155] Setting up inception_5a/output
I1019 22:44:00.847069 23716 net.cpp:163] Top shape: 1 832 10 10 (83200)
I1019 22:44:00.847074 23716 layer_factory.hpp:76] Creating layer inception_5a/output_inception_5a/output_0_split
I1019 22:44:00.847082 23716 net.cpp:110] Creating Layer inception_5a/output_inception_5a/output_0_split
I1019 22:44:00.847087 23716 net.cpp:477] inception_5a/output_inception_5a/output_0_split <- inception_5a/output
I1019 22:44:00.847095 23716 net.cpp:433] inception_5a/output_inception_5a/output_0_split -> inception_5a/output_inception_5a/output_0_split_0
I1019 22:44:00.847105 23716 net.cpp:433] inception_5a/output_inception_5a/output_0_split -> inception_5a/output_inception_5a/output_0_split_1
I1019 22:44:00.847113 23716 net.cpp:433] inception_5a/output_inception_5a/output_0_split -> inception_5a/output_inception_5a/output_0_split_2
I1019 22:44:00.847121 23716 net.cpp:433] inception_5a/output_inception_5a/output_0_split -> inception_5a/output_inception_5a/output_0_split_3
I1019 22:44:00.847129 23716 net.cpp:155] Setting up inception_5a/output_inception_5a/output_0_split
I1019 22:44:00.847136 23716 net.cpp:163] Top shape: 1 832 10 10 (83200)
I1019 22:44:00.847156 23716 net.cpp:163] Top shape: 1 832 10 10 (83200)
I1019 22:44:00.847162 23716 net.cpp:163] Top shape: 1 832 10 10 (83200)
I1019 22:44:00.847168 23716 net.cpp:163] Top shape: 1 832 10 10 (83200)
I1019 22:44:00.847174 23716 layer_factory.hpp:76] Creating layer inception_5b/1x1
I1019 22:44:00.847187 23716 net.cpp:110] Creating Layer inception_5b/1x1
I1019 22:44:00.847193 23716 net.cpp:477] inception_5b/1x1 <- inception_5a/output_inception_5a/output_0_split_0
I1019 22:44:00.847199 23716 net.cpp:433] inception_5b/1x1 -> inception_5b/1x1
I1019 22:44:00.848362 23716 net.cpp:155] Setting up inception_5b/1x1
I1019 22:44:00.848384 23716 net.cpp:163] Top shape: 1 384 10 10 (38400)
I1019 22:44:00.848394 23716 layer_factory.hpp:76] Creating layer inception_5b/relu_1x1
I1019 22:44:00.848405 23716 net.cpp:110] Creating Layer inception_5b/relu_1x1
I1019 22:44:00.848412 23716 net.cpp:477] inception_5b/relu_1x1 <- inception_5b/1x1
I1019 22:44:00.848419 23716 net.cpp:419] inception_5b/relu_1x1 -> inception_5b/1x1 (in-place)
I1019 22:44:00.848485 23716 net.cpp:155] Setting up inception_5b/relu_1x1
I1019 22:44:00.848495 23716 net.cpp:163] Top shape: 1 384 10 10 (38400)
I1019 22:44:00.848501 23716 layer_factory.hpp:76] Creating layer inception_5b/3x3_reduce
I1019 22:44:00.848511 23716 net.cpp:110] Creating Layer inception_5b/3x3_reduce
I1019 22:44:00.848518 23716 net.cpp:477] inception_5b/3x3_reduce <- inception_5a/output_inception_5a/output_0_split_1
I1019 22:44:00.848526 23716 net.cpp:433] inception_5b/3x3_reduce -> inception_5b/3x3_reduce
I1019 22:44:00.849545 23716 net.cpp:155] Setting up inception_5b/3x3_reduce
I1019 22:44:00.849558 23716 net.cpp:163] Top shape: 1 192 10 10 (19200)
I1019 22:44:00.849568 23716 layer_factory.hpp:76] Creating layer inception_5b/relu_3x3_reduce
I1019 22:44:00.849576 23716 net.cpp:110] Creating Layer inception_5b/relu_3x3_reduce
I1019 22:44:00.849583 23716 net.cpp:477] inception_5b/relu_3x3_reduce <- inception_5b/3x3_reduce
I1019 22:44:00.849591 23716 net.cpp:419] inception_5b/relu_3x3_reduce -> inception_5b/3x3_reduce (in-place)
I1019 22:44:00.849761 23716 net.cpp:155] Setting up inception_5b/relu_3x3_reduce
I1019 22:44:00.849773 23716 net.cpp:163] Top shape: 1 192 10 10 (19200)
I1019 22:44:00.849779 23716 layer_factory.hpp:76] Creating layer inception_5b/3x3
I1019 22:44:00.849788 23716 net.cpp:110] Creating Layer inception_5b/3x3
I1019 22:44:00.849794 23716 net.cpp:477] inception_5b/3x3 <- inception_5b/3x3_reduce
I1019 22:44:00.849802 23716 net.cpp:433] inception_5b/3x3 -> inception_5b/3x3
I1019 22:44:00.851656 23716 net.cpp:155] Setting up inception_5b/3x3
I1019 22:44:00.851673 23716 net.cpp:163] Top shape: 1 384 10 10 (38400)
I1019 22:44:00.851683 23716 layer_factory.hpp:76] Creating layer inception_5b/relu_3x3
I1019 22:44:00.851691 23716 net.cpp:110] Creating Layer inception_5b/relu_3x3
I1019 22:44:00.851698 23716 net.cpp:477] inception_5b/relu_3x3 <- inception_5b/3x3
I1019 22:44:00.851707 23716 net.cpp:419] inception_5b/relu_3x3 -> inception_5b/3x3 (in-place)
I1019 22:44:00.851779 23716 net.cpp:155] Setting up inception_5b/relu_3x3
I1019 22:44:00.851790 23716 net.cpp:163] Top shape: 1 384 10 10 (38400)
I1019 22:44:00.851796 23716 layer_factory.hpp:76] Creating layer inception_5b/5x5_reduce
I1019 22:44:00.851806 23716 net.cpp:110] Creating Layer inception_5b/5x5_reduce
I1019 22:44:00.851814 23716 net.cpp:477] inception_5b/5x5_reduce <- inception_5a/output_inception_5a/output_0_split_2
I1019 22:44:00.851820 23716 net.cpp:433] inception_5b/5x5_reduce -> inception_5b/5x5_reduce
I1019 22:44:00.852215 23716 net.cpp:155] Setting up inception_5b/5x5_reduce
I1019 22:44:00.852229 23716 net.cpp:163] Top shape: 1 48 10 10 (4800)
I1019 22:44:00.852238 23716 layer_factory.hpp:76] Creating layer inception_5b/relu_5x5_reduce
I1019 22:44:00.852246 23716 net.cpp:110] Creating Layer inception_5b/relu_5x5_reduce
I1019 22:44:00.852252 23716 net.cpp:477] inception_5b/relu_5x5_reduce <- inception_5b/5x5_reduce
I1019 22:44:00.852259 23716 net.cpp:419] inception_5b/relu_5x5_reduce -> inception_5b/5x5_reduce (in-place)
I1019 22:44:00.852337 23716 net.cpp:155] Setting up inception_5b/relu_5x5_reduce
I1019 22:44:00.852349 23716 net.cpp:163] Top shape: 1 48 10 10 (4800)
I1019 22:44:00.852355 23716 layer_factory.hpp:76] Creating layer inception_5b/5x5
I1019 22:44:00.852365 23716 net.cpp:110] Creating Layer inception_5b/5x5
I1019 22:44:00.852371 23716 net.cpp:477] inception_5b/5x5 <- inception_5b/5x5_reduce
I1019 22:44:00.852380 23716 net.cpp:433] inception_5b/5x5 -> inception_5b/5x5
I1019 22:44:00.852828 23716 net.cpp:155] Setting up inception_5b/5x5
I1019 22:44:00.852841 23716 net.cpp:163] Top shape: 1 128 10 10 (12800)
I1019 22:44:00.852849 23716 layer_factory.hpp:76] Creating layer inception_5b/relu_5x5
I1019 22:44:00.852859 23716 net.cpp:110] Creating Layer inception_5b/relu_5x5
I1019 22:44:00.852864 23716 net.cpp:477] inception_5b/relu_5x5 <- inception_5b/5x5
I1019 22:44:00.852874 23716 net.cpp:419] inception_5b/relu_5x5 -> inception_5b/5x5 (in-place)
I1019 22:44:00.852936 23716 net.cpp:155] Setting up inception_5b/relu_5x5
I1019 22:44:00.852944 23716 net.cpp:163] Top shape: 1 128 10 10 (12800)
I1019 22:44:00.852952 23716 layer_factory.hpp:76] Creating layer inception_5b/pool
I1019 22:44:00.852957 23716 layer_factory.cpp:60] CUDNN does not support padding or multiple tops. Using Caffe's own pooling layer.
I1019 22:44:00.852965 23716 net.cpp:110] Creating Layer inception_5b/pool
I1019 22:44:00.852972 23716 net.cpp:477] inception_5b/pool <- inception_5a/output_inception_5a/output_0_split_3
I1019 22:44:00.852979 23716 net.cpp:433] inception_5b/pool -> inception_5b/pool
I1019 22:44:00.852988 23716 net.cpp:155] Setting up inception_5b/pool
I1019 22:44:00.852998 23716 net.cpp:163] Top shape: 1 832 10 10 (83200)
I1019 22:44:00.853003 23716 layer_factory.hpp:76] Creating layer inception_5b/pool_proj
I1019 22:44:00.853011 23716 net.cpp:110] Creating Layer inception_5b/pool_proj
I1019 22:44:00.853018 23716 net.cpp:477] inception_5b/pool_proj <- inception_5b/pool
I1019 22:44:00.853024 23716 net.cpp:433] inception_5b/pool_proj -> inception_5b/pool_proj
I1019 22:44:00.853983 23716 net.cpp:155] Setting up inception_5b/pool_proj
I1019 22:44:00.853996 23716 net.cpp:163] Top shape: 1 128 10 10 (12800)
I1019 22:44:00.854006 23716 layer_factory.hpp:76] Creating layer inception_5b/relu_pool_proj
I1019 22:44:00.854027 23716 net.cpp:110] Creating Layer inception_5b/relu_pool_proj
I1019 22:44:00.854037 23716 net.cpp:477] inception_5b/relu_pool_proj <- inception_5b/pool_proj
I1019 22:44:00.854053 23716 net.cpp:419] inception_5b/relu_pool_proj -> inception_5b/pool_proj (in-place)
I1019 22:44:00.854239 23716 net.cpp:155] Setting up inception_5b/relu_pool_proj
I1019 22:44:00.854251 23716 net.cpp:163] Top shape: 1 128 10 10 (12800)
I1019 22:44:00.854259 23716 layer_factory.hpp:76] Creating layer inception_5b/output
I1019 22:44:00.854279 23716 net.cpp:110] Creating Layer inception_5b/output
I1019 22:44:00.854285 23716 net.cpp:477] inception_5b/output <- inception_5b/1x1
I1019 22:44:00.854292 23716 net.cpp:477] inception_5b/output <- inception_5b/3x3
I1019 22:44:00.854298 23716 net.cpp:477] inception_5b/output <- inception_5b/5x5
I1019 22:44:00.854305 23716 net.cpp:477] inception_5b/output <- inception_5b/pool_proj
I1019 22:44:00.854311 23716 net.cpp:433] inception_5b/output -> inception_5b/output
I1019 22:44:00.854321 23716 net.cpp:155] Setting up inception_5b/output
I1019 22:44:00.854328 23716 net.cpp:163] Top shape: 1 1024 10 10 (102400)
I1019 22:44:00.854334 23716 layer_factory.hpp:76] Creating layer pool5/7x7_s1
I1019 22:44:00.854346 23716 net.cpp:110] Creating Layer pool5/7x7_s1
I1019 22:44:00.854351 23716 net.cpp:477] pool5/7x7_s1 <- inception_5b/output
I1019 22:44:00.854358 23716 net.cpp:433] pool5/7x7_s1 -> pool5/7x7_s1
I1019 22:44:00.854420 23716 net.cpp:155] Setting up pool5/7x7_s1
I1019 22:44:00.854430 23716 net.cpp:163] Top shape: 1 1024 4 4 (16384)
I1019 22:44:00.854436 23716 layer_factory.hpp:76] Creating layer pool5/drop_7x7_s1
I1019 22:44:00.854449 23716 net.cpp:110] Creating Layer pool5/drop_7x7_s1
I1019 22:44:00.854455 23716 net.cpp:477] pool5/drop_7x7_s1 <- pool5/7x7_s1
I1019 22:44:00.854463 23716 net.cpp:419] pool5/drop_7x7_s1 -> pool5/7x7_s1 (in-place)
I1019 22:44:00.854480 23716 net.cpp:155] Setting up pool5/drop_7x7_s1
I1019 22:44:00.854486 23716 net.cpp:163] Top shape: 1 1024 4 4 (16384)
I1019 22:44:00.854492 23716 layer_factory.hpp:76] Creating layer map-score
I1019 22:44:00.854501 23716 net.cpp:110] Creating Layer map-score
I1019 22:44:00.854514 23716 net.cpp:477] map-score <- pool5/7x7_s1
I1019 22:44:00.854526 23716 net.cpp:433] map-score -> map-score
I1019 22:44:00.856369 23716 net.cpp:155] Setting up map-score
I1019 22:44:00.856384 23716 net.cpp:163] Top shape: 1 21 4 4 (336)
I1019 22:44:00.856392 23716 layer_factory.hpp:76] Creating layer map-score-up
I1019 22:44:00.856410 23716 net.cpp:110] Creating Layer map-score-up
I1019 22:44:00.856416 23716 net.cpp:477] map-score-up <- map-score
I1019 22:44:00.856423 23716 net.cpp:433] map-score-up -> map-score-up
I1019 22:44:01.558197 23716 net.cpp:155] Setting up map-score-up
I1019 22:44:01.558246 23716 net.cpp:163] Top shape: 1 21 320 320 (2150400)
I1019 22:44:01.558264 23716 layer_factory.hpp:76] Creating layer prob
I1019 22:44:01.558280 23716 net.cpp:110] Creating Layer prob
I1019 22:44:01.558290 23716 net.cpp:477] prob <- map-score-up
I1019 22:44:01.558302 23716 net.cpp:433] prob -> prob
I1019 22:44:01.558452 23716 net.cpp:155] Setting up prob
I1019 22:44:01.558465 23716 net.cpp:163] Top shape: 1 21 320 320 (2150400)
I1019 22:44:01.558470 23716 net.cpp:240] prob does not need backward computation.
I1019 22:44:01.558476 23716 net.cpp:240] map-score-up does not need backward computation.
I1019 22:44:01.558482 23716 net.cpp:240] map-score does not need backward computation.
I1019 22:44:01.558487 23716 net.cpp:240] pool5/drop_7x7_s1 does not need backward computation.
I1019 22:44:01.558493 23716 net.cpp:240] pool5/7x7_s1 does not need backward computation.
…
