WARNING: Logging before InitGoogleLogging() is written to STDERR
I1020 00:07:58.258707 24762 net.cpp:50] Initializing net from parameters: 
input: "data"
state {
  phase: TEST
}
input_shape {
  dim: 1
  dim: 3
  dim: 320
  dim: 320
}
layer {
  name: "conv1/7x7_s2"
  type: "Convolution"
  bottom: "data"
  top: "conv1/7x7_s2"
  param {
    lr_mult: 0.25
    decay_mult: 1
  }
  param {
    lr_mult: 0.5
    decay_mult: 0
  }
  convolution_param {
    num_output: 64
    pad: 3
    kernel_size: 7
    group: 1
    stride: 2
  }
}
layer {
  name: "conv1/relu_7x7"
  type: "ReLU"
  bottom: "conv1/7x7_s2"
  top: "conv1/7x7_s2"
}
layer {
  name: "pool1/3x3_s2"
  type: "Pooling"
  bottom: "conv1/7x7_s2"
  top: "pool1/3x3_s2"
  pooling_param {
    pool: MAX
    kernel_size: 3
    stride: 2
    pad: 0
  }
}
layer {
  name: "conv2/3x3_reduce"
  type: "Convolution"
  bottom: "pool1/3x3_s2"
  top: "conv2/3x3_reduce"
  param {
    lr_mult: 0.25
    decay_mult: 1
  }
  param {
    lr_mult: 0.5
    decay_mult: 0
  }
  convolution_param {
    num_output: 64
    pad: 0
    kernel_size: 1
    group: 1
    stride: 1
  }
}
layer {
  name: "conv2/relu_3x3_reduce"
  type: "ReLU"
  bottom: "conv2/3x3_reduce"
  top: "conv2/3x3_reduce"
}
layer {
  name: "conv2/3x3"
  type: "Convolution"
  bottom: "conv2/3x3_reduce"
  top: "conv2/3x3"
  param {
    lr_mult: 0.25
    decay_mult: 1
  }
  param {
    lr_mult: 0.5
    decay_mult: 0
  }
  convolution_param {
    num_output: 192
    pad: 1
    kernel_size: 3
    group: 1
    stride: 1
  }
}
layer {
  name: "conv2/relu_3x3"
  type: "ReLU"
  bottom: "conv2/3x3"
  top: "conv2/3x3"
}
layer {
  name: "pool2/3x3_s2"
  type: "Pooling"
  bottom: "conv2/3x3"
  top: "pool2/3x3_s2"
  pooling_param {
    pool: MAX
    kernel_size: 3
    stride: 2
    pad: 0
  }
}
layer {
  name: "inception_3a/1x1"
  type: "Convolution"
  bottom: "pool2/3x3_s2"
  top: "inception_3a/1x1"
  param {
    lr_mult: 0.25
    decay_mult: 1
  }
  param {
    lr_mult: 0.5
    decay_mult: 0
  }
  convolution_param {
    num_output: 64
    pad: 0
    kernel_size: 1
    group: 1
    stride: 1
  }
}
layer {
  name: "inception_3a/relu_1x1"
  type: "ReLU"
  bottom: "inception_3a/1x1"
  top: "inception_3a/1x1"
}
layer {
  name: "inception_3a/3x3_reduce"
  type: "Convolution"
  bottom: "pool2/3x3_s2"
  top: "inception_3a/3x3_reduce"
  param {
    lr_mult: 0.25
    decay_mult: 1
  }
  param {
    lr_mult: 0.5
    decay_mult: 0
  }
  convolution_param {
    num_output: 96
    pad: 0
    kernel_size: 1
    group: 1
    stride: 1
  }
}
layer {
  name: "inception_3a/relu_3x3_reduce"
  type: "ReLU"
  bottom: "inception_3a/3x3_reduce"
  top: "inception_3a/3x3_reduce"
}
layer {
  name: "inception_3a/3x3"
  type: "Convolution"
  bottom: "inception_3a/3x3_reduce"
  top: "inception_3a/3x3"
  param {
    lr_mult: 0.25
    decay_mult: 1
  }
  param {
    lr_mult: 0.5
    decay_mult: 0
  }
  convolution_param {
    num_output: 128
    pad: 1
    kernel_size: 3
    group: 1
    stride: 1
  }
}
layer {
  name: "inception_3a/relu_3x3"
  type: "ReLU"
  bottom: "inception_3a/3x3"
  top: "inception_3a/3x3"
}
layer {
  name: "inception_3a/5x5_reduce"
  type: "Convolution"
  bottom: "pool2/3x3_s2"
  top: "inception_3a/5x5_reduce"
  param {
    lr_mult: 0.25
    decay_mult: 1
  }
  param {
    lr_mult: 0.5
    decay_mult: 0
  }
  convolution_param {
    num_output: 16
    pad: 0
    kernel_size: 1
    group: 1
    stride: 1
  }
}
layer {
  name: "inception_3a/relu_5x5_reduce"
  type: "ReLU"
  bottom: "inception_3a/5x5_reduce"
  top: "inception_3a/5x5_reduce"
}
layer {
  name: "inception_3a/5x5"
  type: "Convolution"
  bottom: "inception_3a/5x5_reduce"
  top: "inception_3a/5x5"
  param {
    lr_mult: 0.25
    decay_mult: 1
  }
  param {
    lr_mult: 0.5
    decay_mult: 0
  }
  convolution_param {
    num_output: 32
    pad: 2
    kernel_size: 5
    group: 1
    stride: 1
  }
}
layer {
  name: "inception_3a/relu_5x5"
  type: "ReLU"
  bottom: "inception_3a/5x5"
  top: "inception_3a/5x5"
}
layer {
  name: "inception_3a/pool"
  type: "Pooling"
  bottom: "pool2/3x3_s2"
  top: "inception_3a/pool"
  pooling_param {
    pool: MAX
    kernel_size: 3
    stride: 1
    pad: 1
  }
}
layer {
  name: "inception_3a/pool_proj"
  type: "Convolution"
  bottom: "inception_3a/pool"
  top: "inception_3a/pool_proj"
  param {
    lr_mult: 0.25
    decay_mult: 1
  }
  param {
    lr_mult: 0.5
    decay_mult: 0
  }
  convolution_param {
    num_output: 32
    pad: 0
    kernel_size: 1
    group: 1
    stride: 1
  }
}
layer {
  name: "inception_3a/relu_pool_proj"
  type: "ReLU"
  bottom: "inception_3a/pool_proj"
  top: "inception_3a/pool_proj"
}
layer {
  name: "inception_3a/output"
  type: "Concat"
  bottom: "inception_3a/1x1"
  bottom: "inception_3a/3x3"
  bottom: "inception_3a/5x5"
  bottom: "inception_3a/pool_proj"
  top: "inception_3a/output"
}
layer {
  name: "inception_3b/1x1"
  type: "Convolution"
  bottom: "inception_3a/output"
  top: "inception_3b/1x1"
  param {
    lr_mult: 0.25
    decay_mult: 1
  }
  param {
    lr_mult: 0.5
    decay_mult: 0
  }
  convolution_param {
    num_output: 128
    pad: 0
    kernel_size: 1
    group: 1
    stride: 1
  }
}
layer {
  name: "inception_3b/relu_1x1"
  type: "ReLU"
  bottom: "inception_3b/1x1"
  top: "inception_3b/1x1"
}
layer {
  name: "inception_3b/3x3_reduce"
  type: "Convolution"
  bottom: "inception_3a/output"
  top: "inception_3b/3x3_reduce"
  param {
    lr_mult: 0.25
    decay_mult: 1
  }
  param {
    lr_mult: 0.5
    decay_mult: 0
  }
  convolution_param {
    num_output: 128
    pad: 0
    kernel_size: 1
    group: 1
    stride: 1
  }
}
layer {
  name: "inception_3b/relu_3x3_reduce"
  type: "ReLU"
  bottom: "inception_3b/3x3_reduce"
  top: "inception_3b/3x3_reduce"
}
layer {
  name: "inception_3b/3x3"
  type: "Convolution"
  bottom: "inception_3b/3x3_reduce"
  top: "inception_3b/3x3"
  param {
    lr_mult: 0.25
    decay_mult: 1
  }
  param {
    lr_mult: 0.5
    decay_mult: 0
  }
  convolution_param {
    num_output: 192
    pad: 1
    kernel_size: 3
    group: 1
    stride: 1
  }
}
layer {
  name: "inception_3b/relu_3x3"
  type: "ReLU"
  bottom: "inception_3b/3x3"
  top: "inception_3b/3x3"
}
layer {
  name: "inception_3b/5x5_reduce"
  type: "Convolution"
  bottom: "inception_3a/output"
  top: "inception_3b/5x5_reduce"
  param {
    lr_mult: 0.25
    decay_mult: 1
  }
  param {
    lr_mult: 0.5
    decay_mult: 0
  }
  convolution_param {
    num_output: 32
    pad: 0
    kernel_size: 1
    group: 1
    stride: 1
  }
}
layer {
  name: "inception_3b/relu_5x5_reduce"
  type: "ReLU"
  bottom: "inception_3b/5x5_reduce"
  top: "inception_3b/5x5_reduce"
}
layer {
  name: "inception_3b/5x5"
  type: "Convolution"
  bottom: "inception_3b/5x5_reduce"
  top: "inception_3b/5x5"
  param {
    lr_mult: 0.25
    decay_mult: 1
  }
  param {
    lr_mult: 0.5
    decay_mult: 0
  }
  convolution_param {
    num_output: 96
    pad: 2
    kernel_size: 5
    group: 1
    stride: 1
  }
}
layer {
  name: "inception_3b/relu_5x5"
  type: "ReLU"
  bottom: "inception_3b/5x5"
  top: "inception_3b/5x5"
}
layer {
  name: "inception_3b/pool"
  type: "Pooling"
  bottom: "inception_3a/output"
  top: "inception_3b/pool"
  pooling_param {
    pool: MAX
    kernel_size: 3
    stride: 1
    pad: 1
  }
}
layer {
  name: "inception_3b/pool_proj"
  type: "Convolution"
  bottom: "inception_3b/pool"
  top: "inception_3b/pool_proj"
  param {
    lr_mult: 0.25
    decay_mult: 1
  }
  param {
    lr_mult: 0.5
    decay_mult: 0
  }
  convolution_param {
    num_output: 64
    pad: 0
    kernel_size: 1
    group: 1
    stride: 1
  }
}
layer {
  name: "inception_3b/relu_pool_proj"
  type: "ReLU"
  bottom: "inception_3b/pool_proj"
  top: "inception_3b/pool_proj"
}
layer {
  name: "inception_3b/output"
  type: "Concat"
  bottom: "inception_3b/1x1"
  bottom: "inception_3b/3x3"
  bottom: "inception_3b/5x5"
  bottom: "inception_3b/pool_proj"
  top: "inception_3b/output"
}
layer {
  name: "pool3/3x3_s2"
  type: "Pooling"
  bottom: "inception_3b/output"
  top: "pool3/3x3_s2"
  pooling_param {
    pool: MAX
    kernel_size: 3
    stride: 2
    pad: 0
  }
}
layer {
  name: "inception_4a/1x1"
  type: "Convolution"
  bottom: "pool3/3x3_s2"
  top: "inception_4a/1x1"
  param {
    lr_mult: 0.25
    decay_mult: 1
  }
  param {
    lr_mult: 0.5
    decay_mult: 0
  }
  convolution_param {
    num_output: 192
    pad: 0
    kernel_size: 1
    group: 1
    stride: 1
  }
}
layer {
  name: "inception_4a/relu_1x1"
  type: "ReLU"
  bottom: "inception_4a/1x1"
  top: "inception_4a/1x1"
}
layer {
  name: "inception_4a/3x3_reduce"
  type: "Convolution"
  bottom: "pool3/3x3_s2"
  top: "inception_4a/3x3_reduce"
  param {
    lr_mult: 0.25
    decay_mult: 1
  }
  param {
    lr_mult: 0.5
    decay_mult: 0
  }
  convolution_param {
    num_output: 96
    pad: 0
    kernel_size: 1
    group: 1
    stride: 1
  }
}
layer {
  name: "inception_4a/relu_3x3_reduce"
  type: "ReLU"
  bottom: "inception_4a/3x3_reduce"
  top: "inception_4a/3x3_reduce"
}
layer {
  name: "inception_4a/3x3"
  type: "Convolution"
  bottom: "inception_4a/3x3_reduce"
  top: "inception_4a/3x3"
  param {
    lr_mult: 0.25
    decay_mult: 1
  }
  param {
    lr_mult: 0.5
    decay_mult: 0
  }
  convolution_param {
    num_output: 208
    pad: 1
    kernel_size: 3
    group: 1
    stride: 1
  }
}
layer {
  name: "inception_4a/relu_3x3"
  type: "ReLU"
  bottom: "inception_4a/3x3"
  top: "inception_4a/3x3"
}
layer {
  name: "inception_4a/5x5_reduce"
  type: "Convolution"
  bottom: "pool3/3x3_s2"
  top: "inception_4a/5x5_reduce"
  param {
    lr_mult: 0.25
    decay_mult: 1
  }
  param {
    lr_mult: 0.5
    decay_mult: 0
  }
  convolution_param {
    num_output: 16
    pad: 0
    kernel_size: 1
    group: 1
    stride: 1
  }
}
layer {
  name: "inception_4a/relu_5x5_reduce"
  type: "ReLU"
  bottom: "inception_4a/5x5_reduce"
  top: "inception_4a/5x5_reduce"
}
layer {
  name: "inception_4a/5x5"
  type: "Convolution"
  bottom: "inception_4a/5x5_reduce"
  top: "inception_4a/5x5"
  param {
    lr_mult: 0.25
    decay_mult: 1
  }
  param {
    lr_mult: 0.5
    decay_mult: 0
  }
  convolution_param {
    num_output: 48
    pad: 2
    kernel_size: 5
    group: 1
    stride: 1
  }
}
layer {
  name: "inception_4a/relu_5x5"
  type: "ReLU"
  bottom: "inception_4a/5x5"
  top: "inception_4a/5x5"
}
layer {
  name: "inception_4a/pool"
  type: "Pooling"
  bottom: "pool3/3x3_s2"
  top: "inception_4a/pool"
  pooling_param {
    pool: MAX
    kernel_size: 3
    stride: 1
    pad: 1
  }
}
layer {
  name: "inception_4a/pool_proj"
  type: "Convolution"
  bottom: "inception_4a/pool"
  top: "inception_4a/pool_proj"
  param {
    lr_mult: 0.25
    decay_mult: 1
  }
  param {
    lr_mult: 0.5
    decay_mult: 0
  }
  convolution_param {
    num_output: 64
    pad: 0
    kernel_size: 1
    group: 1
    stride: 1
  }
}
layer {
  name: "inception_4a/relu_pool_proj"
  type: "ReLU"
  bottom: "inception_4a/pool_proj"
  top: "inception_4a/pool_proj"
}
layer {
  name: "inception_4a/output"
  type: "Concat"
  bottom: "inception_4a/1x1"
  bottom: "inception_4a/3x3"
  bottom: "inception_4a/5x5"
  bottom: "inception_4a/pool_proj"
  top: "inception_4a/output"
}
layer {
  name: "inception_4b/1x1"
  type: "Convolution"
  bottom: "inception_4a/output"
  top: "inception_4b/1x1"
  param {
    lr_mult: 0.25
    decay_mult: 1
  }
  param {
    lr_mult: 0.5
    decay_mult: 0
  }
  convolution_param {
    num_output: 160
    pad: 0
    kernel_size: 1
    group: 1
    stride: 1
  }
}
layer {
  name: "inception_4b/relu_1x1"
  type: "ReLU"
  bottom: "inception_4b/1x1"
  top: "inception_4b/1x1"
}
layer {
  name: "inception_4b/3x3_reduce"
  type: "Convolution"
  bottom: "inception_4a/output"
  top: "inception_4b/3x3_reduce"
  param {
    lr_mult: 0.25
    decay_mult: 1
  }
  param {
    lr_mult: 0.5
    decay_mult: 0
  }
  convolution_param {
    num_output: 112
    pad: 0
    kernel_size: 1
    group: 1
    stride: 1
  }
}
layer {
  name: "inception_4b/relu_3x3_reduce"
  type: "ReLU"
  bottom: "inception_4b/3x3_reduce"
  top: "inception_4b/3x3_reduce"
}
layer {
  name: "inception_4b/3x3"
  type: "Convolution"
  bottom: "inception_4b/3x3_reduce"
  top: "inception_4b/3x3"
  param {
    lr_mult: 0.25
    decay_mult: 1
  }
  param {
    lr_mult: 0.5
    decay_mult: 0
  }
  convolution_param {
    num_output: 224
    pad: 1
    kernel_size: 3
    group: 1
    stride: 1
  }
}
layer {
  name: "inception_4b/relu_3x3"
  type: "ReLU"
  bottom: "inception_4b/3x3"
  top: "inception_4b/3x3"
}
layer {
  name: "inception_4b/5x5_reduce"
  type: "Convolution"
  bottom: "inception_4a/output"
  top: "inception_4b/5x5_reduce"
  param {
    lr_mult: 0.25
    decay_mult: 1
  }
  param {
    lr_mult: 0.5
    decay_mult: 0
  }
  convolution_param {
    num_output: 24
    pad: 0
    kernel_size: 1
    group: 1
    stride: 1
  }
}
layer {
  name: "inception_4b/relu_5x5_reduce"
  type: "ReLU"
  bottom: "inception_4b/5x5_reduce"
  top: "inception_4b/5x5_reduce"
}
layer {
  name: "inception_4b/5x5"
  type: "Convolution"
  bottom: "inception_4b/5x5_reduce"
  top: "inception_4b/5x5"
  param {
    lr_mult: 0.25
    decay_mult: 1
  }
  param {
    lr_mult: 0.5
    decay_mult: 0
  }
  convolution_param {
    num_output: 64
    pad: 2
    kernel_size: 5
    group: 1
    stride: 1
  }
}
layer {
  name: "inception_4b/relu_5x5"
  type: "ReLU"
  bottom: "inception_4b/5x5"
  top: "inception_4b/5x5"
}
layer {
  name: "inception_4b/pool"
  type: "Pooling"
  bottom: "inception_4a/output"
  top: "inception_4b/pool"
  pooling_param {
    pool: MAX
    kernel_size: 3
    stride: 1
    pad: 1
  }
}
layer {
  name: "inception_4b/pool_proj"
  type: "Convolution"
  bottom: "inception_4b/pool"
  top: "inception_4b/pool_proj"
  param {
    lr_mult: 0.25
    decay_mult: 1
  }
  param {
    lr_mult: 0.5
    decay_mult: 0
  }
  convolution_param {
    num_output: 64
    pad: 0
    kernel_size: 1
    group: 1
    stride: 1
  }
}
layer {
  name: "inception_4b/relu_pool_proj"
  type: "ReLU"
  bottom: "inception_4b/pool_proj"
  top: "inception_4b/pool_proj"
}
layer {
  name: "inception_4b/output"
  type: "Concat"
  bottom: "inception_4b/1x1"
  bottom: "inception_4b/3x3"
  bottom: "inception_4b/5x5"
  bottom: "inception_4b/pool_proj"
  top: "inception_4b/output"
}
layer {
  name: "inception_4c/1x1"
  type: "Convolution"
  bottom: "inception_4b/output"
  top: "inception_4c/1x1"
  param {
    lr_mult: 0.25
    decay_mult: 1
  }
  param {
    lr_mult: 0.5
    decay_mult: 0
  }
  convolution_param {
    num_output: 128
    pad: 0
    kernel_size: 1
    group: 1
    stride: 1
  }
}
layer {
  name: "inception_4c/relu_1x1"
  type: "ReLU"
  bottom: "inception_4c/1x1"
  top: "inception_4c/1x1"
}
layer {
  name: "inception_4c/3x3_reduce"
  type: "Convolution"
  bottom: "inception_4b/output"
  top: "inception_4c/3x3_reduce"
  param {
    lr_mult: 0.25
    decay_mult: 1
  }
  param {
    lr_mult: 0.5
    decay_mult: 0
  }
  convolution_param {
    num_output: 128
    pad: 0
    kernel_size: 1
    group: 1
    stride: 1
  }
}
layer {
  name: "inception_4c/relu_3x3_reduce"
  type: "ReLU"
  bottom: "inception_4c/3x3_reduce"
  top: "inception_4c/3x3_reduce"
}
layer {
  name: "inception_4c/3x3"
  type: "Convolution"
  bottom: "inception_4c/3x3_reduce"
  top: "inception_4c/3x3"
  param {
    lr_mult: 0.25
    decay_mult: 1
  }
  param {
    lr_mult: 0.5
    decay_mult: 0
  }
  convolution_param {
    num_output: 256
    pad: 1
    kernel_size: 3
    group: 1
    stride: 1
  }
}
layer {
  name: "inception_4c/relu_3x3"
  type: "ReLU"
  bottom: "inception_4c/3x3"
  top: "inception_4c/3x3"
}
layer {
  name: "inception_4c/5x5_reduce"
  type: "Convolution"
  bottom: "inception_4b/output"
  top: "inception_4c/5x5_reduce"
  param {
    lr_mult: 0.25
    decay_mult: 1
  }
  param {
    lr_mult: 0.5
    decay_mult: 0
  }
  convolution_param {
    num_output: 24
    pad: 0
    kernel_size: 1
    group: 1
    stride: 1
  }
}
layer {
  name: "inception_4c/relu_5x5_reduce"
  type: "ReLU"
  bottom: "inception_4c/5x5_reduce"
  top: "inception_4c/5x5_reduce"
}
layer {
  name: "inception_4c/5x5"
  type: "Convolution"
  bottom: "inception_4c/5x5_reduce"
  top: "inception_4c/5x5"
  param {
    lr_mult: 0.25
    decay_mult: 1
  }
  param {
    lr_mult: 0.5
    decay_mult: 0
  }
  convolution_param {
    num_output: 64
    pad: 2
    kernel_size: 5
    group: 1
    stride: 1
  }
}
layer {
  name: "inception_4c/relu_5x5"
  type: "ReLU"
  bottom: "inception_4c/5x5"
  top: "inception_4c/5x5"
}
layer {
  name: "inception_4c/pool"
  type: "Pooling"
  bottom: "inception_4b/output"
  top: "inception_4c/pool"
  pooling_param {
    pool: MAX
    kernel_size: 3
    stride: 1
    pad: 1
  }
}
layer {
  name: "inception_4c/pool_proj"
  type: "Convolution"
  bottom: "inception_4c/pool"
  top: "inception_4c/pool_proj"
  param {
    lr_mult: 0.25
    decay_mult: 1
  }
  param {
    lr_mult: 0.5
    decay_mult: 0
  }
  convolution_param {
    num_output: 64
    pad: 0
    kernel_size: 1
    group: 1
    stride: 1
  }
}
layer {
  name: "inception_4c/relu_pool_proj"
  type: "ReLU"
  bottom: "inception_4c/pool_proj"
  top: "inception_4c/pool_proj"
}
layer {
  name: "inception_4c/output"
  type: "Concat"
  bottom: "inception_4c/1x1"
  bottom: "inception_4c/3x3"
  bottom: "inception_4c/5x5"
  bottom: "inception_4c/pool_proj"
  top: "inception_4c/output"
}
layer {
  name: "inception_4d/1x1"
  type: "Convolution"
  bottom: "inception_4c/output"
  top: "inception_4d/1x1"
  param {
    lr_mult: 0.25
    decay_mult: 1
  }
  param {
    lr_mult: 0.5
    decay_mult: 0
  }
  convolution_param {
    num_output: 112
    pad: 0
    kernel_size: 1
    group: 1
    stride: 1
  }
}
layer {
  name: "inception_4d/relu_1x1"
  type: "ReLU"
  bottom: "inception_4d/1x1"
  top: "inception_4d/1x1"
}
layer {
  name: "inception_4d/3x3_reduce"
  type: "Convolution"
  bottom: "inception_4c/output"
  top: "inception_4d/3x3_reduce"
  param {
    lr_mult: 0.25
    decay_mult: 1
  }
  param {
    lr_mult: 0.5
    decay_mult: 0
  }
  convolution_param {
    num_output: 144
    pad: 0
    kernel_size: 1
    group: 1
    stride: 1
  }
}
layer {
  name: "inception_4d/relu_3x3_reduce"
  type: "ReLU"
  bottom: "inception_4d/3x3_reduce"
  top: "inception_4d/3x3_reduce"
}
layer {
  name: "inception_4d/3x3"
  type: "Convolution"
  bottom: "inception_4d/3x3_reduce"
  top: "inception_4d/3x3"
  param {
    lr_mult: 0.25
    decay_mult: 1
  }
  param {
    lr_mult: 0.5
    decay_mult: 0
  }
  convolution_param {
    num_output: 288
    pad: 1
    kernel_size: 3
    group: 1
    stride: 1
  }
}
layer {
  name: "inception_4d/relu_3x3"
  type: "ReLU"
  bottom: "inception_4d/3x3"
  top: "inception_4d/3x3"
}
layer {
  name: "inception_4d/5x5_reduce"
  type: "Convolution"
  bottom: "inception_4c/output"
  top: "inception_4d/5x5_reduce"
  param {
    lr_mult: 0.25
    decay_mult: 1
  }
  param {
    lr_mult: 0.5
    decay_mult: 0
  }
  convolution_param {
    num_output: 32
    pad: 0
    kernel_size: 1
    group: 1
    stride: 1
  }
}
layer {
  name: "inception_4d/relu_5x5_reduce"
  type: "ReLU"
  bottom: "inception_4d/5x5_reduce"
  top: "inception_4d/5x5_reduce"
}
layer {
  name: "inception_4d/5x5"
  type: "Convolution"
  bottom: "inception_4d/5x5_reduce"
  top: "inception_4d/5x5"
  param {
    lr_mult: 0.25
    decay_mult: 1
  }
  param {
    lr_mult: 0.5
    decay_mult: 0
  }
  convolution_param {
    num_output: 64
    pad: 2
    kernel_size: 5
    group: 1
    stride: 1
  }
}
layer {
  name: "inception_4d/relu_5x5"
  type: "ReLU"
  bottom: "inception_4d/5x5"
  top: "inception_4d/5x5"
}
layer {
  name: "inception_4d/pool"
  type: "Pooling"
  bottom: "inception_4c/output"
  top: "inception_4d/pool"
  pooling_param {
    pool: MAX
    kernel_size: 3
    stride: 1
    pad: 1
  }
}
layer {
  name: "inception_4d/pool_proj"
  type: "Convolution"
  bottom: "inception_4d/pool"
  top: "inception_4d/pool_proj"
  param {
    lr_mult: 0.25
    decay_mult: 1
  }
  param {
    lr_mult: 0.5
    decay_mult: 0
  }
  convolution_param {
    num_output: 64
    pad: 0
    kernel_size: 1
    group: 1
    stride: 1
  }
}
layer {
  name: "inception_4d/relu_pool_proj"
  type: "ReLU"
  bottom: "inception_4d/pool_proj"
  top: "inception_4d/pool_proj"
}
layer {
  name: "inception_4d/output"
  type: "Concat"
  bottom: "inception_4d/1x1"
  bottom: "inception_4d/3x3"
  bottom: "inception_4d/5x5"
  bottom: "inception_4d/pool_proj"
  top: "inception_4d/output"
}
layer {
  name: "inception_4e/1x1"
  type: "Convolution"
  bottom: "inception_4d/output"
  top: "inception_4e/1x1"
  param {
    lr_mult: 0.25
    decay_mult: 1
  }
  param {
    lr_mult: 0.5
    decay_mult: 0
  }
  convolution_param {
    num_output: 256
    pad: 0
    kernel_size: 1
    group: 1
    stride: 1
  }
}
layer {
  name: "inception_4e/relu_1x1"
  type: "ReLU"
  bottom: "inception_4e/1x1"
  top: "inception_4e/1x1"
}
layer {
  name: "inception_4e/3x3_reduce"
  type: "Convolution"
  bottom: "inception_4d/output"
  top: "inception_4e/3x3_reduce"
  param {
    lr_mult: 0.25
    decay_mult: 1
  }
  param {
    lr_mult: 0.5
    decay_mult: 0
  }
  convolution_param {
    num_output: 160
    pad: 0
    kernel_size: 1
    group: 1
    stride: 1
  }
}
layer {
  name: "inception_4e/relu_3x3_reduce"
  type: "ReLU"
  bottom: "inception_4e/3x3_reduce"
  top: "inception_4e/3x3_reduce"
}
layer {
  name: "inception_4e/3x3"
  type: "Convolution"
  bottom: "inception_4e/3x3_reduce"
  top: "inception_4e/3x3"
  param {
    lr_mult: 0.25
    decay_mult: 1
  }
  param {
    lr_mult: 0.5
    decay_mult: 0
  }
  convolution_param {
    num_output: 320
    pad: 1
    kernel_size: 3
    group: 1
    stride: 1
  }
}
layer {
  name: "inception_4e/relu_3x3"
  type: "ReLU"
  bottom: "inception_4e/3x3"
  top: "inception_4e/3x3"
}
layer {
  name: "inception_4e/5x5_reduce"
  type: "Convolution"
  bottom: "inception_4d/output"
  top: "inception_4e/5x5_reduce"
  param {
    lr_mult: 0.25
    decay_mult: 1
  }
  param {
    lr_mult: 0.5
    decay_mult: 0
  }
  convolution_param {
    num_output: 32
    pad: 0
    kernel_size: 1
    group: 1
    stride: 1
  }
}
layer {
  name: "inception_4e/relu_5x5_reduce"
  type: "ReLU"
  bottom: "inception_4e/5x5_reduce"
  top: "inception_4e/5x5_reduce"
}
layer {
  name: "inception_4e/5x5"
  type: "Convolution"
  bottom: "inception_4e/5x5_reduce"
  top: "inception_4e/5x5"
  param {
    lr_mult: 0.25
    decay_mult: 1
  }
  param {
    lr_mult: 0.5
    decay_mult: 0
  }
  convolution_param {
    num_output: 128
    pad: 2
    kernel_size: 5
    group: 1
    stride: 1
  }
}
layer {
  name: "inception_4e/relu_5x5"
  type: "ReLU"
  bottom: "inception_4e/5x5"
  top: "inception_4e/5x5"
}
layer {
  name: "inception_4e/pool"
  type: "Pooling"
  bottom: "inception_4d/output"
  top: "inception_4e/pool"
  pooling_param {
    pool: MAX
    kernel_size: 3
    stride: 1
    pad: 1
  }
}
layer {
  name: "inception_4e/pool_proj"
  type: "Convolution"
  bottom: "inception_4e/pool"
  top: "inception_4e/pool_proj"
  param {
    lr_mult: 0.25
    decay_mult: 1
  }
  param {
    lr_mult: 0.5
    decay_mult: 0
  }
  convolution_param {
    num_output: 128
    pad: 0
    kernel_size: 1
    group: 1
    stride: 1
  }
}
layer {
  name: "inception_4e/relu_pool_proj"
  type: "ReLU"
  bottom: "inception_4e/pool_proj"
  top: "inception_4e/pool_proj"
}
layer {
  name: "inception_4e/output"
  type: "Concat"
  bottom: "inception_4e/1x1"
  bottom: "inception_4e/3x3"
  bottom: "inception_4e/5x5"
  bottom: "inception_4e/pool_proj"
  top: "inception_4e/output"
}
layer {
  name: "pool4/3x3_s2"
  type: "Pooling"
  bottom: "inception_4e/output"
  top: "pool4/3x3_s2"
  pooling_param {
    pool: MAX
    kernel_size: 3
    stride: 2
    pad: 0
  }
}
layer {
  name: "inception_5a/1x1"
  type: "Convolution"
  bottom: "pool4/3x3_s2"
  top: "inception_5a/1x1"
  param {
    lr_mult: 0.25
    decay_mult: 1
  }
  param {
    lr_mult: 0.5
    decay_mult: 0
  }
  convolution_param {
    num_output: 256
    pad: 0
    kernel_size: 1
    group: 1
    stride: 1
  }
}
layer {
  name: "inception_5a/relu_1x1"
  type: "ReLU"
  bottom: "inception_5a/1x1"
  top: "inception_5a/1x1"
}
layer {
  name: "inception_5a/3x3_reduce"
  type: "Convolution"
  bottom: "pool4/3x3_s2"
  top: "inception_5a/3x3_reduce"
  param {
    lr_mult: 0.25
    decay_mult: 1
  }
  param {
    lr_mult: 0.5
    decay_mult: 0
  }
  convolution_param {
    num_output: 160
    pad: 0
    kernel_size: 1
    group: 1
    stride: 1
  }
}
layer {
  name: "inception_5a/relu_3x3_reduce"
  type: "ReLU"
  bottom: "inception_5a/3x3_reduce"
  top: "inception_5a/3x3_reduce"
}
layer {
  name: "inception_5a/3x3"
  type: "Convolution"
  bottom: "inception_5a/3x3_reduce"
  top: "inception_5a/3x3"
  param {
    lr_mult: 0.25
    decay_mult: 1
  }
  param {
    lr_mult: 0.5
    decay_mult: 0
  }
  convolution_param {
    num_output: 320
    pad: 1
    kernel_size: 3
    group: 1
    stride: 1
  }
}
layer {
  name: "inception_5a/relu_3x3"
  type: "ReLU"
  bottom: "inception_5a/3x3"
  top: "inception_5a/3x3"
}
layer {
  name: "inception_5a/5x5_reduce"
  type: "Convolution"
  bottom: "pool4/3x3_s2"
  top: "inception_5a/5x5_reduce"
  param {
    lr_mult: 0.25
    decay_mult: 1
  }
  param {
    lr_mult: 0.5
    decay_mult: 0
  }
  convolution_param {
    num_output: 32
    pad: 0
    kernel_size: 1
    group: 1
    stride: 1
  }
}
layer {
  name: "inception_5a/relu_5x5_reduce"
  type: "ReLU"
  bottom: "inception_5a/5x5_reduce"
  top: "inception_5a/5x5_reduce"
}
layer {
  name: "inception_5a/5x5"
  type: "Convolution"
  bottom: "inception_5a/5x5_reduce"
  top: "inception_5a/5x5"
  param {
    lr_mult: 0.25
    decay_mult: 1
  }
  param {
    lr_mult: 0.5
    decay_mult: 0
  }
  convolution_param {
    num_output: 128
    pad: 2
    kernel_size: 5
    group: 1
    stride: 1
  }
}
layer {
  name: "inception_5a/relu_5x5"
  type: "ReLU"
  bottom: "inception_5a/5x5"
  top: "inception_5a/5x5"
}
layer {
  name: "inception_5a/pool"
  type: "Pooling"
  bottom: "pool4/3x3_s2"
  top: "inception_5a/pool"
  pooling_param {
    pool: MAX
    kernel_size: 3
    stride: 1
    pad: 1
  }
}
layer {
  name: "inception_5a/pool_proj"
  type: "Convolution"
  bottom: "inception_5a/pool"
  top: "inception_5a/pool_proj"
  param {
    lr_mult: 0.25
    decay_mult: 1
  }
  param {
    lr_mult: 0.5
    decay_mult: 0
  }
  convolution_param {
    num_output: 128
    pad: 0
    kernel_size: 1
    group: 1
    stride: 1
  }
}
layer {
  name: "inception_5a/relu_pool_proj"
  type: "ReLU"
  bottom: "inception_5a/pool_proj"
  top: "inception_5a/pool_proj"
}
layer {
  name: "inception_5a/output"
  type: "Concat"
  bottom: "inception_5a/1x1"
  bottom: "inception_5a/3x3"
  bottom: "inception_5a/5x5"
  bottom: "inception_5a/pool_proj"
  top: "inception_5a/output"
}
layer {
  name: "inception_5b/1x1"
  type: "Convolution"
  bottom: "inception_5a/output"
  top: "inception_5b/1x1"
  param {
    lr_mult: 0.25
    decay_mult: 1
  }
  param {
    lr_mult: 0.5
    decay_mult: 0
  }
  convolution_param {
    num_output: 384
    pad: 0
    kernel_size: 1
    group: 1
    stride: 1
  }
}
layer {
  name: "inception_5b/relu_1x1"
  type: "ReLU"
  bottom: "inception_5b/1x1"
  top: "inception_5b/1x1"
}
layer {
  name: "inception_5b/3x3_reduce"
  type: "Convolution"
  bottom: "inception_5a/output"
  top: "inception_5b/3x3_reduce"
  param {
    lr_mult: 0.25
    decay_mult: 1
  }
  param {
    lr_mult: 0.5
    decay_mult: 0
  }
  convolution_param {
    num_output: 192
    pad: 0
    kernel_size: 1
    group: 1
    stride: 1
  }
}
layer {
  name: "inception_5b/relu_3x3_reduce"
  type: "ReLU"
  bottom: "inception_5b/3x3_reduce"
  top: "inception_5b/3x3_reduce"
}
layer {
  name: "inception_5b/3x3"
  type: "Convolution"
  bottom: "inception_5b/3x3_reduce"
  top: "inception_5b/3x3"
  param {
    lr_mult: 0.25
    decay_mult: 1
  }
  param {
    lr_mult: 0.5
    decay_mult: 0
  }
  convolution_param {
    num_output: 384
    pad: 1
    kernel_size: 3
    group: 1
    stride: 1
  }
}
layer {
  name: "inception_5b/relu_3x3"
  type: "ReLU"
  bottom: "inception_5b/3x3"
  top: "inception_5b/3x3"
}
layer {
  name: "inception_5b/5x5_reduce"
  type: "Convolution"
  bottom: "inception_5a/output"
  top: "inception_5b/5x5_reduce"
  param {
    lr_mult: 0.25
    decay_mult: 1
  }
  param {
    lr_mult: 0.5
    decay_mult: 0
  }
  convolution_param {
    num_output: 48
    pad: 0
    kernel_size: 1
    group: 1
    stride: 1
  }
}
layer {
  name: "inception_5b/relu_5x5_reduce"
  type: "ReLU"
  bottom: "inception_5b/5x5_reduce"
  top: "inception_5b/5x5_reduce"
}
layer {
  name: "inception_5b/5x5"
  type: "Convolution"
  bottom: "inception_5b/5x5_reduce"
  top: "inception_5b/5x5"
  param {
    lr_mult: 0.25
    decay_mult: 1
  }
  param {
    lr_mult: 0.5
    decay_mult: 0
  }
  convolution_param {
    num_output: 128
    pad: 2
    kernel_size: 5
    group: 1
    stride: 1
  }
}
layer {
  name: "inception_5b/relu_5x5"
  type: "ReLU"
  bottom: "inception_5b/5x5"
  top: "inception_5b/5x5"
}
layer {
  name: "inception_5b/pool"
  type: "Pooling"
  bottom: "inception_5a/output"
  top: "inception_5b/pool"
  pooling_param {
    pool: MAX
    kernel_size: 3
    stride: 1
    pad: 1
  }
}
layer {
  name: "inception_5b/pool_proj"
  type: "Convolution"
  bottom: "inception_5b/pool"
  top: "inception_5b/pool_proj"
  param {
    lr_mult: 0.25
    decay_mult: 1
  }
  param {
    lr_mult: 0.5
    decay_mult: 0
  }
  convolution_param {
    num_output: 128
    pad: 0
    kernel_size: 1
    group: 1
    stride: 1
  }
}
layer {
  name: "inception_5b/relu_pool_proj"
  type: "ReLU"
  bottom: "inception_5b/pool_proj"
  top: "inception_5b/pool_proj"
}
layer {
  name: "inception_5b/output"
  type: "Concat"
  bottom: "inception_5b/1x1"
  bottom: "inception_5b/3x3"
  bottom: "inception_5b/5x5"
  bottom: "inception_5b/pool_proj"
  top: "inception_5b/output"
}
layer {
  name: "pool5/7x7_s1"
  type: "Pooling"
  bottom: "inception_5b/output"
  top: "pool5/7x7_s1"
  pooling_param {
    pool: AVE
    kernel_size:
I1020 00:07:58.259229 24762 net.cpp:435] Input 0 -> data
I1020 00:07:58.259279 24762 layer_factory.hpp:76] Creating layer conv1/7x7_s2
I1020 00:07:58.259296 24762 net.cpp:110] Creating Layer conv1/7x7_s2
I1020 00:07:58.259302 24762 net.cpp:477] conv1/7x7_s2 <- data
I1020 00:07:58.259312 24762 net.cpp:433] conv1/7x7_s2 -> conv1/7x7_s2
I1020 00:07:58.440060 24762 net.cpp:155] Setting up conv1/7x7_s2
I1020 00:07:58.440117 24762 net.cpp:163] Top shape: 1 64 160 160 (1638400)
I1020 00:07:58.440145 24762 layer_factory.hpp:76] Creating layer conv1/relu_7x7
I1020 00:07:58.440163 24762 net.cpp:110] Creating Layer conv1/relu_7x7
I1020 00:07:58.440171 24762 net.cpp:477] conv1/relu_7x7 <- conv1/7x7_s2
I1020 00:07:58.440179 24762 net.cpp:419] conv1/relu_7x7 -> conv1/7x7_s2 (in-place)
I1020 00:07:58.440366 24762 net.cpp:155] Setting up conv1/relu_7x7
I1020 00:07:58.440379 24762 net.cpp:163] Top shape: 1 64 160 160 (1638400)
I1020 00:07:58.440387 24762 layer_factory.hpp:76] Creating layer pool1/3x3_s2
I1020 00:07:58.440398 24762 net.cpp:110] Creating Layer pool1/3x3_s2
I1020 00:07:58.440405 24762 net.cpp:477] pool1/3x3_s2 <- conv1/7x7_s2
I1020 00:07:58.440412 24762 net.cpp:433] pool1/3x3_s2 -> pool1/3x3_s2
I1020 00:07:58.440474 24762 net.cpp:155] Setting up pool1/3x3_s2
I1020 00:07:58.440485 24762 net.cpp:163] Top shape: 1 64 80 80 (409600)
I1020 00:07:58.440491 24762 layer_factory.hpp:76] Creating layer conv2/3x3_reduce
I1020 00:07:58.440501 24762 net.cpp:110] Creating Layer conv2/3x3_reduce
I1020 00:07:58.440507 24762 net.cpp:477] conv2/3x3_reduce <- pool1/3x3_s2
I1020 00:07:58.440515 24762 net.cpp:433] conv2/3x3_reduce -> conv2/3x3_reduce
I1020 00:07:58.441357 24762 net.cpp:155] Setting up conv2/3x3_reduce
I1020 00:07:58.441370 24762 net.cpp:163] Top shape: 1 64 80 80 (409600)
I1020 00:07:58.441382 24762 layer_factory.hpp:76] Creating layer conv2/relu_3x3_reduce
I1020 00:07:58.441391 24762 net.cpp:110] Creating Layer conv2/relu_3x3_reduce
I1020 00:07:58.441397 24762 net.cpp:477] conv2/relu_3x3_reduce <- conv2/3x3_reduce
I1020 00:07:58.441404 24762 net.cpp:419] conv2/relu_3x3_reduce -> conv2/3x3_reduce (in-place)
I1020 00:07:58.441455 24762 net.cpp:155] Setting up conv2/relu_3x3_reduce
I1020 00:07:58.441465 24762 net.cpp:163] Top shape: 1 64 80 80 (409600)
I1020 00:07:58.441472 24762 layer_factory.hpp:76] Creating layer conv2/3x3
I1020 00:07:58.441480 24762 net.cpp:110] Creating Layer conv2/3x3
I1020 00:07:58.441486 24762 net.cpp:477] conv2/3x3 <- conv2/3x3_reduce
I1020 00:07:58.441493 24762 net.cpp:433] conv2/3x3 -> conv2/3x3
I1020 00:07:58.442404 24762 net.cpp:155] Setting up conv2/3x3
I1020 00:07:58.442421 24762 net.cpp:163] Top shape: 1 192 80 80 (1228800)
I1020 00:07:58.442433 24762 layer_factory.hpp:76] Creating layer conv2/relu_3x3
I1020 00:07:58.442451 24762 net.cpp:110] Creating Layer conv2/relu_3x3
I1020 00:07:58.442458 24762 net.cpp:477] conv2/relu_3x3 <- conv2/3x3
I1020 00:07:58.442466 24762 net.cpp:419] conv2/relu_3x3 -> conv2/3x3 (in-place)
I1020 00:07:58.442639 24762 net.cpp:155] Setting up conv2/relu_3x3
I1020 00:07:58.442652 24762 net.cpp:163] Top shape: 1 192 80 80 (1228800)
I1020 00:07:58.442658 24762 layer_factory.hpp:76] Creating layer pool2/3x3_s2
I1020 00:07:58.442667 24762 net.cpp:110] Creating Layer pool2/3x3_s2
I1020 00:07:58.442673 24762 net.cpp:477] pool2/3x3_s2 <- conv2/3x3
I1020 00:07:58.442680 24762 net.cpp:433] pool2/3x3_s2 -> pool2/3x3_s2
I1020 00:07:58.442739 24762 net.cpp:155] Setting up pool2/3x3_s2
I1020 00:07:58.442749 24762 net.cpp:163] Top shape: 1 192 40 40 (307200)
I1020 00:07:58.442755 24762 layer_factory.hpp:76] Creating layer pool2/3x3_s2_pool2/3x3_s2_0_split
I1020 00:07:58.442769 24762 net.cpp:110] Creating Layer pool2/3x3_s2_pool2/3x3_s2_0_split
I1020 00:07:58.442775 24762 net.cpp:477] pool2/3x3_s2_pool2/3x3_s2_0_split <- pool2/3x3_s2
I1020 00:07:58.442781 24762 net.cpp:433] pool2/3x3_s2_pool2/3x3_s2_0_split -> pool2/3x3_s2_pool2/3x3_s2_0_split_0
I1020 00:07:58.442790 24762 net.cpp:433] pool2/3x3_s2_pool2/3x3_s2_0_split -> pool2/3x3_s2_pool2/3x3_s2_0_split_1
I1020 00:07:58.442797 24762 net.cpp:433] pool2/3x3_s2_pool2/3x3_s2_0_split -> pool2/3x3_s2_pool2/3x3_s2_0_split_2
I1020 00:07:58.442806 24762 net.cpp:433] pool2/3x3_s2_pool2/3x3_s2_0_split -> pool2/3x3_s2_pool2/3x3_s2_0_split_3
I1020 00:07:58.442816 24762 net.cpp:155] Setting up pool2/3x3_s2_pool2/3x3_s2_0_split
I1020 00:07:58.442822 24762 net.cpp:163] Top shape: 1 192 40 40 (307200)
I1020 00:07:58.442829 24762 net.cpp:163] Top shape: 1 192 40 40 (307200)
I1020 00:07:58.442836 24762 net.cpp:163] Top shape: 1 192 40 40 (307200)
I1020 00:07:58.442842 24762 net.cpp:163] Top shape: 1 192 40 40 (307200)
I1020 00:07:58.442847 24762 layer_factory.hpp:76] Creating layer inception_3a/1x1
I1020 00:07:58.442855 24762 net.cpp:110] Creating Layer inception_3a/1x1
I1020 00:07:58.442860 24762 net.cpp:477] inception_3a/1x1 <- pool2/3x3_s2_pool2/3x3_s2_0_split_0
I1020 00:07:58.442872 24762 net.cpp:433] inception_3a/1x1 -> inception_3a/1x1
I1020 00:07:58.443181 24762 net.cpp:155] Setting up inception_3a/1x1
I1020 00:07:58.443193 24762 net.cpp:163] Top shape: 1 64 40 40 (102400)
I1020 00:07:58.443203 24762 layer_factory.hpp:76] Creating layer inception_3a/relu_1x1
I1020 00:07:58.443212 24762 net.cpp:110] Creating Layer inception_3a/relu_1x1
I1020 00:07:58.443217 24762 net.cpp:477] inception_3a/relu_1x1 <- inception_3a/1x1
I1020 00:07:58.443224 24762 net.cpp:419] inception_3a/relu_1x1 -> inception_3a/1x1 (in-place)
I1020 00:07:58.443275 24762 net.cpp:155] Setting up inception_3a/relu_1x1
I1020 00:07:58.443285 24762 net.cpp:163] Top shape: 1 64 40 40 (102400)
I1020 00:07:58.443291 24762 layer_factory.hpp:76] Creating layer inception_3a/3x3_reduce
I1020 00:07:58.443300 24762 net.cpp:110] Creating Layer inception_3a/3x3_reduce
I1020 00:07:58.443306 24762 net.cpp:477] inception_3a/3x3_reduce <- pool2/3x3_s2_pool2/3x3_s2_0_split_1
I1020 00:07:58.443313 24762 net.cpp:433] inception_3a/3x3_reduce -> inception_3a/3x3_reduce
I1020 00:07:58.443621 24762 net.cpp:155] Setting up inception_3a/3x3_reduce
I1020 00:07:58.443634 24762 net.cpp:163] Top shape: 1 96 40 40 (153600)
I1020 00:07:58.443645 24762 layer_factory.hpp:76] Creating layer inception_3a/relu_3x3_reduce
I1020 00:07:58.443653 24762 net.cpp:110] Creating Layer inception_3a/relu_3x3_reduce
I1020 00:07:58.443660 24762 net.cpp:477] inception_3a/relu_3x3_reduce <- inception_3a/3x3_reduce
I1020 00:07:58.443667 24762 net.cpp:419] inception_3a/relu_3x3_reduce -> inception_3a/3x3_reduce (in-place)
I1020 00:07:58.443717 24762 net.cpp:155] Setting up inception_3a/relu_3x3_reduce
I1020 00:07:58.443727 24762 net.cpp:163] Top shape: 1 96 40 40 (153600)
I1020 00:07:58.443732 24762 layer_factory.hpp:76] Creating layer inception_3a/3x3
I1020 00:07:58.443742 24762 net.cpp:110] Creating Layer inception_3a/3x3
I1020 00:07:58.443753 24762 net.cpp:477] inception_3a/3x3 <- inception_3a/3x3_reduce
I1020 00:07:58.443760 24762 net.cpp:433] inception_3a/3x3 -> inception_3a/3x3
I1020 00:07:58.444118 24762 net.cpp:155] Setting up inception_3a/3x3
I1020 00:07:58.444131 24762 net.cpp:163] Top shape: 1 128 40 40 (204800)
I1020 00:07:58.444140 24762 layer_factory.hpp:76] Creating layer inception_3a/relu_3x3
I1020 00:07:58.444149 24762 net.cpp:110] Creating Layer inception_3a/relu_3x3
I1020 00:07:58.444154 24762 net.cpp:477] inception_3a/relu_3x3 <- inception_3a/3x3
I1020 00:07:58.444161 24762 net.cpp:419] inception_3a/relu_3x3 -> inception_3a/3x3 (in-place)
I1020 00:07:58.444329 24762 net.cpp:155] Setting up inception_3a/relu_3x3
I1020 00:07:58.444340 24762 net.cpp:163] Top shape: 1 128 40 40 (204800)
I1020 00:07:58.444346 24762 layer_factory.hpp:76] Creating layer inception_3a/5x5_reduce
I1020 00:07:58.444355 24762 net.cpp:110] Creating Layer inception_3a/5x5_reduce
I1020 00:07:58.444361 24762 net.cpp:477] inception_3a/5x5_reduce <- pool2/3x3_s2_pool2/3x3_s2_0_split_2
I1020 00:07:58.444370 24762 net.cpp:433] inception_3a/5x5_reduce -> inception_3a/5x5_reduce
I1020 00:07:58.444671 24762 net.cpp:155] Setting up inception_3a/5x5_reduce
I1020 00:07:58.444684 24762 net.cpp:163] Top shape: 1 16 40 40 (25600)
I1020 00:07:58.444692 24762 layer_factory.hpp:76] Creating layer inception_3a/relu_5x5_reduce
I1020 00:07:58.444702 24762 net.cpp:110] Creating Layer inception_3a/relu_5x5_reduce
I1020 00:07:58.444708 24762 net.cpp:477] inception_3a/relu_5x5_reduce <- inception_3a/5x5_reduce
I1020 00:07:58.444715 24762 net.cpp:419] inception_3a/relu_5x5_reduce -> inception_3a/5x5_reduce (in-place)
I1020 00:07:58.444766 24762 net.cpp:155] Setting up inception_3a/relu_5x5_reduce
I1020 00:07:58.444775 24762 net.cpp:163] Top shape: 1 16 40 40 (25600)
I1020 00:07:58.444783 24762 layer_factory.hpp:76] Creating layer inception_3a/5x5
I1020 00:07:58.444792 24762 net.cpp:110] Creating Layer inception_3a/5x5
I1020 00:07:58.444797 24762 net.cpp:477] inception_3a/5x5 <- inception_3a/5x5_reduce
I1020 00:07:58.444804 24762 net.cpp:433] inception_3a/5x5 -> inception_3a/5x5
I1020 00:07:58.445137 24762 net.cpp:155] Setting up inception_3a/5x5
I1020 00:07:58.445149 24762 net.cpp:163] Top shape: 1 32 40 40 (51200)
I1020 00:07:58.445158 24762 layer_factory.hpp:76] Creating layer inception_3a/relu_5x5
I1020 00:07:58.445166 24762 net.cpp:110] Creating Layer inception_3a/relu_5x5
I1020 00:07:58.445171 24762 net.cpp:477] inception_3a/relu_5x5 <- inception_3a/5x5
I1020 00:07:58.445178 24762 net.cpp:419] inception_3a/relu_5x5 -> inception_3a/5x5 (in-place)
I1020 00:07:58.445227 24762 net.cpp:155] Setting up inception_3a/relu_5x5
I1020 00:07:58.445237 24762 net.cpp:163] Top shape: 1 32 40 40 (51200)
I1020 00:07:58.445243 24762 layer_factory.hpp:76] Creating layer inception_3a/pool
I1020 00:07:58.445250 24762 layer_factory.cpp:60] CUDNN does not support padding or multiple tops. Using Caffe's own pooling layer.
I1020 00:07:58.445256 24762 net.cpp:110] Creating Layer inception_3a/pool
I1020 00:07:58.445262 24762 net.cpp:477] inception_3a/pool <- pool2/3x3_s2_pool2/3x3_s2_0_split_3
I1020 00:07:58.445269 24762 net.cpp:433] inception_3a/pool -> inception_3a/pool
I1020 00:07:58.445281 24762 net.cpp:155] Setting up inception_3a/pool
I1020 00:07:58.445287 24762 net.cpp:163] Top shape: 1 192 40 40 (307200)
I1020 00:07:58.445293 24762 layer_factory.hpp:76] Creating layer inception_3a/pool_proj
I1020 00:07:58.445308 24762 net.cpp:110] Creating Layer inception_3a/pool_proj
I1020 00:07:58.445313 24762 net.cpp:477] inception_3a/pool_proj <- inception_3a/pool
I1020 00:07:58.445322 24762 net.cpp:433] inception_3a/pool_proj -> inception_3a/pool_proj
I1020 00:07:58.445631 24762 net.cpp:155] Setting up inception_3a/pool_proj
I1020 00:07:58.445644 24762 net.cpp:163] Top shape: 1 32 40 40 (51200)
I1020 00:07:58.445657 24762 layer_factory.hpp:76] Creating layer inception_3a/relu_pool_proj
I1020 00:07:58.445664 24762 net.cpp:110] Creating Layer inception_3a/relu_pool_proj
I1020 00:07:58.445677 24762 net.cpp:477] inception_3a/relu_pool_proj <- inception_3a/pool_proj
I1020 00:07:58.445684 24762 net.cpp:419] inception_3a/relu_pool_proj -> inception_3a/pool_proj (in-place)
I1020 00:07:58.445735 24762 net.cpp:155] Setting up inception_3a/relu_pool_proj
I1020 00:07:58.445745 24762 net.cpp:163] Top shape: 1 32 40 40 (51200)
I1020 00:07:58.445751 24762 layer_factory.hpp:76] Creating layer inception_3a/output
I1020 00:07:58.445762 24762 net.cpp:110] Creating Layer inception_3a/output
I1020 00:07:58.445768 24762 net.cpp:477] inception_3a/output <- inception_3a/1x1
I1020 00:07:58.445775 24762 net.cpp:477] inception_3a/output <- inception_3a/3x3
I1020 00:07:58.445780 24762 net.cpp:477] inception_3a/output <- inception_3a/5x5
I1020 00:07:58.445787 24762 net.cpp:477] inception_3a/output <- inception_3a/pool_proj
I1020 00:07:58.445793 24762 net.cpp:433] inception_3a/output -> inception_3a/output
I1020 00:07:58.445806 24762 net.cpp:155] Setting up inception_3a/output
I1020 00:07:58.445813 24762 net.cpp:163] Top shape: 1 256 40 40 (409600)
I1020 00:07:58.445819 24762 layer_factory.hpp:76] Creating layer inception_3a/output_inception_3a/output_0_split
I1020 00:07:58.445827 24762 net.cpp:110] Creating Layer inception_3a/output_inception_3a/output_0_split
I1020 00:07:58.445832 24762 net.cpp:477] inception_3a/output_inception_3a/output_0_split <- inception_3a/output
I1020 00:07:58.445839 24762 net.cpp:433] inception_3a/output_inception_3a/output_0_split -> inception_3a/output_inception_3a/output_0_split_0
I1020 00:07:58.445848 24762 net.cpp:433] inception_3a/output_inception_3a/output_0_split -> inception_3a/output_inception_3a/output_0_split_1
I1020 00:07:58.445857 24762 net.cpp:433] inception_3a/output_inception_3a/output_0_split -> inception_3a/output_inception_3a/output_0_split_2
I1020 00:07:58.445863 24762 net.cpp:433] inception_3a/output_inception_3a/output_0_split -> inception_3a/output_inception_3a/output_0_split_3
I1020 00:07:58.445873 24762 net.cpp:155] Setting up inception_3a/output_inception_3a/output_0_split
I1020 00:07:58.445878 24762 net.cpp:163] Top shape: 1 256 40 40 (409600)
I1020 00:07:58.445884 24762 net.cpp:163] Top shape: 1 256 40 40 (409600)
I1020 00:07:58.445890 24762 net.cpp:163] Top shape: 1 256 40 40 (409600)
I1020 00:07:58.445896 24762 net.cpp:163] Top shape: 1 256 40 40 (409600)
I1020 00:07:58.445901 24762 layer_factory.hpp:76] Creating layer inception_3b/1x1
I1020 00:07:58.445909 24762 net.cpp:110] Creating Layer inception_3b/1x1
I1020 00:07:58.445915 24762 net.cpp:477] inception_3b/1x1 <- inception_3a/output_inception_3a/output_0_split_0
I1020 00:07:58.445922 24762 net.cpp:433] inception_3b/1x1 -> inception_3b/1x1
I1020 00:07:58.446259 24762 net.cpp:155] Setting up inception_3b/1x1
I1020 00:07:58.446274 24762 net.cpp:163] Top shape: 1 128 40 40 (204800)
I1020 00:07:58.446283 24762 layer_factory.hpp:76] Creating layer inception_3b/relu_1x1
I1020 00:07:58.446291 24762 net.cpp:110] Creating Layer inception_3b/relu_1x1
I1020 00:07:58.446297 24762 net.cpp:477] inception_3b/relu_1x1 <- inception_3b/1x1
I1020 00:07:58.446305 24762 net.cpp:419] inception_3b/relu_1x1 -> inception_3b/1x1 (in-place)
I1020 00:07:58.446483 24762 net.cpp:155] Setting up inception_3b/relu_1x1
I1020 00:07:58.446496 24762 net.cpp:163] Top shape: 1 128 40 40 (204800)
I1020 00:07:58.446501 24762 layer_factory.hpp:76] Creating layer inception_3b/3x3_reduce
I1020 00:07:58.446509 24762 net.cpp:110] Creating Layer inception_3b/3x3_reduce
I1020 00:07:58.446516 24762 net.cpp:477] inception_3b/3x3_reduce <- inception_3a/output_inception_3a/output_0_split_1
I1020 00:07:58.446523 24762 net.cpp:433] inception_3b/3x3_reduce -> inception_3b/3x3_reduce
I1020 00:07:58.446840 24762 net.cpp:155] Setting up inception_3b/3x3_reduce
I1020 00:07:58.446851 24762 net.cpp:163] Top shape: 1 128 40 40 (204800)
I1020 00:07:58.446861 24762 layer_factory.hpp:76] Creating layer inception_3b/relu_3x3_reduce
I1020 00:07:58.446868 24762 net.cpp:110] Creating Layer inception_3b/relu_3x3_reduce
I1020 00:07:58.446874 24762 net.cpp:477] inception_3b/relu_3x3_reduce <- inception_3b/3x3_reduce
I1020 00:07:58.446887 24762 net.cpp:419] inception_3b/relu_3x3_reduce -> inception_3b/3x3_reduce (in-place)
I1020 00:07:58.446938 24762 net.cpp:155] Setting up inception_3b/relu_3x3_reduce
I1020 00:07:58.446949 24762 net.cpp:163] Top shape: 1 128 40 40 (204800)
I1020 00:07:58.446954 24762 layer_factory.hpp:76] Creating layer inception_3b/3x3
I1020 00:07:58.446962 24762 net.cpp:110] Creating Layer inception_3b/3x3
I1020 00:07:58.446969 24762 net.cpp:477] inception_3b/3x3 <- inception_3b/3x3_reduce
I1020 00:07:58.446975 24762 net.cpp:433] inception_3b/3x3 -> inception_3b/3x3
I1020 00:07:58.447921 24762 net.cpp:155] Setting up inception_3b/3x3
I1020 00:07:58.447935 24762 net.cpp:163] Top shape: 1 192 40 40 (307200)
I1020 00:07:58.447944 24762 layer_factory.hpp:76] Creating layer inception_3b/relu_3x3
I1020 00:07:58.447952 24762 net.cpp:110] Creating Layer inception_3b/relu_3x3
I1020 00:07:58.447958 24762 net.cpp:477] inception_3b/relu_3x3 <- inception_3b/3x3
I1020 00:07:58.447965 24762 net.cpp:419] inception_3b/relu_3x3 -> inception_3b/3x3 (in-place)
I1020 00:07:58.448017 24762 net.cpp:155] Setting up inception_3b/relu_3x3
I1020 00:07:58.448027 24762 net.cpp:163] Top shape: 1 192 40 40 (307200)
I1020 00:07:58.448034 24762 layer_factory.hpp:76] Creating layer inception_3b/5x5_reduce
I1020 00:07:58.448041 24762 net.cpp:110] Creating Layer inception_3b/5x5_reduce
I1020 00:07:58.448047 24762 net.cpp:477] inception_3b/5x5_reduce <- inception_3a/output_inception_3a/output_0_split_2
I1020 00:07:58.448055 24762 net.cpp:433] inception_3b/5x5_reduce -> inception_3b/5x5_reduce
I1020 00:07:58.448379 24762 net.cpp:155] Setting up inception_3b/5x5_reduce
I1020 00:07:58.448392 24762 net.cpp:163] Top shape: 1 32 40 40 (51200)
I1020 00:07:58.448401 24762 layer_factory.hpp:76] Creating layer inception_3b/relu_5x5_reduce
I1020 00:07:58.448410 24762 net.cpp:110] Creating Layer inception_3b/relu_5x5_reduce
I1020 00:07:58.448415 24762 net.cpp:477] inception_3b/relu_5x5_reduce <- inception_3b/5x5_reduce
I1020 00:07:58.448422 24762 net.cpp:419] inception_3b/relu_5x5_reduce -> inception_3b/5x5_reduce (in-place)
I1020 00:07:58.448473 24762 net.cpp:155] Setting up inception_3b/relu_5x5_reduce
I1020 00:07:58.448483 24762 net.cpp:163] Top shape: 1 32 40 40 (51200)
I1020 00:07:58.448489 24762 layer_factory.hpp:76] Creating layer inception_3b/5x5
I1020 00:07:58.448499 24762 net.cpp:110] Creating Layer inception_3b/5x5
I1020 00:07:58.448505 24762 net.cpp:477] inception_3b/5x5 <- inception_3b/5x5_reduce
I1020 00:07:58.448513 24762 net.cpp:433] inception_3b/5x5 -> inception_3b/5x5
I1020 00:07:58.449378 24762 net.cpp:155] Setting up inception_3b/5x5
I1020 00:07:58.449390 24762 net.cpp:163] Top shape: 1 96 40 40 (153600)
I1020 00:07:58.449399 24762 layer_factory.hpp:76] Creating layer inception_3b/relu_5x5
I1020 00:07:58.449409 24762 net.cpp:110] Creating Layer inception_3b/relu_5x5
I1020 00:07:58.449414 24762 net.cpp:477] inception_3b/relu_5x5 <- inception_3b/5x5
I1020 00:07:58.449421 24762 net.cpp:419] inception_3b/relu_5x5 -> inception_3b/5x5 (in-place)
I1020 00:07:58.449589 24762 net.cpp:155] Setting up inception_3b/relu_5x5
I1020 00:07:58.449601 24762 net.cpp:163] Top shape: 1 96 40 40 (153600)
I1020 00:07:58.449609 24762 layer_factory.hpp:76] Creating layer inception_3b/pool
I1020 00:07:58.449615 24762 layer_factory.cpp:60] CUDNN does not support padding or multiple tops. Using Caffe's own pooling layer.
I1020 00:07:58.449622 24762 net.cpp:110] Creating Layer inception_3b/pool
I1020 00:07:58.449628 24762 net.cpp:477] inception_3b/pool <- inception_3a/output_inception_3a/output_0_split_3
I1020 00:07:58.449635 24762 net.cpp:433] inception_3b/pool -> inception_3b/pool
I1020 00:07:58.449646 24762 net.cpp:155] Setting up inception_3b/pool
I1020 00:07:58.449654 24762 net.cpp:163] Top shape: 1 256 40 40 (409600)
I1020 00:07:58.449659 24762 layer_factory.hpp:76] Creating layer inception_3b/pool_proj
I1020 00:07:58.449668 24762 net.cpp:110] Creating Layer inception_3b/pool_proj
I1020 00:07:58.449673 24762 net.cpp:477] inception_3b/pool_proj <- inception_3b/pool
I1020 00:07:58.449687 24762 net.cpp:433] inception_3b/pool_proj -> inception_3b/pool_proj
I1020 00:07:58.450016 24762 net.cpp:155] Setting up inception_3b/pool_proj
I1020 00:07:58.450028 24762 net.cpp:163] Top shape: 1 64 40 40 (102400)
I1020 00:07:58.450037 24762 layer_factory.hpp:76] Creating layer inception_3b/relu_pool_proj
I1020 00:07:58.450055 24762 net.cpp:110] Creating Layer inception_3b/relu_pool_proj
I1020 00:07:58.450062 24762 net.cpp:477] inception_3b/relu_pool_proj <- inception_3b/pool_proj
I1020 00:07:58.450069 24762 net.cpp:419] inception_3b/relu_pool_proj -> inception_3b/pool_proj (in-place)
I1020 00:07:58.450122 24762 net.cpp:155] Setting up inception_3b/relu_pool_proj
I1020 00:07:58.450132 24762 net.cpp:163] Top shape: 1 64 40 40 (102400)
I1020 00:07:58.450139 24762 layer_factory.hpp:76] Creating layer inception_3b/output
I1020 00:07:58.450146 24762 net.cpp:110] Creating Layer inception_3b/output
I1020 00:07:58.450151 24762 net.cpp:477] inception_3b/output <- inception_3b/1x1
I1020 00:07:58.450158 24762 net.cpp:477] inception_3b/output <- inception_3b/3x3
I1020 00:07:58.450165 24762 net.cpp:477] inception_3b/output <- inception_3b/5x5
I1020 00:07:58.450170 24762 net.cpp:477] inception_3b/output <- inception_3b/pool_proj
I1020 00:07:58.450176 24762 net.cpp:433] inception_3b/output -> inception_3b/output
I1020 00:07:58.450186 24762 net.cpp:155] Setting up inception_3b/output
I1020 00:07:58.450192 24762 net.cpp:163] Top shape: 1 480 40 40 (768000)
I1020 00:07:58.450198 24762 layer_factory.hpp:76] Creating layer pool3/3x3_s2
I1020 00:07:58.450206 24762 net.cpp:110] Creating Layer pool3/3x3_s2
I1020 00:07:58.450212 24762 net.cpp:477] pool3/3x3_s2 <- inception_3b/output
I1020 00:07:58.450219 24762 net.cpp:433] pool3/3x3_s2 -> pool3/3x3_s2
I1020 00:07:58.450270 24762 net.cpp:155] Setting up pool3/3x3_s2
I1020 00:07:58.450280 24762 net.cpp:163] Top shape: 1 480 20 20 (192000)
I1020 00:07:58.450285 24762 layer_factory.hpp:76] Creating layer pool3/3x3_s2_pool3/3x3_s2_0_split
I1020 00:07:58.450294 24762 net.cpp:110] Creating Layer pool3/3x3_s2_pool3/3x3_s2_0_split
I1020 00:07:58.450299 24762 net.cpp:477] pool3/3x3_s2_pool3/3x3_s2_0_split <- pool3/3x3_s2
I1020 00:07:58.450306 24762 net.cpp:433] pool3/3x3_s2_pool3/3x3_s2_0_split -> pool3/3x3_s2_pool3/3x3_s2_0_split_0
I1020 00:07:58.450314 24762 net.cpp:433] pool3/3x3_s2_pool3/3x3_s2_0_split -> pool3/3x3_s2_pool3/3x3_s2_0_split_1
I1020 00:07:58.450323 24762 net.cpp:433] pool3/3x3_s2_pool3/3x3_s2_0_split -> pool3/3x3_s2_pool3/3x3_s2_0_split_2
I1020 00:07:58.450331 24762 net.cpp:433] pool3/3x3_s2_pool3/3x3_s2_0_split -> pool3/3x3_s2_pool3/3x3_s2_0_split_3
I1020 00:07:58.450340 24762 net.cpp:155] Setting up pool3/3x3_s2_pool3/3x3_s2_0_split
I1020 00:07:58.450346 24762 net.cpp:163] Top shape: 1 480 20 20 (192000)
I1020 00:07:58.450352 24762 net.cpp:163] Top shape: 1 480 20 20 (192000)
I1020 00:07:58.450358 24762 net.cpp:163] Top shape: 1 480 20 20 (192000)
I1020 00:07:58.450364 24762 net.cpp:163] Top shape: 1 480 20 20 (192000)
I1020 00:07:58.450371 24762 layer_factory.hpp:76] Creating layer inception_4a/1x1
I1020 00:07:58.450377 24762 net.cpp:110] Creating Layer inception_4a/1x1
I1020 00:07:58.450383 24762 net.cpp:477] inception_4a/1x1 <- pool3/3x3_s2_pool3/3x3_s2_0_split_0
I1020 00:07:58.450390 24762 net.cpp:433] inception_4a/1x1 -> inception_4a/1x1
I1020 00:07:58.451273 24762 net.cpp:155] Setting up inception_4a/1x1
I1020 00:07:58.451287 24762 net.cpp:163] Top shape: 1 192 20 20 (76800)
I1020 00:07:58.451295 24762 layer_factory.hpp:76] Creating layer inception_4a/relu_1x1
I1020 00:07:58.451303 24762 net.cpp:110] Creating Layer inception_4a/relu_1x1
I1020 00:07:58.451309 24762 net.cpp:477] inception_4a/relu_1x1 <- inception_4a/1x1
I1020 00:07:58.451316 24762 net.cpp:419] inception_4a/relu_1x1 -> inception_4a/1x1 (in-place)
I1020 00:07:58.451485 24762 net.cpp:155] Setting up inception_4a/relu_1x1
I1020 00:07:58.451498 24762 net.cpp:163] Top shape: 1 192 20 20 (76800)
I1020 00:07:58.451503 24762 layer_factory.hpp:76] Creating layer inception_4a/3x3_reduce
I1020 00:07:58.451519 24762 net.cpp:110] Creating Layer inception_4a/3x3_reduce
I1020 00:07:58.451525 24762 net.cpp:477] inception_4a/3x3_reduce <- pool3/3x3_s2_pool3/3x3_s2_0_split_1
I1020 00:07:58.451534 24762 net.cpp:433] inception_4a/3x3_reduce -> inception_4a/3x3_reduce
I1020 00:07:58.451872 24762 net.cpp:155] Setting up inception_4a/3x3_reduce
I1020 00:07:58.451884 24762 net.cpp:163] Top shape: 1 96 20 20 (38400)
I1020 00:07:58.451896 24762 layer_factory.hpp:76] Creating layer inception_4a/relu_3x3_reduce
I1020 00:07:58.451905 24762 net.cpp:110] Creating Layer inception_4a/relu_3x3_reduce
I1020 00:07:58.451911 24762 net.cpp:477] inception_4a/relu_3x3_reduce <- inception_4a/3x3_reduce
I1020 00:07:58.451918 24762 net.cpp:419] inception_4a/relu_3x3_reduce -> inception_4a/3x3_reduce (in-place)
I1020 00:07:58.451972 24762 net.cpp:155] Setting up inception_4a/relu_3x3_reduce
I1020 00:07:58.451982 24762 net.cpp:163] Top shape: 1 96 20 20 (38400)
I1020 00:07:58.451987 24762 layer_factory.hpp:76] Creating layer inception_4a/3x3
I1020 00:07:58.451995 24762 net.cpp:110] Creating Layer inception_4a/3x3
I1020 00:07:58.452002 24762 net.cpp:477] inception_4a/3x3 <- inception_4a/3x3_reduce
I1020 00:07:58.452008 24762 net.cpp:433] inception_4a/3x3 -> inception_4a/3x3
I1020 00:07:58.452944 24762 net.cpp:155] Setting up inception_4a/3x3
I1020 00:07:58.452957 24762 net.cpp:163] Top shape: 1 208 20 20 (83200)
I1020 00:07:58.452966 24762 layer_factory.hpp:76] Creating layer inception_4a/relu_3x3
I1020 00:07:58.452973 24762 net.cpp:110] Creating Layer inception_4a/relu_3x3
I1020 00:07:58.452980 24762 net.cpp:477] inception_4a/relu_3x3 <- inception_4a/3x3
I1020 00:07:58.452986 24762 net.cpp:419] inception_4a/relu_3x3 -> inception_4a/3x3 (in-place)
I1020 00:07:58.453038 24762 net.cpp:155] Setting up inception_4a/relu_3x3
I1020 00:07:58.453048 24762 net.cpp:163] Top shape: 1 208 20 20 (83200)
I1020 00:07:58.453054 24762 layer_factory.hpp:76] Creating layer inception_4a/5x5_reduce
I1020 00:07:58.453063 24762 net.cpp:110] Creating Layer inception_4a/5x5_reduce
I1020 00:07:58.453068 24762 net.cpp:477] inception_4a/5x5_reduce <- pool3/3x3_s2_pool3/3x3_s2_0_split_2
I1020 00:07:58.453076 24762 net.cpp:433] inception_4a/5x5_reduce -> inception_4a/5x5_reduce
I1020 00:07:58.453404 24762 net.cpp:155] Setting up inception_4a/5x5_reduce
I1020 00:07:58.453416 24762 net.cpp:163] Top shape: 1 16 20 20 (6400)
I1020 00:07:58.453425 24762 layer_factory.hpp:76] Creating layer inception_4a/relu_5x5_reduce
I1020 00:07:58.453434 24762 net.cpp:110] Creating Layer inception_4a/relu_5x5_reduce
I1020 00:07:58.453440 24762 net.cpp:477] inception_4a/relu_5x5_reduce <- inception_4a/5x5_reduce
I1020 00:07:58.453446 24762 net.cpp:419] inception_4a/relu_5x5_reduce -> inception_4a/5x5_reduce (in-place)
I1020 00:07:58.453501 24762 net.cpp:155] Setting up inception_4a/relu_5x5_reduce
I1020 00:07:58.453510 24762 net.cpp:163] Top shape: 1 16 20 20 (6400)
I1020 00:07:58.453516 24762 layer_factory.hpp:76] Creating layer inception_4a/5x5
I1020 00:07:58.453526 24762 net.cpp:110] Creating Layer inception_4a/5x5
I1020 00:07:58.453531 24762 net.cpp:477] inception_4a/5x5 <- inception_4a/5x5_reduce
I1020 00:07:58.453538 24762 net.cpp:433] inception_4a/5x5 -> inception_4a/5x5
I1020 00:07:58.453861 24762 net.cpp:155] Setting up inception_4a/5x5
I1020 00:07:58.453874 24762 net.cpp:163] Top shape: 1 48 20 20 (19200)
I1020 00:07:58.453882 24762 layer_factory.hpp:76] Creating layer inception_4a/relu_5x5
I1020 00:07:58.453891 24762 net.cpp:110] Creating Layer inception_4a/relu_5x5
I1020 00:07:58.453897 24762 net.cpp:477] inception_4a/relu_5x5 <- inception_4a/5x5
I1020 00:07:58.453904 24762 net.cpp:419] inception_4a/relu_5x5 -> inception_4a/5x5 (in-place)
I1020 00:07:58.454084 24762 net.cpp:155] Setting up inception_4a/relu_5x5
I1020 00:07:58.454099 24762 net.cpp:163] Top shape: 1 48 20 20 (19200)
I1020 00:07:58.454107 24762 layer_factory.hpp:76] Creating layer inception_4a/pool
I1020 00:07:58.454113 24762 layer_factory.cpp:60] CUDNN does not support padding or multiple tops. Using Caffe's own pooling layer.
I1020 00:07:58.454125 24762 net.cpp:110] Creating Layer inception_4a/pool
I1020 00:07:58.454133 24762 net.cpp:477] inception_4a/pool <- pool3/3x3_s2_pool3/3x3_s2_0_split_3
I1020 00:07:58.454139 24762 net.cpp:433] inception_4a/pool -> inception_4a/pool
I1020 00:07:58.454149 24762 net.cpp:155] Setting up inception_4a/pool
I1020 00:07:58.454157 24762 net.cpp:163] Top shape: 1 480 20 20 (192000)
I1020 00:07:58.454162 24762 layer_factory.hpp:76] Creating layer inception_4a/pool_proj
I1020 00:07:58.454177 24762 net.cpp:110] Creating Layer inception_4a/pool_proj
I1020 00:07:58.454183 24762 net.cpp:477] inception_4a/pool_proj <- inception_4a/pool
I1020 00:07:58.454190 24762 net.cpp:433] inception_4a/pool_proj -> inception_4a/pool_proj
I1020 00:07:58.454529 24762 net.cpp:155] Setting up inception_4a/pool_proj
I1020 00:07:58.454540 24762 net.cpp:163] Top shape: 1 64 20 20 (25600)
I1020 00:07:58.454550 24762 layer_factory.hpp:76] Creating layer inception_4a/relu_pool_proj
I1020 00:07:58.454557 24762 net.cpp:110] Creating Layer inception_4a/relu_pool_proj
I1020 00:07:58.454563 24762 net.cpp:477] inception_4a/relu_pool_proj <- inception_4a/pool_proj
I1020 00:07:58.454569 24762 net.cpp:419] inception_4a/relu_pool_proj -> inception_4a/pool_proj (in-place)
I1020 00:07:58.454622 24762 net.cpp:155] Setting up inception_4a/relu_pool_proj
I1020 00:07:58.454632 24762 net.cpp:163] Top shape: 1 64 20 20 (25600)
I1020 00:07:58.454638 24762 layer_factory.hpp:76] Creating layer inception_4a/output
I1020 00:07:58.454645 24762 net.cpp:110] Creating Layer inception_4a/output
I1020 00:07:58.454651 24762 net.cpp:477] inception_4a/output <- inception_4a/1x1
I1020 00:07:58.454658 24762 net.cpp:477] inception_4a/output <- inception_4a/3x3
I1020 00:07:58.454663 24762 net.cpp:477] inception_4a/output <- inception_4a/5x5
I1020 00:07:58.454669 24762 net.cpp:477] inception_4a/output <- inception_4a/pool_proj
I1020 00:07:58.454676 24762 net.cpp:433] inception_4a/output -> inception_4a/output
I1020 00:07:58.454685 24762 net.cpp:155] Setting up inception_4a/output
I1020 00:07:58.454692 24762 net.cpp:163] Top shape: 1 512 20 20 (204800)
I1020 00:07:58.454697 24762 layer_factory.hpp:76] Creating layer inception_4a/output_inception_4a/output_0_split
I1020 00:07:58.454705 24762 net.cpp:110] Creating Layer inception_4a/output_inception_4a/output_0_split
I1020 00:07:58.454710 24762 net.cpp:477] inception_4a/output_inception_4a/output_0_split <- inception_4a/output
I1020 00:07:58.454717 24762 net.cpp:433] inception_4a/output_inception_4a/output_0_split -> inception_4a/output_inception_4a/output_0_split_0
I1020 00:07:58.454725 24762 net.cpp:433] inception_4a/output_inception_4a/output_0_split -> inception_4a/output_inception_4a/output_0_split_1
I1020 00:07:58.454733 24762 net.cpp:433] inception_4a/output_inception_4a/output_0_split -> inception_4a/output_inception_4a/output_0_split_2
I1020 00:07:58.454741 24762 net.cpp:433] inception_4a/output_inception_4a/output_0_split -> inception_4a/output_inception_4a/output_0_split_3
I1020 00:07:58.454749 24762 net.cpp:155] Setting up inception_4a/output_inception_4a/output_0_split
I1020 00:07:58.454756 24762 net.cpp:163] Top shape: 1 512 20 20 (204800)
I1020 00:07:58.454762 24762 net.cpp:163] Top shape: 1 512 20 20 (204800)
I1020 00:07:58.454768 24762 net.cpp:163] Top shape: 1 512 20 20 (204800)
I1020 00:07:58.454773 24762 net.cpp:163] Top shape: 1 512 20 20 (204800)
I1020 00:07:58.454779 24762 layer_factory.hpp:76] Creating layer inception_4b/1x1
I1020 00:07:58.454787 24762 net.cpp:110] Creating Layer inception_4b/1x1
I1020 00:07:58.454792 24762 net.cpp:477] inception_4b/1x1 <- inception_4a/output_inception_4a/output_0_split_0
I1020 00:07:58.454799 24762 net.cpp:433] inception_4b/1x1 -> inception_4b/1x1
I1020 00:07:58.455154 24762 net.cpp:155] Setting up inception_4b/1x1
I1020 00:07:58.455166 24762 net.cpp:163] Top shape: 1 160 20 20 (64000)
I1020 00:07:58.455175 24762 layer_factory.hpp:76] Creating layer inception_4b/relu_1x1
I1020 00:07:58.455183 24762 net.cpp:110] Creating Layer inception_4b/relu_1x1
I1020 00:07:58.455194 24762 net.cpp:477] inception_4b/relu_1x1 <- inception_4b/1x1
I1020 00:07:58.455201 24762 net.cpp:419] inception_4b/relu_1x1 -> inception_4b/1x1 (in-place)
I1020 00:07:58.455255 24762 net.cpp:155] Setting up inception_4b/relu_1x1
I1020 00:07:58.455265 24762 net.cpp:163] Top shape: 1 160 20 20 (64000)
I1020 00:07:58.455271 24762 layer_factory.hpp:76] Creating layer inception_4b/3x3_reduce
I1020 00:07:58.455279 24762 net.cpp:110] Creating Layer inception_4b/3x3_reduce
I1020 00:07:58.455284 24762 net.cpp:477] inception_4b/3x3_reduce <- inception_4a/output_inception_4a/output_0_split_1
I1020 00:07:58.455291 24762 net.cpp:433] inception_4b/3x3_reduce -> inception_4b/3x3_reduce
I1020 00:07:58.456168 24762 net.cpp:155] Setting up inception_4b/3x3_reduce
I1020 00:07:58.456182 24762 net.cpp:163] Top shape: 1 112 20 20 (44800)
I1020 00:07:58.456190 24762 layer_factory.hpp:76] Creating layer inception_4b/relu_3x3_reduce
I1020 00:07:58.456197 24762 net.cpp:110] Creating Layer inception_4b/relu_3x3_reduce
I1020 00:07:58.456203 24762 net.cpp:477] inception_4b/relu_3x3_reduce <- inception_4b/3x3_reduce
I1020 00:07:58.456210 24762 net.cpp:419] inception_4b/relu_3x3_reduce -> inception_4b/3x3_reduce (in-place)
I1020 00:07:58.456262 24762 net.cpp:155] Setting up inception_4b/relu_3x3_reduce
I1020 00:07:58.456272 24762 net.cpp:163] Top shape: 1 112 20 20 (44800)
I1020 00:07:58.456279 24762 layer_factory.hpp:76] Creating layer inception_4b/3x3
I1020 00:07:58.456286 24762 net.cpp:110] Creating Layer inception_4b/3x3
I1020 00:07:58.456291 24762 net.cpp:477] inception_4b/3x3 <- inception_4b/3x3_reduce
I1020 00:07:58.456298 24762 net.cpp:433] inception_4b/3x3 -> inception_4b/3x3
I1020 00:07:58.457260 24762 net.cpp:155] Setting up inception_4b/3x3
I1020 00:07:58.457273 24762 net.cpp:163] Top shape: 1 224 20 20 (89600)
I1020 00:07:58.457283 24762 layer_factory.hpp:76] Creating layer inception_4b/relu_3x3
I1020 00:07:58.457290 24762 net.cpp:110] Creating Layer inception_4b/relu_3x3
I1020 00:07:58.457296 24762 net.cpp:477] inception_4b/relu_3x3 <- inception_4b/3x3
I1020 00:07:58.457304 24762 net.cpp:419] inception_4b/relu_3x3 -> inception_4b/3x3 (in-place)
I1020 00:07:58.457528 24762 net.cpp:155] Setting up inception_4b/relu_3x3
I1020 00:07:58.457541 24762 net.cpp:163] Top shape: 1 224 20 20 (89600)
I1020 00:07:58.457547 24762 layer_factory.hpp:76] Creating layer inception_4b/5x5_reduce
I1020 00:07:58.457556 24762 net.cpp:110] Creating Layer inception_4b/5x5_reduce
I1020 00:07:58.457562 24762 net.cpp:477] inception_4b/5x5_reduce <- inception_4a/output_inception_4a/output_0_split_2
I1020 00:07:58.457571 24762 net.cpp:433] inception_4b/5x5_reduce -> inception_4b/5x5_reduce
I1020 00:07:58.457898 24762 net.cpp:155] Setting up inception_4b/5x5_reduce
I1020 00:07:58.457911 24762 net.cpp:163] Top shape: 1 24 20 20 (9600)
I1020 00:07:58.457919 24762 layer_factory.hpp:76] Creating layer inception_4b/relu_5x5_reduce
I1020 00:07:58.457927 24762 net.cpp:110] Creating Layer inception_4b/relu_5x5_reduce
I1020 00:07:58.457933 24762 net.cpp:477] inception_4b/relu_5x5_reduce <- inception_4b/5x5_reduce
I1020 00:07:58.457940 24762 net.cpp:419] inception_4b/relu_5x5_reduce -> inception_4b/5x5_reduce (in-place)
I1020 00:07:58.457993 24762 net.cpp:155] Setting up inception_4b/relu_5x5_reduce
I1020 00:07:58.458003 24762 net.cpp:163] Top shape: 1 24 20 20 (9600)
I1020 00:07:58.458008 24762 layer_factory.hpp:76] Creating layer inception_4b/5x5
I1020 00:07:58.458016 24762 net.cpp:110] Creating Layer inception_4b/5x5
I1020 00:07:58.458021 24762 net.cpp:477] inception_4b/5x5 <- inception_4b/5x5_reduce
I1020 00:07:58.458029 24762 net.cpp:433] inception_4b/5x5 -> inception_4b/5x5
I1020 00:07:58.458369 24762 net.cpp:155] Setting up inception_4b/5x5
I1020 00:07:58.458384 24762 net.cpp:163] Top shape: 1 64 20 20 (25600)
I1020 00:07:58.458395 24762 layer_factory.hpp:76] Creating layer inception_4b/relu_5x5
I1020 00:07:58.458405 24762 net.cpp:110] Creating Layer inception_4b/relu_5x5
I1020 00:07:58.458411 24762 net.cpp:477] inception_4b/relu_5x5 <- inception_4b/5x5
I1020 00:07:58.458428 24762 net.cpp:419] inception_4b/relu_5x5 -> inception_4b/5x5 (in-place)
I1020 00:07:58.458487 24762 net.cpp:155] Setting up inception_4b/relu_5x5
I1020 00:07:58.458498 24762 net.cpp:163] Top shape: 1 64 20 20 (25600)
I1020 00:07:58.458503 24762 layer_factory.hpp:76] Creating layer inception_4b/pool
I1020 00:07:58.458510 24762 layer_factory.cpp:60] CUDNN does not support padding or multiple tops. Using Caffe's own pooling layer.
I1020 00:07:58.458518 24762 net.cpp:110] Creating Layer inception_4b/pool
I1020 00:07:58.458523 24762 net.cpp:477] inception_4b/pool <- inception_4a/output_inception_4a/output_0_split_3
I1020 00:07:58.458530 24762 net.cpp:433] inception_4b/pool -> inception_4b/pool
I1020 00:07:58.458539 24762 net.cpp:155] Setting up inception_4b/pool
I1020 00:07:58.458546 24762 net.cpp:163] Top shape: 1 512 20 20 (204800)
I1020 00:07:58.458552 24762 layer_factory.hpp:76] Creating layer inception_4b/pool_proj
I1020 00:07:58.458562 24762 net.cpp:110] Creating Layer inception_4b/pool_proj
I1020 00:07:58.458569 24762 net.cpp:477] inception_4b/pool_proj <- inception_4b/pool
I1020 00:07:58.458575 24762 net.cpp:433] inception_4b/pool_proj -> inception_4b/pool_proj
I1020 00:07:58.458943 24762 net.cpp:155] Setting up inception_4b/pool_proj
I1020 00:07:58.458956 24762 net.cpp:163] Top shape: 1 64 20 20 (25600)
I1020 00:07:58.458964 24762 layer_factory.hpp:76] Creating layer inception_4b/relu_pool_proj
I1020 00:07:58.458973 24762 net.cpp:110] Creating Layer inception_4b/relu_pool_proj
I1020 00:07:58.458979 24762 net.cpp:477] inception_4b/relu_pool_proj <- inception_4b/pool_proj
I1020 00:07:58.458988 24762 net.cpp:419] inception_4b/relu_pool_proj -> inception_4b/pool_proj (in-place)
I1020 00:07:58.459055 24762 net.cpp:155] Setting up inception_4b/relu_pool_proj
I1020 00:07:58.459066 24762 net.cpp:163] Top shape: 1 64 20 20 (25600)
I1020 00:07:58.459072 24762 layer_factory.hpp:76] Creating layer inception_4b/output
I1020 00:07:58.459080 24762 net.cpp:110] Creating Layer inception_4b/output
I1020 00:07:58.459085 24762 net.cpp:477] inception_4b/output <- inception_4b/1x1
I1020 00:07:58.459092 24762 net.cpp:477] inception_4b/output <- inception_4b/3x3
I1020 00:07:58.459097 24762 net.cpp:477] inception_4b/output <- inception_4b/5x5
I1020 00:07:58.459105 24762 net.cpp:477] inception_4b/output <- inception_4b/pool_proj
I1020 00:07:58.459110 24762 net.cpp:433] inception_4b/output -> inception_4b/output
I1020 00:07:58.459120 24762 net.cpp:155] Setting up inception_4b/output
I1020 00:07:58.459127 24762 net.cpp:163] Top shape: 1 512 20 20 (204800)
I1020 00:07:58.459132 24762 layer_factory.hpp:76] Creating layer inception_4b/output_inception_4b/output_0_split
I1020 00:07:58.459143 24762 net.cpp:110] Creating Layer inception_4b/output_inception_4b/output_0_split
I1020 00:07:58.459148 24762 net.cpp:477] inception_4b/output_inception_4b/output_0_split <- inception_4b/output
I1020 00:07:58.459156 24762 net.cpp:433] inception_4b/output_inception_4b/output_0_split -> inception_4b/output_inception_4b/output_0_split_0
I1020 00:07:58.459163 24762 net.cpp:433] inception_4b/output_inception_4b/output_0_split -> inception_4b/output_inception_4b/output_0_split_1
I1020 00:07:58.459172 24762 net.cpp:433] inception_4b/output_inception_4b/output_0_split -> inception_4b/output_inception_4b/output_0_split_2
I1020 00:07:58.459182 24762 net.cpp:433] inception_4b/output_inception_4b/output_0_split -> inception_4b/output_inception_4b/output_0_split_3
I1020 00:07:58.459189 24762 net.cpp:155] Setting up inception_4b/output_inception_4b/output_0_split
I1020 00:07:58.459197 24762 net.cpp:163] Top shape: 1 512 20 20 (204800)
I1020 00:07:58.459203 24762 net.cpp:163] Top shape: 1 512 20 20 (204800)
I1020 00:07:58.459208 24762 net.cpp:163] Top shape: 1 512 20 20 (204800)
I1020 00:07:58.459214 24762 net.cpp:163] Top shape: 1 512 20 20 (204800)
I1020 00:07:58.459219 24762 layer_factory.hpp:76] Creating layer inception_4c/1x1
I1020 00:07:58.459228 24762 net.cpp:110] Creating Layer inception_4c/1x1
I1020 00:07:58.459233 24762 net.cpp:477] inception_4c/1x1 <- inception_4b/output_inception_4b/output_0_split_0
I1020 00:07:58.459247 24762 net.cpp:433] inception_4c/1x1 -> inception_4c/1x1
I1020 00:07:58.459619 24762 net.cpp:155] Setting up inception_4c/1x1
I1020 00:07:58.459630 24762 net.cpp:163] Top shape: 1 128 20 20 (51200)
I1020 00:07:58.459640 24762 layer_factory.hpp:76] Creating layer inception_4c/relu_1x1
I1020 00:07:58.459650 24762 net.cpp:110] Creating Layer inception_4c/relu_1x1
I1020 00:07:58.459656 24762 net.cpp:477] inception_4c/relu_1x1 <- inception_4c/1x1
I1020 00:07:58.459662 24762 net.cpp:419] inception_4c/relu_1x1 -> inception_4c/1x1 (in-place)
I1020 00:07:58.459843 24762 net.cpp:155] Setting up inception_4c/relu_1x1
I1020 00:07:58.459854 24762 net.cpp:163] Top shape: 1 128 20 20 (51200)
I1020 00:07:58.459861 24762 layer_factory.hpp:76] Creating layer inception_4c/3x3_reduce
I1020 00:07:58.459871 24762 net.cpp:110] Creating Layer inception_4c/3x3_reduce
I1020 00:07:58.459875 24762 net.cpp:477] inception_4c/3x3_reduce <- inception_4b/output_inception_4b/output_0_split_1
I1020 00:07:58.459885 24762 net.cpp:433] inception_4c/3x3_reduce -> inception_4c/3x3_reduce
I1020 00:07:58.460257 24762 net.cpp:155] Setting up inception_4c/3x3_reduce
I1020 00:07:58.460268 24762 net.cpp:163] Top shape: 1 128 20 20 (51200)
I1020 00:07:58.460278 24762 layer_factory.hpp:76] Creating layer inception_4c/relu_3x3_reduce
I1020 00:07:58.460285 24762 net.cpp:110] Creating Layer inception_4c/relu_3x3_reduce
I1020 00:07:58.460291 24762 net.cpp:477] inception_4c/relu_3x3_reduce <- inception_4c/3x3_reduce
I1020 00:07:58.460305 24762 net.cpp:419] inception_4c/relu_3x3_reduce -> inception_4c/3x3_reduce (in-place)
I1020 00:07:58.460369 24762 net.cpp:155] Setting up inception_4c/relu_3x3_reduce
I1020 00:07:58.460378 24762 net.cpp:163] Top shape: 1 128 20 20 (51200)
I1020 00:07:58.460384 24762 layer_factory.hpp:76] Creating layer inception_4c/3x3
I1020 00:07:58.460394 24762 net.cpp:110] Creating Layer inception_4c/3x3
I1020 00:07:58.460400 24762 net.cpp:477] inception_4c/3x3 <- inception_4c/3x3_reduce
I1020 00:07:58.460409 24762 net.cpp:433] inception_4c/3x3 -> inception_4c/3x3
I1020 00:07:58.461519 24762 net.cpp:155] Setting up inception_4c/3x3
I1020 00:07:58.461531 24762 net.cpp:163] Top shape: 1 256 20 20 (102400)
I1020 00:07:58.461540 24762 layer_factory.hpp:76] Creating layer inception_4c/relu_3x3
I1020 00:07:58.461550 24762 net.cpp:110] Creating Layer inception_4c/relu_3x3
I1020 00:07:58.461556 24762 net.cpp:477] inception_4c/relu_3x3 <- inception_4c/3x3
I1020 00:07:58.461563 24762 net.cpp:419] inception_4c/relu_3x3 -> inception_4c/3x3 (in-place)
I1020 00:07:58.461627 24762 net.cpp:155] Setting up inception_4c/relu_3x3
I1020 00:07:58.461638 24762 net.cpp:163] Top shape: 1 256 20 20 (102400)
I1020 00:07:58.461645 24762 layer_factory.hpp:76] Creating layer inception_4c/5x5_reduce
I1020 00:07:58.461653 24762 net.cpp:110] Creating Layer inception_4c/5x5_reduce
I1020 00:07:58.461659 24762 net.cpp:477] inception_4c/5x5_reduce <- inception_4b/output_inception_4b/output_0_split_2
I1020 00:07:58.461668 24762 net.cpp:433] inception_4c/5x5_reduce -> inception_4c/5x5_reduce
I1020 00:07:58.462018 24762 net.cpp:155] Setting up inception_4c/5x5_reduce
I1020 00:07:58.462030 24762 net.cpp:163] Top shape: 1 24 20 20 (9600)
I1020 00:07:58.462039 24762 layer_factory.hpp:76] Creating layer inception_4c/relu_5x5_reduce
I1020 00:07:58.462055 24762 net.cpp:110] Creating Layer inception_4c/relu_5x5_reduce
I1020 00:07:58.462062 24762 net.cpp:477] inception_4c/relu_5x5_reduce <- inception_4c/5x5_reduce
I1020 00:07:58.462069 24762 net.cpp:419] inception_4c/relu_5x5_reduce -> inception_4c/5x5_reduce (in-place)
I1020 00:07:58.462251 24762 net.cpp:155] Setting up inception_4c/relu_5x5_reduce
I1020 00:07:58.462263 24762 net.cpp:163] Top shape: 1 24 20 20 (9600)
I1020 00:07:58.462270 24762 layer_factory.hpp:76] Creating layer inception_4c/5x5
I1020 00:07:58.462280 24762 net.cpp:110] Creating Layer inception_4c/5x5
I1020 00:07:58.462286 24762 net.cpp:477] inception_4c/5x5 <- inception_4c/5x5_reduce
I1020 00:07:58.462302 24762 net.cpp:433] inception_4c/5x5 -> inception_4c/5x5
I1020 00:07:58.462671 24762 net.cpp:155] Setting up inception_4c/5x5
I1020 00:07:58.462682 24762 net.cpp:163] Top shape: 1 64 20 20 (25600)
I1020 00:07:58.462692 24762 layer_factory.hpp:76] Creating layer inception_4c/relu_5x5
I1020 00:07:58.462699 24762 net.cpp:110] Creating Layer inception_4c/relu_5x5
I1020 00:07:58.462705 24762 net.cpp:477] inception_4c/relu_5x5 <- inception_4c/5x5
I1020 00:07:58.462716 24762 net.cpp:419] inception_4c/relu_5x5 -> inception_4c/5x5 (in-place)
I1020 00:07:58.462782 24762 net.cpp:155] Setting up inception_4c/relu_5x5
I1020 00:07:58.462792 24762 net.cpp:163] Top shape: 1 64 20 20 (25600)
I1020 00:07:58.462798 24762 layer_factory.hpp:76] Creating layer inception_4c/pool
I1020 00:07:58.462805 24762 layer_factory.cpp:60] CUDNN does not support padding or multiple tops. Using Caffe's own pooling layer.
I1020 00:07:58.462811 24762 net.cpp:110] Creating Layer inception_4c/pool
I1020 00:07:58.462817 24762 net.cpp:477] inception_4c/pool <- inception_4b/output_inception_4b/output_0_split_3
I1020 00:07:58.462824 24762 net.cpp:433] inception_4c/pool -> inception_4c/pool
I1020 00:07:58.462839 24762 net.cpp:155] Setting up inception_4c/pool
I1020 00:07:58.462851 24762 net.cpp:163] Top shape: 1 512 20 20 (204800)
I1020 00:07:58.462855 24762 layer_factory.hpp:76] Creating layer inception_4c/pool_proj
I1020 00:07:58.462864 24762 net.cpp:110] Creating Layer inception_4c/pool_proj
I1020 00:07:58.462870 24762 net.cpp:477] inception_4c/pool_proj <- inception_4c/pool
I1020 00:07:58.462877 24762 net.cpp:433] inception_4c/pool_proj -> inception_4c/pool_proj
I1020 00:07:58.463765 24762 net.cpp:155] Setting up inception_4c/pool_proj
I1020 00:07:58.463780 24762 net.cpp:163] Top shape: 1 64 20 20 (25600)
I1020 00:07:58.463799 24762 layer_factory.hpp:76] Creating layer inception_4c/relu_pool_proj
I1020 00:07:58.463809 24762 net.cpp:110] Creating Layer inception_4c/relu_pool_proj
I1020 00:07:58.463815 24762 net.cpp:477] inception_4c/relu_pool_proj <- inception_4c/pool_proj
I1020 00:07:58.463822 24762 net.cpp:419] inception_4c/relu_pool_proj -> inception_4c/pool_proj (in-place)
I1020 00:07:58.463883 24762 net.cpp:155] Setting up inception_4c/relu_pool_proj
I1020 00:07:58.463893 24762 net.cpp:163] Top shape: 1 64 20 20 (25600)
I1020 00:07:58.463901 24762 layer_factory.hpp:76] Creating layer inception_4c/output
I1020 00:07:58.463909 24762 net.cpp:110] Creating Layer inception_4c/output
I1020 00:07:58.463915 24762 net.cpp:477] inception_4c/output <- inception_4c/1x1
I1020 00:07:58.463922 24762 net.cpp:477] inception_4c/output <- inception_4c/3x3
I1020 00:07:58.463927 24762 net.cpp:477] inception_4c/output <- inception_4c/5x5
I1020 00:07:58.463933 24762 net.cpp:477] inception_4c/output <- inception_4c/pool_proj
I1020 00:07:58.463940 24762 net.cpp:433] inception_4c/output -> inception_4c/output
I1020 00:07:58.463949 24762 net.cpp:155] Setting up inception_4c/output
I1020 00:07:58.463956 24762 net.cpp:163] Top shape: 1 512 20 20 (204800)
I1020 00:07:58.463961 24762 layer_factory.hpp:76] Creating layer inception_4c/output_inception_4c/output_0_split
I1020 00:07:58.463969 24762 net.cpp:110] Creating Layer inception_4c/output_inception_4c/output_0_split
I1020 00:07:58.463975 24762 net.cpp:477] inception_4c/output_inception_4c/output_0_split <- inception_4c/output
I1020 00:07:58.463984 24762 net.cpp:433] inception_4c/output_inception_4c/output_0_split -> inception_4c/output_inception_4c/output_0_split_0
I1020 00:07:58.463992 24762 net.cpp:433] inception_4c/output_inception_4c/output_0_split -> inception_4c/output_inception_4c/output_0_split_1
I1020 00:07:58.464000 24762 net.cpp:433] inception_4c/output_inception_4c/output_0_split -> inception_4c/output_inception_4c/output_0_split_2
I1020 00:07:58.464009 24762 net.cpp:433] inception_4c/output_inception_4c/output_0_split -> inception_4c/output_inception_4c/output_0_split_3
I1020 00:07:58.464016 24762 net.cpp:155] Setting up inception_4c/output_inception_4c/output_0_split
I1020 00:07:58.464026 24762 net.cpp:163] Top shape: 1 512 20 20 (204800)
I1020 00:07:58.464037 24762 net.cpp:163] Top shape: 1 512 20 20 (204800)
I1020 00:07:58.464043 24762 net.cpp:163] Top shape: 1 512 20 20 (204800)
I1020 00:07:58.464049 24762 net.cpp:163] Top shape: 1 512 20 20 (204800)
I1020 00:07:58.464054 24762 layer_factory.hpp:76] Creating layer inception_4d/1x1
I1020 00:07:58.464062 24762 net.cpp:110] Creating Layer inception_4d/1x1
I1020 00:07:58.464068 24762 net.cpp:477] inception_4d/1x1 <- inception_4c/output_inception_4c/output_0_split_0
I1020 00:07:58.464077 24762 net.cpp:433] inception_4d/1x1 -> inception_4d/1x1
I1020 00:07:58.464450 24762 net.cpp:155] Setting up inception_4d/1x1
I1020 00:07:58.464463 24762 net.cpp:163] Top shape: 1 112 20 20 (44800)
I1020 00:07:58.464471 24762 layer_factory.hpp:76] Creating layer inception_4d/relu_1x1
I1020 00:07:58.464479 24762 net.cpp:110] Creating Layer inception_4d/relu_1x1
I1020 00:07:58.464485 24762 net.cpp:477] inception_4d/relu_1x1 <- inception_4d/1x1
I1020 00:07:58.464494 24762 net.cpp:419] inception_4d/relu_1x1 -> inception_4d/1x1 (in-place)
I1020 00:07:58.464555 24762 net.cpp:155] Setting up inception_4d/relu_1x1
I1020 00:07:58.464563 24762 net.cpp:163] Top shape: 1 112 20 20 (44800)
I1020 00:07:58.464570 24762 layer_factory.hpp:76] Creating layer inception_4d/3x3_reduce
I1020 00:07:58.464579 24762 net.cpp:110] Creating Layer inception_4d/3x3_reduce
I1020 00:07:58.464586 24762 net.cpp:477] inception_4d/3x3_reduce <- inception_4c/output_inception_4c/output_0_split_1
I1020 00:07:58.464593 24762 net.cpp:433] inception_4d/3x3_reduce -> inception_4d/3x3_reduce
I1020 00:07:58.464979 24762 net.cpp:155] Setting up inception_4d/3x3_reduce
I1020 00:07:58.464992 24762 net.cpp:163] Top shape: 1 144 20 20 (57600)
I1020 00:07:58.465000 24762 layer_factory.hpp:76] Creating layer inception_4d/relu_3x3_reduce
I1020 00:07:58.465010 24762 net.cpp:110] Creating Layer inception_4d/relu_3x3_reduce
I1020 00:07:58.465016 24762 net.cpp:477] inception_4d/relu_3x3_reduce <- inception_4d/3x3_reduce
I1020 00:07:58.465023 24762 net.cpp:419] inception_4d/relu_3x3_reduce -> inception_4d/3x3_reduce (in-place)
I1020 00:07:58.465209 24762 net.cpp:155] Setting up inception_4d/relu_3x3_reduce
I1020 00:07:58.465221 24762 net.cpp:163] Top shape: 1 144 20 20 (57600)
I1020 00:07:58.465227 24762 layer_factory.hpp:76] Creating layer inception_4d/3x3
I1020 00:07:58.465237 24762 net.cpp:110] Creating Layer inception_4d/3x3
I1020 00:07:58.465243 24762 net.cpp:477] inception_4d/3x3 <- inception_4d/3x3_reduce
I1020 00:07:58.465253 24762 net.cpp:433] inception_4d/3x3 -> inception_4d/3x3
I1020 00:07:58.466495 24762 net.cpp:155] Setting up inception_4d/3x3
I1020 00:07:58.466511 24762 net.cpp:163] Top shape: 1 288 20 20 (115200)
I1020 00:07:58.466521 24762 layer_factory.hpp:76] Creating layer inception_4d/relu_3x3
I1020 00:07:58.466528 24762 net.cpp:110] Creating Layer inception_4d/relu_3x3
I1020 00:07:58.466534 24762 net.cpp:477] inception_4d/relu_3x3 <- inception_4d/3x3
I1020 00:07:58.466543 24762 net.cpp:419] inception_4d/relu_3x3 -> inception_4d/3x3 (in-place)
I1020 00:07:58.466605 24762 net.cpp:155] Setting up inception_4d/relu_3x3
I1020 00:07:58.466614 24762 net.cpp:163] Top shape: 1 288 20 20 (115200)
I1020 00:07:58.466620 24762 layer_factory.hpp:76] Creating layer inception_4d/5x5_reduce
I1020 00:07:58.466630 24762 net.cpp:110] Creating Layer inception_4d/5x5_reduce
I1020 00:07:58.466636 24762 net.cpp:477] inception_4d/5x5_reduce <- inception_4c/output_inception_4c/output_0_split_2
I1020 00:07:58.466645 24762 net.cpp:433] inception_4d/5x5_reduce -> inception_4d/5x5_reduce
I1020 00:07:58.467005 24762 net.cpp:155] Setting up inception_4d/5x5_reduce
I1020 00:07:58.467017 24762 net.cpp:163] Top shape: 1 32 20 20 (12800)
I1020 00:07:58.467026 24762 layer_factory.hpp:76] Creating layer inception_4d/relu_5x5_reduce
I1020 00:07:58.467037 24762 net.cpp:110] Creating Layer inception_4d/relu_5x5_reduce
I1020 00:07:58.467043 24762 net.cpp:477] inception_4d/relu_5x5_reduce <- inception_4d/5x5_reduce
I1020 00:07:58.467051 24762 net.cpp:419] inception_4d/relu_5x5_reduce -> inception_4d/5x5_reduce (in-place)
I1020 00:07:58.467123 24762 net.cpp:155] Setting up inception_4d/relu_5x5_reduce
I1020 00:07:58.467133 24762 net.cpp:163] Top shape: 1 32 20 20 (12800)
I1020 00:07:58.467139 24762 layer_factory.hpp:76] Creating layer inception_4d/5x5
I1020 00:07:58.467149 24762 net.cpp:110] Creating Layer inception_4d/5x5
I1020 00:07:58.467155 24762 net.cpp:477] inception_4d/5x5 <- inception_4d/5x5_reduce
I1020 00:07:58.467164 24762 net.cpp:433] inception_4d/5x5 -> inception_4d/5x5
I1020 00:07:58.467532 24762 net.cpp:155] Setting up inception_4d/5x5
I1020 00:07:58.467545 24762 net.cpp:163] Top shape: 1 64 20 20 (25600)
I1020 00:07:58.467553 24762 layer_factory.hpp:76] Creating layer inception_4d/relu_5x5
I1020 00:07:58.467561 24762 net.cpp:110] Creating Layer inception_4d/relu_5x5
I1020 00:07:58.467567 24762 net.cpp:477] inception_4d/relu_5x5 <- inception_4d/5x5
I1020 00:07:58.467576 24762 net.cpp:419] inception_4d/relu_5x5 -> inception_4d/5x5 (in-place)
I1020 00:07:58.467639 24762 net.cpp:155] Setting up inception_4d/relu_5x5
I1020 00:07:58.467649 24762 net.cpp:163] Top shape: 1 64 20 20 (25600)
I1020 00:07:58.467655 24762 layer_factory.hpp:76] Creating layer inception_4d/pool
I1020 00:07:58.467661 24762 layer_factory.cpp:60] CUDNN does not support padding or multiple tops. Using Caffe's own pooling layer.
I1020 00:07:58.467669 24762 net.cpp:110] Creating Layer inception_4d/pool
I1020 00:07:58.467674 24762 net.cpp:477] inception_4d/pool <- inception_4c/output_inception_4c/output_0_split_3
I1020 00:07:58.467681 24762 net.cpp:433] inception_4d/pool -> inception_4d/pool
I1020 00:07:58.467691 24762 net.cpp:155] Setting up inception_4d/pool
I1020 00:07:58.467699 24762 net.cpp:163] Top shape: 1 512 20 20 (204800)
I1020 00:07:58.467703 24762 layer_factory.hpp:76] Creating layer inception_4d/pool_proj
I1020 00:07:58.467713 24762 net.cpp:110] Creating Layer inception_4d/pool_proj
I1020 00:07:58.467720 24762 net.cpp:477] inception_4d/pool_proj <- inception_4d/pool
I1020 00:07:58.467728 24762 net.cpp:433] inception_4d/pool_proj -> inception_4d/pool_proj
I1020 00:07:58.468093 24762 net.cpp:155] Setting up inception_4d/pool_proj
I1020 00:07:58.468106 24762 net.cpp:163] Top shape: 1 64 20 20 (25600)
I1020 00:07:58.468114 24762 layer_factory.hpp:76] Creating layer inception_4d/relu_pool_proj
I1020 00:07:58.468122 24762 net.cpp:110] Creating Layer inception_4d/relu_pool_proj
I1020 00:07:58.468128 24762 net.cpp:477] inception_4d/relu_pool_proj <- inception_4d/pool_proj
I1020 00:07:58.468137 24762 net.cpp:419] inception_4d/relu_pool_proj -> inception_4d/pool_proj (in-place)
I1020 00:07:58.468319 24762 net.cpp:155] Setting up inception_4d/relu_pool_proj
I1020 00:07:58.468333 24762 net.cpp:163] Top shape: 1 64 20 20 (25600)
I1020 00:07:58.468340 24762 layer_factory.hpp:76] Creating layer inception_4d/output
I1020 00:07:58.468348 24762 net.cpp:110] Creating Layer inception_4d/output
I1020 00:07:58.468354 24762 net.cpp:477] inception_4d/output <- inception_4d/1x1
I1020 00:07:58.468360 24762 net.cpp:477] inception_4d/output <- inception_4d/3x3
I1020 00:07:58.468366 24762 net.cpp:477] inception_4d/output <- inception_4d/5x5
I1020 00:07:58.468372 24762 net.cpp:477] inception_4d/output <- inception_4d/pool_proj
I1020 00:07:58.468382 24762 net.cpp:433] inception_4d/output -> inception_4d/output
I1020 00:07:58.468392 24762 net.cpp:155] Setting up inception_4d/output
I1020 00:07:58.468400 24762 net.cpp:163] Top shape: 1 528 20 20 (211200)
I1020 00:07:58.468405 24762 layer_factory.hpp:76] Creating layer inception_4d/output_inception_4d/output_0_split
I1020 00:07:58.468413 24762 net.cpp:110] Creating Layer inception_4d/output_inception_4d/output_0_split
I1020 00:07:58.468420 24762 net.cpp:477] inception_4d/output_inception_4d/output_0_split <- inception_4d/output
I1020 00:07:58.468426 24762 net.cpp:433] inception_4d/output_inception_4d/output_0_split -> inception_4d/output_inception_4d/output_0_split_0
I1020 00:07:58.468435 24762 net.cpp:433] inception_4d/output_inception_4d/output_0_split -> inception_4d/output_inception_4d/output_0_split_1
I1020 00:07:58.468448 24762 net.cpp:433] inception_4d/output_inception_4d/output_0_split -> inception_4d/output_inception_4d/output_0_split_2
I1020 00:07:58.468458 24762 net.cpp:433] inception_4d/output_inception_4d/output_0_split -> inception_4d/output_inception_4d/output_0_split_3
I1020 00:07:58.468467 24762 net.cpp:155] Setting up inception_4d/output_inception_4d/output_0_split
I1020 00:07:58.468474 24762 net.cpp:163] Top shape: 1 528 20 20 (211200)
I1020 00:07:58.468480 24762 net.cpp:163] Top shape: 1 528 20 20 (211200)
I1020 00:07:58.468485 24762 net.cpp:163] Top shape: 1 528 20 20 (211200)
I1020 00:07:58.468492 24762 net.cpp:163] Top shape: 1 528 20 20 (211200)
I1020 00:07:58.468497 24762 layer_factory.hpp:76] Creating layer inception_4e/1x1
I1020 00:07:58.468507 24762 net.cpp:110] Creating Layer inception_4e/1x1
I1020 00:07:58.468513 24762 net.cpp:477] inception_4e/1x1 <- inception_4d/output_inception_4d/output_0_split_0
I1020 00:07:58.468519 24762 net.cpp:433] inception_4e/1x1 -> inception_4e/1x1
I1020 00:07:58.469478 24762 net.cpp:155] Setting up inception_4e/1x1
I1020 00:07:58.469491 24762 net.cpp:163] Top shape: 1 256 20 20 (102400)
I1020 00:07:58.469501 24762 layer_factory.hpp:76] Creating layer inception_4e/relu_1x1
I1020 00:07:58.469511 24762 net.cpp:110] Creating Layer inception_4e/relu_1x1
I1020 00:07:58.469516 24762 net.cpp:477] inception_4e/relu_1x1 <- inception_4e/1x1
I1020 00:07:58.469523 24762 net.cpp:419] inception_4e/relu_1x1 -> inception_4e/1x1 (in-place)
I1020 00:07:58.469591 24762 net.cpp:155] Setting up inception_4e/relu_1x1
I1020 00:07:58.469601 24762 net.cpp:163] Top shape: 1 256 20 20 (102400)
I1020 00:07:58.469607 24762 layer_factory.hpp:76] Creating layer inception_4e/3x3_reduce
I1020 00:07:58.469615 24762 net.cpp:110] Creating Layer inception_4e/3x3_reduce
I1020 00:07:58.469624 24762 net.cpp:477] inception_4e/3x3_reduce <- inception_4d/output_inception_4d/output_0_split_1
I1020 00:07:58.469631 24762 net.cpp:433] inception_4e/3x3_reduce -> inception_4e/3x3_reduce
I1020 00:07:58.470018 24762 net.cpp:155] Setting up inception_4e/3x3_reduce
I1020 00:07:58.470031 24762 net.cpp:163] Top shape: 1 160 20 20 (64000)
I1020 00:07:58.470039 24762 layer_factory.hpp:76] Creating layer inception_4e/relu_3x3_reduce
I1020 00:07:58.470057 24762 net.cpp:110] Creating Layer inception_4e/relu_3x3_reduce
I1020 00:07:58.470063 24762 net.cpp:477] inception_4e/relu_3x3_reduce <- inception_4e/3x3_reduce
I1020 00:07:58.470072 24762 net.cpp:419] inception_4e/relu_3x3_reduce -> inception_4e/3x3_reduce (in-place)
I1020 00:07:58.470134 24762 net.cpp:155] Setting up inception_4e/relu_3x3_reduce
I1020 00:07:58.470144 24762 net.cpp:163] Top shape: 1 160 20 20 (64000)
I1020 00:07:58.470150 24762 layer_factory.hpp:76] Creating layer inception_4e/3x3
I1020 00:07:58.470160 24762 net.cpp:110] Creating Layer inception_4e/3x3
I1020 00:07:58.470166 24762 net.cpp:477] inception_4e/3x3 <- inception_4e/3x3_reduce
I1020 00:07:58.470175 24762 net.cpp:433] inception_4e/3x3 -> inception_4e/3x3
I1020 00:07:58.471560 24762 net.cpp:155] Setting up inception_4e/3x3
I1020 00:07:58.471572 24762 net.cpp:163] Top shape: 1 320 20 20 (128000)
I1020 00:07:58.471581 24762 layer_factory.hpp:76] Creating layer inception_4e/relu_3x3
I1020 00:07:58.471591 24762 net.cpp:110] Creating Layer inception_4e/relu_3x3
I1020 00:07:58.471597 24762 net.cpp:477] inception_4e/relu_3x3 <- inception_4e/3x3
I1020 00:07:58.471604 24762 net.cpp:419] inception_4e/relu_3x3 -> inception_4e/3x3 (in-place)
I1020 00:07:58.471667 24762 net.cpp:155] Setting up inception_4e/relu_3x3
I1020 00:07:58.471676 24762 net.cpp:163] Top shape: 1 320 20 20 (128000)
I1020 00:07:58.471683 24762 layer_factory.hpp:76] Creating layer inception_4e/5x5_reduce
I1020 00:07:58.471693 24762 net.cpp:110] Creating Layer inception_4e/5x5_reduce
I1020 00:07:58.471698 24762 net.cpp:477] inception_4e/5x5_reduce <- inception_4d/output_inception_4d/output_0_split_2
I1020 00:07:58.471707 24762 net.cpp:433] inception_4e/5x5_reduce -> inception_4e/5x5_reduce
I1020 00:07:58.472075 24762 net.cpp:155] Setting up inception_4e/5x5_reduce
I1020 00:07:58.472092 24762 net.cpp:163] Top shape: 1 32 20 20 (12800)
I1020 00:07:58.472101 24762 layer_factory.hpp:76] Creating layer inception_4e/relu_5x5_reduce
I1020 00:07:58.472110 24762 net.cpp:110] Creating Layer inception_4e/relu_5x5_reduce
I1020 00:07:58.472115 24762 net.cpp:477] inception_4e/relu_5x5_reduce <- inception_4e/5x5_reduce
I1020 00:07:58.472121 24762 net.cpp:419] inception_4e/relu_5x5_reduce -> inception_4e/5x5_reduce (in-place)
I1020 00:07:58.472306 24762 net.cpp:155] Setting up inception_4e/relu_5x5_reduce
I1020 00:07:58.472317 24762 net.cpp:163] Top shape: 1 32 20 20 (12800)
I1020 00:07:58.472323 24762 layer_factory.hpp:76] Creating layer inception_4e/5x5
I1020 00:07:58.472334 24762 net.cpp:110] Creating Layer inception_4e/5x5
I1020 00:07:58.472340 24762 net.cpp:477] inception_4e/5x5 <- inception_4e/5x5_reduce
I1020 00:07:58.472355 24762 net.cpp:433] inception_4e/5x5 -> inception_4e/5x5
I1020 00:07:58.473269 24762 net.cpp:155] Setting up inception_4e/5x5
I1020 00:07:58.473283 24762 net.cpp:163] Top shape: 1 128 20 20 (51200)
I1020 00:07:58.473290 24762 layer_factory.hpp:76] Creating layer inception_4e/relu_5x5
I1020 00:07:58.473300 24762 net.cpp:110] Creating Layer inception_4e/relu_5x5
I1020 00:07:58.473307 24762 net.cpp:477] inception_4e/relu_5x5 <- inception_4e/5x5
I1020 00:07:58.473314 24762 net.cpp:419] inception_4e/relu_5x5 -> inception_4e/5x5 (in-place)
I1020 00:07:58.473376 24762 net.cpp:155] Setting up inception_4e/relu_5x5
I1020 00:07:58.473386 24762 net.cpp:163] Top shape: 1 128 20 20 (51200)
I1020 00:07:58.473392 24762 layer_factory.hpp:76] Creating layer inception_4e/pool
I1020 00:07:58.473398 24762 layer_factory.cpp:60] CUDNN does not support padding or multiple tops. Using Caffe's own pooling layer.
I1020 00:07:58.473407 24762 net.cpp:110] Creating Layer inception_4e/pool
I1020 00:07:58.473413 24762 net.cpp:477] inception_4e/pool <- inception_4d/output_inception_4d/output_0_split_3
I1020 00:07:58.473420 24762 net.cpp:433] inception_4e/pool -> inception_4e/pool
I1020 00:07:58.473431 24762 net.cpp:155] Setting up inception_4e/pool
I1020 00:07:58.473440 24762 net.cpp:163] Top shape: 1 528 20 20 (211200)
I1020 00:07:58.473445 24762 layer_factory.hpp:76] Creating layer inception_4e/pool_proj
I1020 00:07:58.473454 24762 net.cpp:110] Creating Layer inception_4e/pool_proj
I1020 00:07:58.473459 24762 net.cpp:477] inception_4e/pool_proj <- inception_4e/pool
I1020 00:07:58.473469 24762 net.cpp:433] inception_4e/pool_proj -> inception_4e/pool_proj
I1020 00:07:58.473841 24762 net.cpp:155] Setting up inception_4e/pool_proj
I1020 00:07:58.473853 24762 net.cpp:163] Top shape: 1 128 20 20 (51200)
I1020 00:07:58.473862 24762 layer_factory.hpp:76] Creating layer inception_4e/relu_pool_proj
I1020 00:07:58.473873 24762 net.cpp:110] Creating Layer inception_4e/relu_pool_proj
I1020 00:07:58.473880 24762 net.cpp:477] inception_4e/relu_pool_proj <- inception_4e/pool_proj
I1020 00:07:58.473886 24762 net.cpp:419] inception_4e/relu_pool_proj -> inception_4e/pool_proj (in-place)
I1020 00:07:58.473949 24762 net.cpp:155] Setting up inception_4e/relu_pool_proj
I1020 00:07:58.473959 24762 net.cpp:163] Top shape: 1 128 20 20 (51200)
I1020 00:07:58.473964 24762 layer_factory.hpp:76] Creating layer inception_4e/output
I1020 00:07:58.473973 24762 net.cpp:110] Creating Layer inception_4e/output
I1020 00:07:58.473978 24762 net.cpp:477] inception_4e/output <- inception_4e/1x1
I1020 00:07:58.473984 24762 net.cpp:477] inception_4e/output <- inception_4e/3x3
I1020 00:07:58.473990 24762 net.cpp:477] inception_4e/output <- inception_4e/5x5
I1020 00:07:58.473996 24762 net.cpp:477] inception_4e/output <- inception_4e/pool_proj
I1020 00:07:58.474005 24762 net.cpp:433] inception_4e/output -> inception_4e/output
I1020 00:07:58.474015 24762 net.cpp:155] Setting up inception_4e/output
I1020 00:07:58.474022 24762 net.cpp:163] Top shape: 1 832 20 20 (332800)
I1020 00:07:58.474027 24762 layer_factory.hpp:76] Creating layer pool4/3x3_s2
I1020 00:07:58.474035 24762 net.cpp:110] Creating Layer pool4/3x3_s2
I1020 00:07:58.474052 24762 net.cpp:477] pool4/3x3_s2 <- inception_4e/output
I1020 00:07:58.474066 24762 net.cpp:433] pool4/3x3_s2 -> pool4/3x3_s2
I1020 00:07:58.474256 24762 net.cpp:155] Setting up pool4/3x3_s2
I1020 00:07:58.474267 24762 net.cpp:163] Top shape: 1 832 10 10 (83200)
I1020 00:07:58.474273 24762 layer_factory.hpp:76] Creating layer pool4/3x3_s2_pool4/3x3_s2_0_split
I1020 00:07:58.474282 24762 net.cpp:110] Creating Layer pool4/3x3_s2_pool4/3x3_s2_0_split
I1020 00:07:58.474287 24762 net.cpp:477] pool4/3x3_s2_pool4/3x3_s2_0_split <- pool4/3x3_s2
I1020 00:07:58.474297 24762 net.cpp:433] pool4/3x3_s2_pool4/3x3_s2_0_split -> pool4/3x3_s2_pool4/3x3_s2_0_split_0
I1020 00:07:58.474305 24762 net.cpp:433] pool4/3x3_s2_pool4/3x3_s2_0_split -> pool4/3x3_s2_pool4/3x3_s2_0_split_1
I1020 00:07:58.474313 24762 net.cpp:433] pool4/3x3_s2_pool4/3x3_s2_0_split -> pool4/3x3_s2_pool4/3x3_s2_0_split_2
I1020 00:07:58.474321 24762 net.cpp:433] pool4/3x3_s2_pool4/3x3_s2_0_split -> pool4/3x3_s2_pool4/3x3_s2_0_split_3
I1020 00:07:58.474329 24762 net.cpp:155] Setting up pool4/3x3_s2_pool4/3x3_s2_0_split
I1020 00:07:58.474339 24762 net.cpp:163] Top shape: 1 832 10 10 (83200)
I1020 00:07:58.474344 24762 net.cpp:163] Top shape: 1 832 10 10 (83200)
I1020 00:07:58.474350 24762 net.cpp:163] Top shape: 1 832 10 10 (83200)
I1020 00:07:58.474356 24762 net.cpp:163] Top shape: 1 832 10 10 (83200)
I1020 00:07:58.474361 24762 layer_factory.hpp:76] Creating layer inception_5a/1x1
I1020 00:07:58.474370 24762 net.cpp:110] Creating Layer inception_5a/1x1
I1020 00:07:58.474375 24762 net.cpp:477] inception_5a/1x1 <- pool4/3x3_s2_pool4/3x3_s2_0_split_0
I1020 00:07:58.474385 24762 net.cpp:433] inception_5a/1x1 -> inception_5a/1x1
I1020 00:07:58.475365 24762 net.cpp:155] Setting up inception_5a/1x1
I1020 00:07:58.475378 24762 net.cpp:163] Top shape: 1 256 10 10 (25600)
I1020 00:07:58.475388 24762 layer_factory.hpp:76] Creating layer inception_5a/relu_1x1
I1020 00:07:58.475396 24762 net.cpp:110] Creating Layer inception_5a/relu_1x1
I1020 00:07:58.475402 24762 net.cpp:477] inception_5a/relu_1x1 <- inception_5a/1x1
I1020 00:07:58.475409 24762 net.cpp:419] inception_5a/relu_1x1 -> inception_5a/1x1 (in-place)
I1020 00:07:58.475471 24762 net.cpp:155] Setting up inception_5a/relu_1x1
I1020 00:07:58.475482 24762 net.cpp:163] Top shape: 1 256 10 10 (25600)
I1020 00:07:58.475498 24762 layer_factory.hpp:76] Creating layer inception_5a/3x3_reduce
I1020 00:07:58.475507 24762 net.cpp:110] Creating Layer inception_5a/3x3_reduce
I1020 00:07:58.475512 24762 net.cpp:477] inception_5a/3x3_reduce <- pool4/3x3_s2_pool4/3x3_s2_0_split_1
I1020 00:07:58.475520 24762 net.cpp:433] inception_5a/3x3_reduce -> inception_5a/3x3_reduce
I1020 00:07:58.476456 24762 net.cpp:155] Setting up inception_5a/3x3_reduce
I1020 00:07:58.476469 24762 net.cpp:163] Top shape: 1 160 10 10 (16000)
I1020 00:07:58.476479 24762 layer_factory.hpp:76] Creating layer inception_5a/relu_3x3_reduce
I1020 00:07:58.476486 24762 net.cpp:110] Creating Layer inception_5a/relu_3x3_reduce
I1020 00:07:58.476492 24762 net.cpp:477] inception_5a/relu_3x3_reduce <- inception_5a/3x3_reduce
I1020 00:07:58.476498 24762 net.cpp:419] inception_5a/relu_3x3_reduce -> inception_5a/3x3_reduce (in-place)
I1020 00:07:58.476562 24762 net.cpp:155] Setting up inception_5a/relu_3x3_reduce
I1020 00:07:58.476572 24762 net.cpp:163] Top shape: 1 160 10 10 (16000)
I1020 00:07:58.476577 24762 layer_factory.hpp:76] Creating layer inception_5a/3x3
I1020 00:07:58.476588 24762 net.cpp:110] Creating Layer inception_5a/3x3
I1020 00:07:58.476594 24762 net.cpp:477] inception_5a/3x3 <- inception_5a/3x3_reduce
I1020 00:07:58.476601 24762 net.cpp:433] inception_5a/3x3 -> inception_5a/3x3
I1020 00:07:58.478010 24762 net.cpp:155] Setting up inception_5a/3x3
I1020 00:07:58.478025 24762 net.cpp:163] Top shape: 1 320 10 10 (32000)
I1020 00:07:58.478034 24762 layer_factory.hpp:76] Creating layer inception_5a/relu_3x3
I1020 00:07:58.478049 24762 net.cpp:110] Creating Layer inception_5a/relu_3x3
I1020 00:07:58.478060 24762 net.cpp:477] inception_5a/relu_3x3 <- inception_5a/3x3
I1020 00:07:58.478071 24762 net.cpp:419] inception_5a/relu_3x3 -> inception_5a/3x3 (in-place)
I1020 00:07:58.478135 24762 net.cpp:155] Setting up inception_5a/relu_3x3
I1020 00:07:58.478145 24762 net.cpp:163] Top shape: 1 320 10 10 (32000)
I1020 00:07:58.478152 24762 layer_factory.hpp:76] Creating layer inception_5a/5x5_reduce
I1020 00:07:58.478159 24762 net.cpp:110] Creating Layer inception_5a/5x5_reduce
I1020 00:07:58.478165 24762 net.cpp:477] inception_5a/5x5_reduce <- pool4/3x3_s2_pool4/3x3_s2_0_split_2
I1020 00:07:58.478175 24762 net.cpp:433] inception_5a/5x5_reduce -> inception_5a/5x5_reduce
I1020 00:07:58.478541 24762 net.cpp:155] Setting up inception_5a/5x5_reduce
I1020 00:07:58.478554 24762 net.cpp:163] Top shape: 1 32 10 10 (3200)
I1020 00:07:58.478564 24762 layer_factory.hpp:76] Creating layer inception_5a/relu_5x5_reduce
I1020 00:07:58.478579 24762 net.cpp:110] Creating Layer inception_5a/relu_5x5_reduce
I1020 00:07:58.478587 24762 net.cpp:477] inception_5a/relu_5x5_reduce <- inception_5a/5x5_reduce
I1020 00:07:58.478595 24762 net.cpp:419] inception_5a/relu_5x5_reduce -> inception_5a/5x5_reduce (in-place)
I1020 00:07:58.478777 24762 net.cpp:155] Setting up inception_5a/relu_5x5_reduce
I1020 00:07:58.478790 24762 net.cpp:163] Top shape: 1 32 10 10 (3200)
I1020 00:07:58.478796 24762 layer_factory.hpp:76] Creating layer inception_5a/5x5
I1020 00:07:58.478806 24762 net.cpp:110] Creating Layer inception_5a/5x5
I1020 00:07:58.478812 24762 net.cpp:477] inception_5a/5x5 <- inception_5a/5x5_reduce
I1020 00:07:58.478819 24762 net.cpp:433] inception_5a/5x5 -> inception_5a/5x5
I1020 00:07:58.479218 24762 net.cpp:155] Setting up inception_5a/5x5
I1020 00:07:58.479230 24762 net.cpp:163] Top shape: 1 128 10 10 (12800)
I1020 00:07:58.479239 24762 layer_factory.hpp:76] Creating layer inception_5a/relu_5x5
I1020 00:07:58.479248 24762 net.cpp:110] Creating Layer inception_5a/relu_5x5
I1020 00:07:58.479254 24762 net.cpp:477] inception_5a/relu_5x5 <- inception_5a/5x5
I1020 00:07:58.479262 24762 net.cpp:419] inception_5a/relu_5x5 -> inception_5a/5x5 (in-place)
I1020 00:07:58.479324 24762 net.cpp:155] Setting up inception_5a/relu_5x5
I1020 00:07:58.479334 24762 net.cpp:163] Top shape: 1 128 10 10 (12800)
I1020 00:07:58.479339 24762 layer_factory.hpp:76] Creating layer inception_5a/pool
I1020 00:07:58.479346 24762 layer_factory.cpp:60] CUDNN does not support padding or multiple tops. Using Caffe's own pooling layer.
I1020 00:07:58.479356 24762 net.cpp:110] Creating Layer inception_5a/pool
I1020 00:07:58.479362 24762 net.cpp:477] inception_5a/pool <- pool4/3x3_s2_pool4/3x3_s2_0_split_3
I1020 00:07:58.479368 24762 net.cpp:433] inception_5a/pool -> inception_5a/pool
I1020 00:07:58.479380 24762 net.cpp:155] Setting up inception_5a/pool
I1020 00:07:58.479387 24762 net.cpp:163] Top shape: 1 832 10 10 (83200)
I1020 00:07:58.479393 24762 layer_factory.hpp:76] Creating layer inception_5a/pool_proj
I1020 00:07:58.479401 24762 net.cpp:110] Creating Layer inception_5a/pool_proj
I1020 00:07:58.479406 24762 net.cpp:477] inception_5a/pool_proj <- inception_5a/pool
I1020 00:07:58.479416 24762 net.cpp:433] inception_5a/pool_proj -> inception_5a/pool_proj
I1020 00:07:58.480351 24762 net.cpp:155] Setting up inception_5a/pool_proj
I1020 00:07:58.480366 24762 net.cpp:163] Top shape: 1 128 10 10 (12800)
I1020 00:07:58.480376 24762 layer_factory.hpp:76] Creating layer inception_5a/relu_pool_proj
I1020 00:07:58.480396 24762 net.cpp:110] Creating Layer inception_5a/relu_pool_proj
I1020 00:07:58.480402 24762 net.cpp:477] inception_5a/relu_pool_proj <- inception_5a/pool_proj
I1020 00:07:58.480409 24762 net.cpp:419] inception_5a/relu_pool_proj -> inception_5a/pool_proj (in-place)
I1020 00:07:58.480469 24762 net.cpp:155] Setting up inception_5a/relu_pool_proj
I1020 00:07:58.480479 24762 net.cpp:163] Top shape: 1 128 10 10 (12800)
I1020 00:07:58.480485 24762 layer_factory.hpp:76] Creating layer inception_5a/output
I1020 00:07:58.480495 24762 net.cpp:110] Creating Layer inception_5a/output
I1020 00:07:58.480501 24762 net.cpp:477] inception_5a/output <- inception_5a/1x1
I1020 00:07:58.480511 24762 net.cpp:477] inception_5a/output <- inception_5a/3x3
I1020 00:07:58.480518 24762 net.cpp:477] inception_5a/output <- inception_5a/5x5
I1020 00:07:58.480525 24762 net.cpp:477] inception_5a/output <- inception_5a/pool_proj
I1020 00:07:58.480530 24762 net.cpp:433] inception_5a/output -> inception_5a/output
I1020 00:07:58.480540 24762 net.cpp:155] Setting up inception_5a/output
I1020 00:07:58.480547 24762 net.cpp:163] Top shape: 1 832 10 10 (83200)
I1020 00:07:58.480552 24762 layer_factory.hpp:76] Creating layer inception_5a/output_inception_5a/output_0_split
I1020 00:07:58.480561 24762 net.cpp:110] Creating Layer inception_5a/output_inception_5a/output_0_split
I1020 00:07:58.480566 24762 net.cpp:477] inception_5a/output_inception_5a/output_0_split <- inception_5a/output
I1020 00:07:58.480574 24762 net.cpp:433] inception_5a/output_inception_5a/output_0_split -> inception_5a/output_inception_5a/output_0_split_0
I1020 00:07:58.480583 24762 net.cpp:433] inception_5a/output_inception_5a/output_0_split -> inception_5a/output_inception_5a/output_0_split_1
I1020 00:07:58.480592 24762 net.cpp:433] inception_5a/output_inception_5a/output_0_split -> inception_5a/output_inception_5a/output_0_split_2
I1020 00:07:58.480599 24762 net.cpp:433] inception_5a/output_inception_5a/output_0_split -> inception_5a/output_inception_5a/output_0_split_3
I1020 00:07:58.480607 24762 net.cpp:155] Setting up inception_5a/output_inception_5a/output_0_split
I1020 00:07:58.480614 24762 net.cpp:163] Top shape: 1 832 10 10 (83200)
I1020 00:07:58.480620 24762 net.cpp:163] Top shape: 1 832 10 10 (83200)
I1020 00:07:58.480625 24762 net.cpp:163] Top shape: 1 832 10 10 (83200)
I1020 00:07:58.480631 24762 net.cpp:163] Top shape: 1 832 10 10 (83200)
I1020 00:07:58.480638 24762 layer_factory.hpp:76] Creating layer inception_5b/1x1
I1020 00:07:58.480646 24762 net.cpp:110] Creating Layer inception_5b/1x1
I1020 00:07:58.480653 24762 net.cpp:477] inception_5b/1x1 <- inception_5a/output_inception_5a/output_0_split_0
I1020 00:07:58.480659 24762 net.cpp:433] inception_5b/1x1 -> inception_5b/1x1
I1020 00:07:58.481797 24762 net.cpp:155] Setting up inception_5b/1x1
I1020 00:07:58.481811 24762 net.cpp:163] Top shape: 1 384 10 10 (38400)
I1020 00:07:58.481819 24762 layer_factory.hpp:76] Creating layer inception_5b/relu_1x1
I1020 00:07:58.481827 24762 net.cpp:110] Creating Layer inception_5b/relu_1x1
I1020 00:07:58.481833 24762 net.cpp:477] inception_5b/relu_1x1 <- inception_5b/1x1
I1020 00:07:58.481840 24762 net.cpp:419] inception_5b/relu_1x1 -> inception_5b/1x1 (in-place)
I1020 00:07:58.481904 24762 net.cpp:155] Setting up inception_5b/relu_1x1
I1020 00:07:58.481914 24762 net.cpp:163] Top shape: 1 384 10 10 (38400)
I1020 00:07:58.481920 24762 layer_factory.hpp:76] Creating layer inception_5b/3x3_reduce
I1020 00:07:58.481930 24762 net.cpp:110] Creating Layer inception_5b/3x3_reduce
I1020 00:07:58.481935 24762 net.cpp:477] inception_5b/3x3_reduce <- inception_5a/output_inception_5a/output_0_split_1
I1020 00:07:58.481942 24762 net.cpp:433] inception_5b/3x3_reduce -> inception_5b/3x3_reduce
I1020 00:07:58.482969 24762 net.cpp:155] Setting up inception_5b/3x3_reduce
I1020 00:07:58.482985 24762 net.cpp:163] Top shape: 1 192 10 10 (19200)
I1020 00:07:58.482995 24762 layer_factory.hpp:76] Creating layer inception_5b/relu_3x3_reduce
I1020 00:07:58.483003 24762 net.cpp:110] Creating Layer inception_5b/relu_3x3_reduce
I1020 00:07:58.483010 24762 net.cpp:477] inception_5b/relu_3x3_reduce <- inception_5b/3x3_reduce
I1020 00:07:58.483016 24762 net.cpp:419] inception_5b/relu_3x3_reduce -> inception_5b/3x3_reduce (in-place)
I1020 00:07:58.483196 24762 net.cpp:155] Setting up inception_5b/relu_3x3_reduce
I1020 00:07:58.483208 24762 net.cpp:163] Top shape: 1 192 10 10 (19200)
I1020 00:07:58.483214 24762 layer_factory.hpp:76] Creating layer inception_5b/3x3
I1020 00:07:58.483223 24762 net.cpp:110] Creating Layer inception_5b/3x3
I1020 00:07:58.483229 24762 net.cpp:477] inception_5b/3x3 <- inception_5b/3x3_reduce
I1020 00:07:58.483237 24762 net.cpp:433] inception_5b/3x3 -> inception_5b/3x3
I1020 00:07:58.485036 24762 net.cpp:155] Setting up inception_5b/3x3
I1020 00:07:58.485049 24762 net.cpp:163] Top shape: 1 384 10 10 (38400)
I1020 00:07:58.485059 24762 layer_factory.hpp:76] Creating layer inception_5b/relu_3x3
I1020 00:07:58.485069 24762 net.cpp:110] Creating Layer inception_5b/relu_3x3
I1020 00:07:58.485074 24762 net.cpp:477] inception_5b/relu_3x3 <- inception_5b/3x3
I1020 00:07:58.485081 24762 net.cpp:419] inception_5b/relu_3x3 -> inception_5b/3x3 (in-place)
I1020 00:07:58.485146 24762 net.cpp:155] Setting up inception_5b/relu_3x3
I1020 00:07:58.485154 24762 net.cpp:163] Top shape: 1 384 10 10 (38400)
I1020 00:07:58.485160 24762 layer_factory.hpp:76] Creating layer inception_5b/5x5_reduce
I1020 00:07:58.485172 24762 net.cpp:110] Creating Layer inception_5b/5x5_reduce
I1020 00:07:58.485177 24762 net.cpp:477] inception_5b/5x5_reduce <- inception_5a/output_inception_5a/output_0_split_2
I1020 00:07:58.485187 24762 net.cpp:433] inception_5b/5x5_reduce -> inception_5b/5x5_reduce
I1020 00:07:58.485575 24762 net.cpp:155] Setting up inception_5b/5x5_reduce
I1020 00:07:58.485589 24762 net.cpp:163] Top shape: 1 48 10 10 (4800)
I1020 00:07:58.485596 24762 layer_factory.hpp:76] Creating layer inception_5b/relu_5x5_reduce
I1020 00:07:58.485605 24762 net.cpp:110] Creating Layer inception_5b/relu_5x5_reduce
I1020 00:07:58.485611 24762 net.cpp:477] inception_5b/relu_5x5_reduce <- inception_5b/5x5_reduce
I1020 00:07:58.485618 24762 net.cpp:419] inception_5b/relu_5x5_reduce -> inception_5b/5x5_reduce (in-place)
I1020 00:07:58.485682 24762 net.cpp:155] Setting up inception_5b/relu_5x5_reduce
I1020 00:07:58.485692 24762 net.cpp:163] Top shape: 1 48 10 10 (4800)
I1020 00:07:58.485699 24762 layer_factory.hpp:76] Creating layer inception_5b/5x5
I1020 00:07:58.485707 24762 net.cpp:110] Creating Layer inception_5b/5x5
I1020 00:07:58.485713 24762 net.cpp:477] inception_5b/5x5 <- inception_5b/5x5_reduce
I1020 00:07:58.485720 24762 net.cpp:433] inception_5b/5x5 -> inception_5b/5x5
I1020 00:07:58.486160 24762 net.cpp:155] Setting up inception_5b/5x5
I1020 00:07:58.486176 24762 net.cpp:163] Top shape: 1 128 10 10 (12800)
I1020 00:07:58.486186 24762 layer_factory.hpp:76] Creating layer inception_5b/relu_5x5
I1020 00:07:58.486196 24762 net.cpp:110] Creating Layer inception_5b/relu_5x5
I1020 00:07:58.486203 24762 net.cpp:477] inception_5b/relu_5x5 <- inception_5b/5x5
I1020 00:07:58.486210 24762 net.cpp:419] inception_5b/relu_5x5 -> inception_5b/5x5 (in-place)
I1020 00:07:58.486274 24762 net.cpp:155] Setting up inception_5b/relu_5x5
I1020 00:07:58.486284 24762 net.cpp:163] Top shape: 1 128 10 10 (12800)
I1020 00:07:58.486290 24762 layer_factory.hpp:76] Creating layer inception_5b/pool
I1020 00:07:58.486296 24762 layer_factory.cpp:60] CUDNN does not support padding or multiple tops. Using Caffe's own pooling layer.
I1020 00:07:58.486305 24762 net.cpp:110] Creating Layer inception_5b/pool
I1020 00:07:58.486311 24762 net.cpp:477] inception_5b/pool <- inception_5a/output_inception_5a/output_0_split_3
I1020 00:07:58.486320 24762 net.cpp:433] inception_5b/pool -> inception_5b/pool
I1020 00:07:58.486330 24762 net.cpp:155] Setting up inception_5b/pool
I1020 00:07:58.486337 24762 net.cpp:163] Top shape: 1 832 10 10 (83200)
I1020 00:07:58.486342 24762 layer_factory.hpp:76] Creating layer inception_5b/pool_proj
I1020 00:07:58.486351 24762 net.cpp:110] Creating Layer inception_5b/pool_proj
I1020 00:07:58.486356 24762 net.cpp:477] inception_5b/pool_proj <- inception_5b/pool
I1020 00:07:58.486366 24762 net.cpp:433] inception_5b/pool_proj -> inception_5b/pool_proj
I1020 00:07:58.487308 24762 net.cpp:155] Setting up inception_5b/pool_proj
I1020 00:07:58.487321 24762 net.cpp:163] Top shape: 1 128 10 10 (12800)
I1020 00:07:58.487330 24762 layer_factory.hpp:76] Creating layer inception_5b/relu_pool_proj
I1020 00:07:58.487339 24762 net.cpp:110] Creating Layer inception_5b/relu_pool_proj
I1020 00:07:58.487345 24762 net.cpp:477] inception_5b/relu_pool_proj <- inception_5b/pool_proj
I1020 00:07:58.487360 24762 net.cpp:419] inception_5b/relu_pool_proj -> inception_5b/pool_proj (in-place)
I1020 00:07:58.487548 24762 net.cpp:155] Setting up inception_5b/relu_pool_proj
I1020 00:07:58.487560 24762 net.cpp:163] Top shape: 1 128 10 10 (12800)
I1020 00:07:58.487566 24762 layer_factory.hpp:76] Creating layer inception_5b/output
I1020 00:07:58.487574 24762 net.cpp:110] Creating Layer inception_5b/output
I1020 00:07:58.487581 24762 net.cpp:477] inception_5b/output <- inception_5b/1x1
I1020 00:07:58.487586 24762 net.cpp:477] inception_5b/output <- inception_5b/3x3
I1020 00:07:58.487593 24762 net.cpp:477] inception_5b/output <- inception_5b/5x5
I1020 00:07:58.487599 24762 net.cpp:477] inception_5b/output <- inception_5b/pool_proj
I1020 00:07:58.487607 24762 net.cpp:433] inception_5b/output -> inception_5b/output
I1020 00:07:58.487617 24762 net.cpp:155] Setting up inception_5b/output
I1020 00:07:58.487625 24762 net.cpp:163] Top shape: 1 1024 10 10 (102400)
I1020 00:07:58.487632 24762 layer_factory.hpp:76] Creating layer pool5/7x7_s1
I1020 00:07:58.487639 24762 net.cpp:110] Creating Layer pool5/7x7_s1
I1020 00:07:58.487645 24762 net.cpp:477] pool5/7x7_s1 <- inception_5b/output
I1020 00:07:58.487654 24762 net.cpp:433] pool5/7x7_s1 -> pool5/7x7_s1
I1020 00:07:58.487716 24762 net.cpp:155] Setting up pool5/7x7_s1
I1020 00:07:58.487725 24762 net.cpp:163] Top shape: 1 1024 4 4 (16384)
I1020 00:07:58.487731 24762 layer_factory.hpp:76] Creating layer pool5/drop_7x7_s1
I1020 00:07:58.487742 24762 net.cpp:110] Creating Layer pool5/drop_7x7_s1
I1020 00:07:58.487751 24762 net.cpp:477] pool5/drop_7x7_s1 <- pool5/7x7_s1
I1020 00:07:58.487757 24762 net.cpp:419] pool5/drop_7x7_s1 -> pool5/7x7_s1 (in-place)
I1020 00:07:58.487769 24762 net.cpp:155] Setting up pool5/drop_7x7_s1
I1020 00:07:58.487776 24762 net.cpp:163] Top shape: 1 1024 4 4 (16384)
I1020 00:07:58.487782 24762 layer_factory.hpp:76] Creating layer map-score
I1020 00:07:58.487792 24762 net.cpp:110] Creating Layer map-score
I1020 00:07:58.487797 24762 net.cpp:477] map-score <- pool5/7x7_s1
I1020 00:07:58.487807 24762 net.cpp:433] map-score -> map-score
I1020 00:07:58.489671 24762 net.cpp:155] Setting up map-score
I1020 00:07:58.489687 24762 net.cpp:163] Top shape: 1 21 4 4 (336)
I1020 00:07:58.489697 24762 layer_factory.hpp:76] Creating layer map-score-up
I1020 00:07:58.489709 24762 net.cpp:110] Creating Layer map-score-up
I1020 00:07:58.489716 24762 net.cpp:477] map-score-up <- map-score
I1020 00:07:58.489725 24762 net.cpp:433] map-score-up -> map-score-up
I1020 00:07:58.704463 24762 net.cpp:155] Setting up map-score-up
I1020 00:07:58.704536 24762 net.cpp:163] Top shape: 1 21 320 320 (2150400)
I1020 00:07:58.704552 24762 layer_factory.hpp:76] Creating layer prob
I1020 00:07:58.704566 24762 net.cpp:110] Creating Layer prob
I1020 00:07:58.704576 24762 net.cpp:477] prob <- map-score-up
I1020 00:07:58.704588 24762 net.cpp:433] prob -> prob
I1020 00:07:58.704735 24762 net.cpp:155] Setting up prob
I1020 00:07:58.704746 24762 net.cpp:163] Top shape: 1 21 320 320 (2150400)
I1020 00:07:58.704752 24762 net.cpp:240] prob does not need backward computation.
I1020 00:07:58.704757 24762 net.cpp:240] map-score-up does not need backward computation.
I1020 00:07:58.704763 24762 net.cpp:240] map-score does not need backward computation.
I1020 00:07:58.704769 24762 net.cpp:240] pool5/drop_7x7_s1 does not need backward computation.
I1020 00:07:58.704776 24762 net.cpp:240] pool5/7x7_s1 does not need backward computation.
…
