…
I1019 23:01:59.198529 23975 net.cpp:50] Initializing net from parameters: 
state {
  phase: TRAIN
}
layer {
  name: "data"
  type: "Data"
  top: "data"
  include {
    phase: TRAIN
  }
  transform_param {
    mean_value: 104
    mean_value: 117
    mean_value: 123
  }
  data_param {
    source: "./1__DATA/lmdb_seg_320/voc_train_2012_seg_image_lmdb"
    batch_size: 16
    backend: LMDB
  }
}
layer {
  name: "label"
  type: "Data"
  top: "label"
  include {
    phase: TRAIN
  }
  data_param {
    source: "./1__DATA/lmdb_seg_320/voc_train_2012_seg_label_map_lmdb"
    batch_size: 16
    backend: LMDB
  }
}
layer {
  name: "conv1/7x7_s2"
  type: "Convolution"
  bottom: "data"
  top: "conv1/7x7_s2"
  param {
    lr_mult: 0.25
    decay_mult: 1
  }
  param {
    lr_mult: 0.5
    decay_mult: 0
  }
  convolution_param {
    num_output: 64
    pad: 3
    kernel_size: 7
    group: 1
    stride: 2
  }
}
layer {
  name: "conv1/relu_7x7"
  type: "ReLU"
  bottom: "conv1/7x7_s2"
  top: "conv1/7x7_s2"
}
layer {
  name: "pool1/3x3_s2"
  type: "Pooling"
  bottom: "conv1/7x7_s2"
  top: "pool1/3x3_s2"
  pooling_param {
    pool: MAX
    kernel_size: 3
    stride: 2
    pad: 0
  }
}
layer {
  name: "conv2/3x3_reduce"
  type: "Convolution"
  bottom: "pool1/3x3_s2"
  top: "conv2/3x3_reduce"
  param {
    lr_mult: 0.25
    decay_mult: 1
  }
  param {
    lr_mult: 0.5
    decay_mult: 0
  }
  convolution_param {
    num_output: 64
    pad: 0
    kernel_size: 1
    group: 1
    stride: 1
  }
}
layer {
  name: "conv2/relu_3x3_reduce"
  type: "ReLU"
  bottom: "conv2/3x3_reduce"
  top: "conv2/3x3_reduce"
}
layer {
  name: "conv2/3x3"
  type: "Convolution"
  bottom: "conv2/3x3_reduce"
  top: "conv2/3x3"
  param {
    lr_mult: 0.25
    decay_mult: 1
  }
  param {
    lr_mult: 0.5
    decay_mult: 0
  }
  convolution_param {
    num_output: 192
    pad: 1
    kernel_size: 3
    group: 1
    stride: 1
  }
}
layer {
  name: "conv2/relu_3x3"
  type: "ReLU"
  bottom: "conv2/3x3"
  top: "conv2/3x3"
}
layer {
  name: "pool2/3x3_s2"
  type: "Pooling"
  bottom: "conv2/3x3"
  top: "pool2/3x3_s2"
  pooling_param {
    pool: MAX
    kernel_size: 3
    stride: 2
    pad: 0
  }
}
layer {
  name: "inception_3a/1x1"
  type: "Convolution"
  bottom: "pool2/3x3_s2"
  top: "inception_3a/1x1"
  param {
    lr_mult: 0.25
    decay_mult: 1
  }
  param {
    lr_mult: 0.5
    decay_mult: 0
  }
  convolution_param {
    num_output: 64
    pad: 0
    kernel_size: 1
    group: 1
    stride: 1
  }
}
layer {
  name: "inception_3a/relu_1x1"
  type: "ReLU"
  bottom: "inception_3a/1x1"
  top: "inception_3a/1x1"
}
layer {
  name: "inception_3a/3x3_reduce"
  type: "Convolution"
  bottom: "pool2/3x3_s2"
  top: "inception_3a/3x3_reduce"
  param {
    lr_mult: 0.25
    decay_mult: 1
  }
  param {
    lr_mult: 0.5
    decay_mult: 0
  }
  convolution_param {
    num_output: 96
    pad: 0
    kernel_size: 1
    group: 1
    stride: 1
  }
}
layer {
  name: "inception_3a/relu_3x3_reduce"
  type: "ReLU"
  bottom: "inception_3a/3x3_reduce"
  top: "inception_3a/3x3_reduce"
}
layer {
  name: "inception_3a/3x3"
  type: "Convolution"
  bottom: "inception_3a/3x3_reduce"
  top: "inception_3a/3x3"
  param {
    lr_mult: 0.25
    decay_mult: 1
  }
  param {
    lr_mult: 0.5
    decay_mult: 0
  }
  convolution_param {
    num_output: 128
    pad: 1
    kernel_size: 3
    group: 1
    stride: 1
  }
}
layer {
  name: "inception_3a/relu_3x3"
  type: "ReLU"
  bottom: "inception_3a/3x3"
  top: "inception_3a/3x3"
}
layer {
  name: "inception_3a/5x5_reduce"
  type: "Convolution"
  bottom: "pool2/3x3_s2"
  top: "inception_3a/5x5_reduce"
  param {
    lr_mult: 0.25
    decay_mult: 1
  }
  param {
    lr_mult: 0.5
    decay_mult: 0
  }
  convolution_param {
    num_output: 16
    pad: 0
    kernel_size: 1
    group: 1
    stride: 1
  }
}
layer {
  name: "inception_3a/relu_5x5_reduce"
  type: "ReLU"
  bottom: "inception_3a/5x5_reduce"
  top: "inception_3a/5x5_reduce"
}
layer {
  name: "inception_3a/5x5"
  type: "Convolution"
  bottom: "inception_3a/5x5_reduce"
  top: "inception_3a/5x5"
  param {
    lr_mult: 0.25
    decay_mult: 1
  }
  param {
    lr_mult: 0.5
    decay_mult: 0
  }
  convolution_param {
    num_output: 32
    pad: 2
    kernel_size: 5
    group: 1
    stride: 1
  }
}
layer {
  name: "inception_3a/relu_5x5"
  type: "ReLU"
  bottom: "inception_3a/5x5"
  top: "inception_3a/5x5"
}
layer {
  name: "inception_3a/pool"
  type: "Pooling"
  bottom: "pool2/3x3_s2"
  top: "inception_3a/pool"
  pooling_param {
    pool: MAX
    kernel_size: 3
    stride: 1
    pad: 1
  }
}
layer {
  name: "inception_3a/pool_proj"
  type: "Convolution"
  bottom: "inception_3a/pool"
  top: "inception_3a/pool_proj"
  param {
    lr_mult: 0.25
    decay_mult: 1
  }
  param {
    lr_mult: 0.5
    decay_mult: 0
  }
  convolution_param {
    num_output: 32
    pad: 0
    kernel_size: 1
    group: 1
    stride: 1
  }
}
layer {
  name: "inception_3a/relu_pool_proj"
  type: "ReLU"
  bottom: "inception_3a/pool_proj"
  top: "inception_3a/pool_proj"
}
layer {
  name: "inception_3a/output"
  type: "Concat"
  bottom: "inception_3a/1x1"
  bottom: "inception_3a/3x3"
  bottom: "inception_3a/5x5"
  bottom: "inception_3a/pool_proj"
  top: "inception_3a/output"
}
layer {
  name: "inception_3b/1x1"
  type: "Convolution"
  bottom: "inception_3a/output"
  top: "inception_3b/1x1"
  param {
    lr_mult: 0.25
    decay_mult: 1
  }
  param {
    lr_mult: 0.5
    decay_mult: 0
  }
  convolution_param {
    num_output: 128
    pad: 0
    kernel_size: 1
    group: 1
    stride: 1
  }
}
layer {
  name: "inception_3b/relu_1x1"
  type: "ReLU"
  bottom: "inception_3b/1x1"
  top: "inception_3b/1x1"
}
layer {
  name: "inception_3b/3x3_reduce"
  type: "Convolution"
  bottom: "inception_3a/output"
  top: "inception_3b/3x3_reduce"
  param {
    lr_mult: 0.25
    decay_mult: 1
  }
  param {
    lr_mult: 0.5
    decay_mult: 0
  }
  convolution_param {
    num_output: 128
    pad: 0
    kernel_size: 1
    group: 1
    stride: 1
  }
}
layer {
  name: "inception_3b/relu_3x3_reduce"
  type: "ReLU"
  bottom: "inception_3b/3x3_reduce"
  top: "inception_3b/3x3_reduce"
}
layer {
  name: "inception_3b/3x3"
  type: "Convolution"
  bottom: "inception_3b/3x3_reduce"
  top: "inception_3b/3x3"
  param {
    lr_mult: 0.25
    decay_mult: 1
  }
  param {
    lr_mult: 0.5
    decay_mult: 0
  }
  convolution_param {
    num_output: 192
    pad: 1
    kernel_size: 3
    group: 1
    stride: 1
  }
}
layer {
  name: "inception_3b/relu_3x3"
  type: "ReLU"
  bottom: "inception_3b/3x3"
  top: "inception_3b/3x3"
}
layer {
  name: "inception_3b/5x5_reduce"
  type: "Convolution"
  bottom: "inception_3a/output"
  top: "inception_3b/5x5_reduce"
  param {
    lr_mult: 0.25
    decay_mult: 1
  }
  param {
    lr_mult: 0.5
    decay_mult: 0
  }
  convolution_param {
    num_output: 32
    pad: 0
    kernel_size: 1
    group: 1
    stride: 1
  }
}
layer {
  name: "inception_3b/relu_5x5_reduce"
  type: "ReLU"
  bottom: "inception_3b/5x5_reduce"
  top: "inception_3b/5x5_reduce"
}
layer {
  name: "inception_3b/5x5"
  type: "Convolution"
  bottom: "inception_3b/5x5_reduce"
  top: "inception_3b/5x5"
  param {
    lr_mult: 0.25
    decay_mult: 1
  }
  param {
    lr_mult: 0.5
    decay_mult: 0
  }
  convolution_param {
    num_output: 96
    pad: 2
    kernel_size: 5
    group: 1
    stride: 1
  }
}
layer {
  name: "inception_3b/relu_5x5"
  type: "ReLU"
  bottom: "inception_3b/5x5"
  top: "inception_3b/5x5"
}
layer {
  name: "inception_3b/pool"
  type: "Pooling"
  bottom: "inception_3a/output"
  top: "inception_3b/pool"
  pooling_param {
    pool: MAX
    kernel_size: 3
    stride: 1
    pad: 1
  }
}
layer {
  name: "inception_3b/pool_proj"
  type: "Convolution"
  bottom: "inception_3b/pool"
  top: "inception_3b/pool_proj"
  param {
    lr_mult: 0.25
    decay_mult: 1
  }
  param {
    lr_mult: 0.5
    decay_mult: 0
  }
  convolution_param {
    num_output: 64
    pad: 0
    kernel_size: 1
    group: 1
    stride: 1
  }
}
layer {
  name: "inception_3b/relu_pool_proj"
  type: "ReLU"
  bottom: "inception_3b/pool_proj"
  top: "inception_3b/pool_proj"
}
layer {
  name: "inception_3b/output"
  type: "Concat"
  bottom: "inception_3b/1x1"
  bottom: "inception_3b/3x3"
  bottom: "inception_3b/5x5"
  bottom: "inception_3b/pool_proj"
  top: "inception_3b/output"
}
layer {
  name: "pool3/3x3_s2"
  type: "Pooling"
  bottom: "inception_3b/output"
  top: "pool3/3x3_s2"
  pooling_param {
    pool: MAX
    kernel_size: 3
    stride: 2
    pad: 0
  }
}
layer {
  name: "inception_4a/1x1"
  type: "Convolution"
  bottom: "pool3/3x3_s2"
  top: "inception_4a/1x1"
  param {
    lr_mult: 0.25
    decay_mult: 1
  }
  param {
    lr_mult: 0.5
    decay_mult: 0
  }
  convolution_param {
    num_output: 192
    pad: 0
    kernel_size: 1
    group: 1
    stride: 1
  }
}
layer {
  name: "inception_4a/relu_1x1"
  type: "ReLU"
  bottom: "inception_4a/1x1"
  top: "inception_4a/1x1"
}
layer {
  name: "inception_4a/3x3_reduce"
  type: "Convolution"
  bottom: "pool3/3x3_s2"
  top: "inception_4a/3x3_reduce"
  param {
    lr_mult: 0.25
    decay_mult: 1
  }
  param {
    lr_mult: 0.5
    decay_mult: 0
  }
  convolution_param {
    num_output: 96
    pad: 0
    kernel_size: 1
    group: 1
    stride: 1
  }
}
layer {
  name: "inception_4a/relu_3x3_reduce"
  type: "ReLU"
  bottom: "inception_4a/3x3_reduce"
  top: "inception_4a/3x3_reduce"
}
layer {
  name: "inception_4a/3x3"
  type: "Convolution"
  bottom: "inception_4a/3x3_reduce"
  top: "inception_4a/3x3"
  param {
    lr_mult: 0.25
    decay_mult: 1
  }
  param {
    lr_mult: 0.5
    decay_mult: 0
  }
  convolution_param {
    num_output: 208
    pad: 1
    kernel_size: 3
    group: 1
    stride: 1
  }
}
layer {
  name: "inception_4a/relu_3x3"
  type: "ReLU"
  bottom: "inception_4a/3x3"
  top: "inception_4a/3x3"
}
layer {
  name: "inception_4a/5x5_reduce"
  type: "Convolution"
  bottom: "pool3/3x3_s2"
  top: "inception_4a/5x5_reduce"
  param {
    lr_mult: 0.25
    decay_mult: 1
  }
  param {
    lr_mult: 0.5
    decay_mult: 0
  }
  convolution_param {
    num_output: 16
    pad: 0
    kernel_size: 1
    group: 1
    stride: 1
  }
}
layer {
  name: "inception_4a/relu_5x5_reduce"
  type: "ReLU"
  bottom: "inception_4a/5x5_reduce"
  top: "inception_4a/5x5_reduce"
}
layer {
  name: "inception_4a/5x5"
  type: "Convolution"
  bottom: "inception_4a/5x5_reduce"
  top: "inception_4a/5x5"
  param {
    lr_mult: 0.25
    decay_mult: 1
  }
  param {
    lr_mult: 0.5
    decay_mult: 0
  }
  convolution_param {
    num_output: 48
    pad: 2
    kernel_size: 5
    group: 1
    stride: 1
  }
}
layer {
  name: "inception_4a/relu_5x5"
  type: "ReLU"
  bottom: "inception_4a/5x5"
  top: "inception_4a/5x5"
}
layer {
  name: "inception_4a/pool"
  type: "Pooling"
  bottom: "pool3/3x3_s2"
  top: "inception_4a/pool"
  pooling_param {
    pool: MAX
    kernel_size: 3
    stride: 1
    pad: 1
  }
}
layer {
  name: "inception_4a/pool_proj"
  type: "Convolution"
  bottom: "inception_4a/pool"
  top: "inception_4a/pool_proj"
  param {
    lr_mult: 0.25
    decay_mult: 1
  }
  param {
    lr_mult: 0.5
    decay_mult: 0
  }
  convolution_param {
    num_output: 64
    pad: 0
    kernel_size: 1
    group: 1
    stride: 1
  }
}
layer {
  name: "inception_4a/relu_pool_proj"
  type: "ReLU"
  bottom: "inception_4a/pool_proj"
  top: "inception_4a/pool_proj"
}
layer {
  name: "inception_4a/output"
  type: "Concat"
  bottom: "inception_4a/1x1"
  bottom: "inception_4a/3x3"
  bottom: "inception_4a/5x5"
  bottom: "inception_4a/pool_proj"
  top: "inception_4a/output"
}
layer {
  name: "inception_4b/1x1"
  type: "Convolution"
  bottom: "inception_4a/output"
  top: "inception_4b/1x1"
  param {
    lr_mult: 0.25
    decay_mult: 1
  }
  param {
    lr_mult: 0.5
    decay_mult: 0
  }
  convolution_param {
    num_output: 160
    pad: 0
    kernel_size: 1
    group: 1
    stride: 1
  }
}
layer {
  name: "inception_4b/relu_1x1"
  type: "ReLU"
  bottom: "inception_4b/1x1"
  top: "inception_4b/1x1"
}
layer {
  name: "inception_4b/3x3_reduce"
  type: "Convolution"
  bottom: "inception_4a/output"
  top: "inception_4b/3x3_reduce"
  param {
    lr_mult: 0.25
    decay_mult: 1
  }
  param {
    lr_mult: 0.5
    decay_mult: 0
  }
  convolution_param {
    num_output: 112
    pad: 0
    kernel_size: 1
    group: 1
    stride: 1
  }
}
layer {
  name: "inception_4b/relu_3x3_reduce"
  type: "ReLU"
  bottom: "inception_4b/3x3_reduce"
  top: "inception_4b/3x3_reduce"
}
layer {
  name: "inception_4b/3x3"
  type: "Convolution"
  bottom: "inception_4b/3x3_reduce"
  top: "inception_4b/3x3"
  param {
    lr_mult: 0.25
    decay_mult: 1
  }
  param {
    lr_mult: 0.5
    decay_mult: 0
  }
  convolution_param {
    num_output: 224
    pad: 1
    kernel_size: 3
    group: 1
    stride: 1
  }
}
layer {
  name: "inception_4b/relu_3x3"
  type: "ReLU"
  bottom: "inception_4b/3x3"
  top: "inception_4b/3x3"
}
layer {
  name: "inception_4b/5x5_reduce"
  type: "Convolution"
  bottom: "inception_4a/output"
  top: "inception_4b/5x5_reduce"
  param {
    lr_mult: 0.25
    decay_mult: 1
  }
  param {
    lr_mult: 0.5
    decay_mult: 0
  }
  convolution_param {
    num_output: 24
    pad: 0
    kernel_size: 1
    group: 1
    stride: 1
  }
}
layer {
  name: "inception_4b/relu_5x5_reduce"
  type: "ReLU"
  bottom: "inception_4b/5x5_reduce"
  top: "inception_4b/5x5_reduce"
}
layer {
  name: "inception_4b/5x5"
  type: "Convolution"
  bottom: "inception_4b/5x5_reduce"
  top: "inception_4b/5x5"
  param {
    lr_mult: 0.25
    decay_mult: 1
  }
  param {
    lr_mult: 0.5
    decay_mult: 0
  }
  convolution_param {
    num_output: 64
    pad: 2
    kernel_size: 5
    group: 1
    stride: 1
  }
}
layer {
  name: "inception_4b/relu_5x5"
  type: "ReLU"
  bottom: "inception_4b/5x5"
  top: "inception_4b/5x5"
}
layer {
  name: "inception_4b/pool"
  type: "Pooling"
  bottom: "inception_4a/output"
  top: "inception_4b/pool"
  pooling_param {
    pool: MAX
    kernel_size: 3
    stride: 1
    pad: 1
  }
}
layer {
  name: "inception_4b/pool_proj"
  type: "Convolution"
  bottom: "inception_4b/pool"
  top: "inception_4b/pool_proj"
  param {
    lr_mult: 0.25
    decay_mult: 1
  }
  param {
    lr_mult: 0.5
    decay_mult: 0
  }
  convolution_param {
    num_output: 64
    pad: 0
    kernel_size: 1
    group: 1
    stride: 1
  }
}
layer {
  name: "inception_4b/relu_pool_proj"
  type: "ReLU"
  bottom: "inception_4b/pool_proj"
  top: "inception_4b/pool_proj"
}
layer {
  name: "inception_4b/output"
  type: "Concat"
  bottom: "inception_4b/1x1"
  bottom: "inception_4b/3x3"
  bottom: "inception_4b/5x5"
  bottom: "inception_4b/pool_proj"
  top: "inception_4b/output"
}
layer {
  name: "inception_4c/1x1"
  type: "Convolution"
  bottom: "inception_4b/output"
  top: "inception_4c/1x1"
  param {
    lr_mult: 0.25
    decay_mult: 1
  }
  param {
    lr_mult: 0.5
    decay_mult: 0
  }
  convolution_param {
    num_output: 128
    pad: 0
    kernel_size: 1
    group: 1
    stride: 1
  }
}
layer {
  name: "inception_4c/relu_1x1"
  type: "ReLU"
  bottom: "inception_4c/1x1"
  top: "inception_4c/1x1"
}
layer {
  name: "inception_4c/3x3_reduce"
  type: "Convolution"
  bottom: "inception_4b/output"
  top: "inception_4c/3x3_reduce"
  param {
    lr_mult: 0.25
    decay_mult: 1
  }
  param {
    lr_mult: 0.5
    decay_mult: 0
  }
  convolution_param {
    num_output: 128
    pad: 0
    kernel_size: 1
    group: 1
    stride: 1
  }
}
layer {
  name: "inception_4c/relu_3x3_reduce"
  type: "ReLU"
  bottom: "inception_4c/3x3_reduce"
  top: "inception_4c/3x3_reduce"
}
layer {
  name: "inception_4c/3x3"
  type: "Convolution"
  bottom: "inception_4c/3x3_reduce"
  top: "inception_4c/3x3"
  param {
    lr_mult: 0.25
    decay_mult: 1
  }
  param {
    lr_mult: 0.5
    decay_mult: 0
  }
  convolution_param {
    num_output: 256
    pad: 1
    kernel_size: 3
    group: 1
    stride: 1
  }
}
layer {
  name: "inception_4c/relu_3x3"
  type: "ReLU"
  bottom: "inception_4c/3x3"
  top: "inception_4c/3x3"
}
layer {
  name: "inception_4c/5x5_reduce"
  type: "Convolution"
  bottom: "inception_4b/output"
  top: "inception_4c/5x5_reduce"
  param {
    lr_mult: 0.25
    decay_mult: 1
  }
  param {
    lr_mult: 0.5
    decay_mult: 0
  }
  convolution_param {
    num_output: 24
    pad: 0
    kernel_size: 1
    group: 1
    stride: 1
  }
}
layer {
  name: "inception_4c/relu_5x5_reduce"
  type: "ReLU"
  bottom: "inception_4c/5x5_reduce"
  top: "inception_4c/5x5_reduce"
}
layer {
  name: "inception_4c/5x5"
  type: "Convolution"
  bottom: "inception_4c/5x5_reduce"
  top: "inception_4c/5x5"
  param {
    lr_mult: 0.25
    decay_mult: 1
  }
  param {
    lr_mult: 0.5
    decay_mult: 0
  }
  convolution_param {
    num_output: 64
    pad: 2
    kernel_size: 5
    group: 1
    stride: 1
  }
}
layer {
  name: "inception_4c/relu_5x5"
  type: "ReLU"
  bottom: "inception_4c/5x5"
  top: "inception_4c/5x5"
}
layer {
  name: "inception_4c/pool"
  type: "Pooling"
  bottom: "inception_4b/output"
  top: "inception_4c/pool"
  pooling_param {
    pool: MAX
    kernel_size: 3
    stride: 1
    pad: 1
  }
}
layer {
  name: "inception_4c/pool_proj"
  type: "Convolution"
  bottom: "inception_4c/pool"
  top: "inception_4c/pool_proj"
  param {
    lr_mult: 0.25
    decay_mult: 1
  }
  param {
    lr_mult: 0.5
    decay_mult: 0
  }
  convolution_param {
    num_output: 64
    pad: 0
    kernel_size: 1
    group: 1
    stride: 1
  }
}
layer {
  name: "inception_4c/relu_pool_proj"
  type: "ReLU"
  bottom: "inception_4c/pool_proj"
  top: "inception_4c/pool_proj"
}
layer {
  name: "inception_4c/output"
  type: "Concat"
  bottom: "inception_4c/1x1"
  bottom: "inception_4c/3x3"
  bottom: "inception_4c/5x5"
  bottom: "inception_4c/pool_proj"
  top: "inception_4c/output"
}
layer {
  name: "inception_4d/1x1"
  type: "Convolution"
  bottom: "inception_4c/output"
  top: "inception_4d/1x1"
  param {
    lr_mult: 0.25
    decay_mult: 1
  }
  param {
    lr_mult: 0.5
    decay_mult: 0
  }
  convolution_param {
    num_output: 112
    pad: 0
    kernel_size: 1
    group: 1
    stride: 1
  }
}
layer {
  name: "inception_4d/relu_1x1"
  type: "ReLU"
  bottom: "inception_4d/1x1"
  top: "inception_4d/1x1"
}
layer {
  name: "inception_4d/3x3_reduce"
  type: "Convolution"
  bottom: "inception_4c/output"
  top: "inception_4d/3x3_reduce"
  param {
    lr_mult: 0.25
    decay_mult: 1
  }
  param {
    lr_mult: 0.5
    decay_mult: 0
  }
  convolution_param {
    num_output: 144
    pad: 0
    kernel_size: 1
    group: 1
    stride: 1
  }
}
layer {
  name: "inception_4d/relu_3x3_reduce"
  type: "ReLU"
  bottom: "inception_4d/3x3_reduce"
  top: "inception_4d/3x3_reduce"
}
layer {
  name: "inception_4d/3x3"
  type: "Convolution"
  bottom: "inception_4d/3x3_reduce"
  top: "inception_4d/3x3"
  param {
    lr_mult: 0.25
    decay_mult: 1
  }
  param {
    lr_mult: 0.5
    decay_mult: 0
  }
  convolution_param {
    num_output: 288
    pad: 1
    kernel_size: 3
    group: 1
    stride: 1
  }
}
layer {
  name: "inception_4d/relu_3x3"
  type: "ReLU"
  bottom: "inception_4d/3x3"
  top: "inception_4d/3x3"
}
layer {
  name: "inception_4d/5x5_reduce"
  type: "Convolution"
  bottom: "inception_4c/output"
  top: "inception_4d/5x5_reduce"
  param {
    lr_mult: 0.25
    decay_mult: 1
  }
  param {
    lr_mult: 0.5
    decay_mult: 0
  }
  convolution_param {
    num_output: 32
    pad: 0
    kernel_size: 1
    group: 1
    stride: 1
  }
}
layer {
  name: "inception_4d/relu_5x5_reduce"
  type: "ReLU"
  bottom: "inception_4d/5x5_reduce"
  top: "inception_4d/5x5_reduce"
}
layer {
  name: "inception_4d/5x5"
  type: "Convolution"
  bottom: "inception_4d/5x5_reduce"
  top: "inception_4d/5x5"
  param {
    lr_mult: 0.25
    decay_mult: 1
  }
  param {
    lr_mult: 0.5
    decay_mult: 0
  }
  convolution_param {
    num_output: 64
    pad: 2
    kernel_size: 5
    group: 1
    stride: 1
  }
}
layer {
  name: "inception_4d/relu_5x5"
  type: "ReLU"
  bottom: "inception_4d/5x5"
  top: "inception_4d/5x5"
}
layer {
  name: "inception_4d/pool"
  type: "Pooling"
  bottom: "inception_4c/output"
  top: "inception_4d/pool"
  pooling_param {
    pool: MAX
    kernel_size: 3
    stride: 1
    pad: 1
  }
}
layer {
  name: "inception_4d/pool_proj"
  type: "Convolution"
  bottom: "inception_4d/pool"
  top: "inception_4d/pool_proj"
  param {
    lr_mult: 0.25
    decay_mult: 1
  }
  param {
    lr_mult: 0.5
    decay_mult: 0
  }
  convolution_param {
    num_output: 64
    pad: 0
    kernel_size: 1
    group: 1
    stride: 1
  }
}
layer {
  name: "inception_4d/relu_pool_proj"
  type: "ReLU"
  bottom: "inception_4d/pool_proj"
  top: "inception_4d/pool_proj"
}
layer {
  name: "inception_4d/output"
  type: "Concat"
  bottom: "inception_4d/1x1"
  bottom: "inception_4d/3x3"
  bottom: "inception_4d/5x5"
  bottom: "inception_4d/pool_proj"
  top: "inception_4d/output"
}
layer {
  name: "inception_4e/1x1"
  type: "Convolution"
  bottom: "inception_4d/output"
  top: "inception_4e/1x1"
  param {
    lr_mult: 0.25
    decay_mult: 1
  }
  param {
    lr_mult: 0.5
    decay_mult: 0
  }
  convolution_param {
    num_output: 256
    pad: 0
    kernel_size: 1
    group: 1
    stride: 1
  }
}
layer {
  name: "inception_4e/relu_1x1"
  type: "ReLU"
  bottom: "inception_4e/1x1"
  top: "inception_4e/1x1"
}
layer {
  name: "inception_4e/3x3_reduce"
  type: "Convolution"
  bottom: "inception_4d/output"
  top: "inception_4e/3x3_reduce"
  param {
    lr_mult: 0.25
    decay_mult: 1
  }
  param {
    lr_mult: 0.5
    decay_mult: 0
  }
  convolution_param {
    num_output: 160
    pad: 0
    kernel_size: 1
    group: 1
    stride: 1
  }
}
layer {
  name: "inception_4e/relu_3x3_reduce"
  type: "ReLU"
  bottom: "inception_4e/3x3_reduce"
  top: "inception_4e/3x3_reduce"
}
layer {
  name: "inception_4e/3x3"
  type: "Convolution"
  bottom: "inception_4e/3x3_reduce"
  top: "inception_4e/3x3"
  param {
    lr_mult: 0.25
    decay_mult: 1
  }
  param {
    lr_mult: 0.5
    decay_mult: 0
  }
  convolution_param {
    num_output: 320
    pad: 1
    kernel_size: 3
    group: 1
    stride: 1
  }
}
layer {
  name: "inception_4e/relu_3x3"
  type: "ReLU"
  bottom: "inception_4e/3x3"
  top: "inception_4e/3x3"
}
layer {
  name: "inception_4e/5x5_reduce"
  type: "Convolution"
  bottom: "inception_4d/output"
  top: "inception_4e/5x5_reduce"
  param {
    lr_mult: 0.25
    decay_mult: 1
  }
  param {
    lr_mult: 0.5
    decay_mult: 0
  }
  convolution_param {
    num_output: 32
    pad: 0
    kernel_size: 1
    group: 1
    stride: 1
  }
}
layer {
  name: "inception_4e/relu_5x5_reduce"
  type: "ReLU"
  bottom: "inception_4e/5x5_reduce"
  top: "inception_4e/5x5_reduce"
}
layer {
  name: "inception_4e/5x5"
  type: "Convolution"
  bottom: "inception_4e/5x5_reduce"
  top: "inception_4e/5x5"
  param {
    lr_mult: 0.25
    decay_mult: 1
  }
  param {
    lr_mult: 0.5
    decay_mult: 0
  }
  convolution_param {
    num_output: 128
    pad: 2
    kernel_size: 5
    group: 1
    stride: 1
  }
}
layer {
  name: "inception_4e/relu_5x5"
  type: "ReLU"
  bottom: "inception_4e/5x5"
  top: "inception_4e/5x5"
}
layer {
  name: "inception_4e/pool"
  type: "Pooling"
  bottom: "inception_4d/output"
  top: "inception_4e/pool"
  pooling_param {
    pool: MAX
    kernel_size: 3
    stride: 1
    pad: 1
  }
}
layer {
  name: "inception_4e/pool_proj"
  type: "Convolution"
  bottom: "inception_4e/pool"
  top: "inception_4e/pool_proj"
  param {
    lr_mult: 0.25
    decay_mult: 1
  }
  param {
    lr_mult: 0.5
    decay_mult: 0
  }
  convolution_param {
    num_output: 128
    pad: 0
    kernel_size: 1
    group: 1
    stride: 1
  }
}
layer {
  name: "inception_4e/relu_pool_proj"
  type: "ReLU"
  bottom: "inception_4e/pool_proj"
  top: "inception_4e/pool_proj"
}
layer {
  name: "inception_4e/output"
  type: "Concat"
  bottom: "inception_4e/1x1"
  bottom: "inception_4e/3x3"
  bottom: "inception_4e/5x5"
  bottom: "inception_4e/pool_proj"
  top: "inception_4e/output"
}
layer {
  name: "pool4/3x3_s2"
  type: "Pooling"
  bottom: "inception_4e/output"
  top: "pool4/3x3_s2"
  pooling_param {
    pool: MAX
    kernel_size: 3
    stride: 2
    pad: 0
  }
}
layer {
  name: "inception_5a/1x1"
  type: "Convolution"
  bottom: "pool4/3x3_s2"
  top: "inception_5a/1x1"
  param {
    lr_mult: 0.25
    decay_mult: 1
  }
  param {
    lr_mult: 0.5
    decay_mult: 0
  }
  convolution_param {
    num_output: 256
    pad: 0
    kernel_size: 1
    group: 1
    stride: 1
  }
}
layer {
  name: "inception_5a/relu_1x1"
  type: "ReLU"
  bottom: "inception_5a/1x1"
  top: "inception_5a/1x1"
}
layer {
  name: "inception_5a/3x3_reduce"
  type: "Convolution"
  bottom: "pool4/3x3_s2"
  top: "inception_5a/3x3_reduce"
  param {
    lr_mult: 0.25
    decay_mult: 1
  }
  param {
    lr_mult: 0.5
    decay_mult: 0
  }
  convolution_param {
    num_output: 160
    pad: 0
    kernel_size: 1
    group: 1
    stride: 1
  }
}
layer {
  name: "inception_5a/relu_3x3_reduce"
  type: "ReLU"
  bottom: "inception_5a/3x3_reduce"
  top: "inception_5a/3x3_reduce"
}
layer {
  name: "inception_5a/3x3"
  type: "Convolution"
  bottom: "inception_5a/3x3_reduce"
  top: "inception_5a/3x3"
  param {
    lr_mult: 0.25
    decay_mult: 1
  }
  param {
    lr_mult: 0.5
    decay_mult: 0
  }
  convolution_param {
    num_output: 320
    pad: 1
    kernel_size: 3
    group: 1
    stride: 1
  }
}
layer {
  name: "inception_5a/relu_3x3"
  type: "ReLU"
  bottom: "inception_5a/3x3"
  top: "inception_5a/3x3"
}
layer {
  name: "inception_5a/5x5_reduce"
  type: "Convolution"
  bottom: "pool4/3x3_s2"
  top: "inception_5a/5x5_reduce"
  param {
    lr_mult: 0.25
    decay_mult: 1
  }
  param {
    lr_mult: 0.5
    decay_mult: 0
  }
  convolution_param {
    num_output: 32
    pad: 0
    kernel_size: 1
    group: 1
    stride: 1
  }
}
layer {
  name: "inception_5a/relu_5x5_reduce"
  type: "ReLU"
  bottom: "inception_5a/5x5_reduce"
  top: "inception_5a/5x5_reduce"
}
layer {
  name: "inception_5a/5x5"
  type: "Convolution"
  bottom: "inception_5a/5x5_reduce"
  top: "inception_5a/5x5"
  param {
    lr_mult: 0.25
    decay_mult: 1
  }
  param {
    lr_mult: 0.5
    decay_mult: 0
  }
  convolution_param {
    num_output: 128
    pad: 2
    kernel_size: 5
    group: 1
    stride: 1
  }
}
layer {
  name: "inception_5a/relu_5x5"
  type: "ReLU"
  bottom: "inception_5a/5x5"
  top: "inception_5a/5x5"
}
layer {
  name: "inception_5a/pool"
  type: "Pooling"
  bottom: "pool4/3x3_s2"
  top: "inception_5a/pool"
  pooling_param {
    pool: MAX
    kernel_size: 3
    stride: 1
    pad: 1
  }
}
layer {
  name: "inception_5a/pool_proj"
  type: "Convolution"
  bottom: "inception_5a/pool"
  top: "inception_5a/pool_proj"
  param {
    lr_mult: 0.25
    decay_mult: 1
  }
  param {
    lr_mult: 0.5
    decay_mult: 0
  }
  convolution_param {
    num_output: 128
    pad: 0
    kernel_size: 1
    group: 1
    stride: 1
  }
}
layer {
  name: "inception_5a/relu_pool_proj"
  type: "ReLU"
  bottom: "inception_5a/pool_proj"
  top: "inception_5a/pool_proj"
}
layer {
  name: "inception_5a/output"
  type: "Concat"
  bottom: "inception_5a/1x1"
  bottom: "inception_5a/3x3"
  bottom: "inception_5a/5x5"
  bottom: "inception_5a/pool_proj"
  top: "inception_5a/output"
}
layer {
  name: "inception_5b/1x1"
  type: "Convolution"
  bottom: "inception_5a/output"
  top: "inception_5b/1x1"
  param {
    lr_mult: 0.25
    decay_mult: 1
  }
  param {
    lr_mult: 0.5
    decay_mult: 0
  }
  convolution_param {
    num_output: 384
    pad: 0
    kernel_size: 1
    group: 1
    stride: 1
  }
}
layer {
  name: "inception_5b/relu_1x1"
  type: "ReLU"
  bottom: "inception_5b/1x1"
  top: "inception_5b/1x1"
}
layer {
  name: "inception_5b/3x3_reduce"
  type: "Convolution"
  bottom: "inception_5a/output"
  top: "inception_5b/3x3_reduce"
  param {
    lr_mult: 0.25
    decay_mult: 1
  }
  param {
    lr_mult: 0.5
    decay_mult: 0
  }
  convolution_param {
    num_output: 192
    pad: 0
    kernel_size: 1
    group: 1
    stride: 1
  }
}
layer {
  name: "inception_5b/relu_3x3_reduce"
  type: "ReLU"
  bottom: "inception_5b/3x3_reduce"
  top: "inception_5b/3x3_reduce"
}
layer {
  name: "inception_5b/3x3"
  type: "Convolution"
  bottom: "inception_5b/3x3_reduce"
  top: "inception_5b/3x3"
  param {
    lr_mult: 0.25
    decay_mult: 1
  }
  param {
    lr_mult: 0.5
    decay_mult: 0
  }
  convolution_param {
    num_output: 384
    pad: 1
    kernel_size: 3
    group: 1
    stride: 1
  }
}
layer {
  name: "inception_5b/relu_3x3"
  type: "ReLU"
  bottom: "inception_5b/3x3"
  top: "inception_5b/3x3"
}
layer {
  name: "inception_5b/5x5_reduce"
  type: "Convolution"
  bottom: "inception_5a/output"
  top: "inception_5b/5x5_reduce"
  param {
    lr_mult: 0.25
    decay_mult: 1
  }
  param {
    lr_mult: 0.5
    decay_mult: 0
  }
  convolution_param {
    num_output: 48
    pad: 0
    kernel_size: 1
    group: 1
    stride: 1
  }
}
layer {
  name: "inception_5b/relu_5x5_reduce"
  type: "ReLU"
  bottom: "inception_5b/5x5_reduce"
  top: "inception_5b/5x5_reduce"
}
layer {
  name: "inception_5b/5x5"
  type: "Convolution"
  bottom: "inception_5b/5x5_reduce"
  top: "inception_5b/5x5"
  param {
    lr_mult: 0.25
    decay_mult: 1
  }
  param {
    lr_mult: 0.5
    decay_mult: 0
  }
  convolution_param {
    num_output: 128
    pad: 2
    kernel_size: 5
    group: 1
    stride: 1
  }
}
layer {
  name: "inception_5b/relu_5x5"
  type: "ReLU"
  bottom: "inception_5b/5x5"
  top: "inception_5b/5x5"
}
layer {
  name: "inception_5b/pool"
  type: "Pooling"
  bottom: "inception_5a/output"
  top: "inception_5b/pool"
  pooling_param {
    pool: MAX
    kernel_size: 3
    stride: 1
    pad: 1
  }
}
layer {
  name: "inception_5b/pool_proj"
  type: "Convolution"
  bottom: "inception_5b/pool"
  top: "inception_5b/pool_proj"
  param {
    lr_mult: 0.25
    decay_mult: 1
  }
  param {
    lr_mult: 0.5
    decay_mult: 0
  }
  convolution_param {
    num_output: 128
    pad: 0
    kernel_size: 1
    group: 1
    stride: 1
  }
}
layer {
  name: "inception_5b/relu_pool_proj"
  
I1019 23:01:59.199129 23975 layer_factory.hpp:76] Creating layer data
I1019 23:01:59.199628 23975 net.cpp:110] Creating Layer data
I1019 23:01:59.199647 23975 net.cpp:433] data -> data
I1019 23:01:59.200882 23981 db_lmdb.cpp:22] Opened lmdb ./1__DATA/lmdb_seg_320/voc_train_2012_seg_image_lmdb
I1019 23:01:59.201346 23975 data_layer.cpp:44] output data size: 16,3,320,320
I1019 23:01:59.242352 23975 net.cpp:155] Setting up data
I1019 23:01:59.242429 23975 net.cpp:163] Top shape: 16 3 320 320 (4915200)
I1019 23:01:59.242446 23975 layer_factory.hpp:76] Creating layer label
I1019 23:01:59.242529 23975 net.cpp:110] Creating Layer label
I1019 23:01:59.242545 23975 net.cpp:433] label -> label
I1019 23:01:59.244163 23983 db_lmdb.cpp:22] Opened lmdb ./1__DATA/lmdb_seg_320/voc_train_2012_seg_label_map_lmdb
I1019 23:01:59.244357 23975 data_layer.cpp:44] output data size: 16,1,320,320
I1019 23:01:59.246832 23982 blocking_queue.cpp:50] Waiting for data
I1019 23:01:59.256532 23975 net.cpp:155] Setting up label
I1019 23:01:59.256567 23975 net.cpp:163] Top shape: 16 1 320 320 (1638400)
I1019 23:01:59.256587 23975 layer_factory.hpp:76] Creating layer conv1/7x7_s2
I1019 23:01:59.256611 23975 net.cpp:110] Creating Layer conv1/7x7_s2
I1019 23:01:59.256623 23975 net.cpp:477] conv1/7x7_s2 <- data
I1019 23:01:59.256644 23975 net.cpp:433] conv1/7x7_s2 -> conv1/7x7_s2
I1019 23:01:59.302479 23975 net.cpp:155] Setting up conv1/7x7_s2
I1019 23:01:59.302533 23975 net.cpp:163] Top shape: 16 64 160 160 (26214400)
I1019 23:01:59.302566 23975 layer_factory.hpp:76] Creating layer conv1/relu_7x7
I1019 23:01:59.302587 23975 net.cpp:110] Creating Layer conv1/relu_7x7
I1019 23:01:59.302594 23975 net.cpp:477] conv1/relu_7x7 <- conv1/7x7_s2
I1019 23:01:59.302605 23975 net.cpp:419] conv1/relu_7x7 -> conv1/7x7_s2 (in-place)
I1019 23:01:59.302680 23975 net.cpp:155] Setting up conv1/relu_7x7
I1019 23:01:59.302690 23975 net.cpp:163] Top shape: 16 64 160 160 (26214400)
I1019 23:01:59.302697 23975 layer_factory.hpp:76] Creating layer pool1/3x3_s2
I1019 23:01:59.302717 23975 net.cpp:110] Creating Layer pool1/3x3_s2
I1019 23:01:59.302724 23975 net.cpp:477] pool1/3x3_s2 <- conv1/7x7_s2
I1019 23:01:59.302744 23975 net.cpp:433] pool1/3x3_s2 -> pool1/3x3_s2
I1019 23:01:59.302839 23975 net.cpp:155] Setting up pool1/3x3_s2
I1019 23:01:59.302850 23975 net.cpp:163] Top shape: 16 64 80 80 (6553600)
I1019 23:01:59.302856 23975 layer_factory.hpp:76] Creating layer conv2/3x3_reduce
I1019 23:01:59.302870 23975 net.cpp:110] Creating Layer conv2/3x3_reduce
I1019 23:01:59.302876 23975 net.cpp:477] conv2/3x3_reduce <- pool1/3x3_s2
I1019 23:01:59.302884 23975 net.cpp:433] conv2/3x3_reduce -> conv2/3x3_reduce
I1019 23:01:59.303735 23975 net.cpp:155] Setting up conv2/3x3_reduce
I1019 23:01:59.303748 23975 net.cpp:163] Top shape: 16 64 80 80 (6553600)
I1019 23:01:59.303761 23975 layer_factory.hpp:76] Creating layer conv2/relu_3x3_reduce
I1019 23:01:59.303771 23975 net.cpp:110] Creating Layer conv2/relu_3x3_reduce
I1019 23:01:59.303776 23975 net.cpp:477] conv2/relu_3x3_reduce <- conv2/3x3_reduce
I1019 23:01:59.303784 23975 net.cpp:419] conv2/relu_3x3_reduce -> conv2/3x3_reduce (in-place)
I1019 23:01:59.303838 23975 net.cpp:155] Setting up conv2/relu_3x3_reduce
I1019 23:01:59.303848 23975 net.cpp:163] Top shape: 16 64 80 80 (6553600)
I1019 23:01:59.303853 23975 layer_factory.hpp:76] Creating layer conv2/3x3
I1019 23:01:59.303863 23975 net.cpp:110] Creating Layer conv2/3x3
I1019 23:01:59.303869 23975 net.cpp:477] conv2/3x3 <- conv2/3x3_reduce
I1019 23:01:59.303877 23975 net.cpp:433] conv2/3x3 -> conv2/3x3
I1019 23:01:59.304738 23975 net.cpp:155] Setting up conv2/3x3
I1019 23:01:59.304751 23975 net.cpp:163] Top shape: 16 192 80 80 (19660800)
I1019 23:01:59.304762 23975 layer_factory.hpp:76] Creating layer conv2/relu_3x3
I1019 23:01:59.304772 23975 net.cpp:110] Creating Layer conv2/relu_3x3
I1019 23:01:59.304780 23975 net.cpp:477] conv2/relu_3x3 <- conv2/3x3
I1019 23:01:59.304787 23975 net.cpp:419] conv2/relu_3x3 -> conv2/3x3 (in-place)
I1019 23:01:59.304956 23975 net.cpp:155] Setting up conv2/relu_3x3
I1019 23:01:59.304970 23975 net.cpp:163] Top shape: 16 192 80 80 (19660800)
I1019 23:01:59.304976 23975 layer_factory.hpp:76] Creating layer pool2/3x3_s2
I1019 23:01:59.304986 23975 net.cpp:110] Creating Layer pool2/3x3_s2
I1019 23:01:59.304992 23975 net.cpp:477] pool2/3x3_s2 <- conv2/3x3
I1019 23:01:59.305001 23975 net.cpp:433] pool2/3x3_s2 -> pool2/3x3_s2
I1019 23:01:59.305053 23975 net.cpp:155] Setting up pool2/3x3_s2
I1019 23:01:59.305064 23975 net.cpp:163] Top shape: 16 192 40 40 (4915200)
I1019 23:01:59.305070 23975 layer_factory.hpp:76] Creating layer pool2/3x3_s2_pool2/3x3_s2_0_split
I1019 23:01:59.305085 23975 net.cpp:110] Creating Layer pool2/3x3_s2_pool2/3x3_s2_0_split
I1019 23:01:59.305091 23975 net.cpp:477] pool2/3x3_s2_pool2/3x3_s2_0_split <- pool2/3x3_s2
I1019 23:01:59.305099 23975 net.cpp:433] pool2/3x3_s2_pool2/3x3_s2_0_split -> pool2/3x3_s2_pool2/3x3_s2_0_split_0
I1019 23:01:59.305109 23975 net.cpp:433] pool2/3x3_s2_pool2/3x3_s2_0_split -> pool2/3x3_s2_pool2/3x3_s2_0_split_1
I1019 23:01:59.305119 23975 net.cpp:433] pool2/3x3_s2_pool2/3x3_s2_0_split -> pool2/3x3_s2_pool2/3x3_s2_0_split_2
I1019 23:01:59.305126 23975 net.cpp:433] pool2/3x3_s2_pool2/3x3_s2_0_split -> pool2/3x3_s2_pool2/3x3_s2_0_split_3
I1019 23:01:59.305138 23975 net.cpp:155] Setting up pool2/3x3_s2_pool2/3x3_s2_0_split
I1019 23:01:59.305145 23975 net.cpp:163] Top shape: 16 192 40 40 (4915200)
I1019 23:01:59.305152 23975 net.cpp:163] Top shape: 16 192 40 40 (4915200)
I1019 23:01:59.305160 23975 net.cpp:163] Top shape: 16 192 40 40 (4915200)
I1019 23:01:59.305166 23975 net.cpp:163] Top shape: 16 192 40 40 (4915200)
I1019 23:01:59.305171 23975 layer_factory.hpp:76] Creating layer inception_3a/1x1
I1019 23:01:59.305181 23975 net.cpp:110] Creating Layer inception_3a/1x1
I1019 23:01:59.305186 23975 net.cpp:477] inception_3a/1x1 <- pool2/3x3_s2_pool2/3x3_s2_0_split_0
I1019 23:01:59.305194 23975 net.cpp:433] inception_3a/1x1 -> inception_3a/1x1
I1019 23:01:59.305498 23975 net.cpp:155] Setting up inception_3a/1x1
I1019 23:01:59.305511 23975 net.cpp:163] Top shape: 16 64 40 40 (1638400)
I1019 23:01:59.305521 23975 layer_factory.hpp:76] Creating layer inception_3a/relu_1x1
I1019 23:01:59.305534 23975 net.cpp:110] Creating Layer inception_3a/relu_1x1
I1019 23:01:59.305546 23975 net.cpp:477] inception_3a/relu_1x1 <- inception_3a/1x1
I1019 23:01:59.305555 23975 net.cpp:419] inception_3a/relu_1x1 -> inception_3a/1x1 (in-place)
I1019 23:01:59.305608 23975 net.cpp:155] Setting up inception_3a/relu_1x1
I1019 23:01:59.305618 23975 net.cpp:163] Top shape: 16 64 40 40 (1638400)
I1019 23:01:59.305624 23975 layer_factory.hpp:76] Creating layer inception_3a/3x3_reduce
I1019 23:01:59.305632 23975 net.cpp:110] Creating Layer inception_3a/3x3_reduce
I1019 23:01:59.305639 23975 net.cpp:477] inception_3a/3x3_reduce <- pool2/3x3_s2_pool2/3x3_s2_0_split_1
I1019 23:01:59.305647 23975 net.cpp:433] inception_3a/3x3_reduce -> inception_3a/3x3_reduce
I1019 23:01:59.305955 23975 net.cpp:155] Setting up inception_3a/3x3_reduce
I1019 23:01:59.305968 23975 net.cpp:163] Top shape: 16 96 40 40 (2457600)
I1019 23:01:59.305980 23975 layer_factory.hpp:76] Creating layer inception_3a/relu_3x3_reduce
I1019 23:01:59.305989 23975 net.cpp:110] Creating Layer inception_3a/relu_3x3_reduce
I1019 23:01:59.305995 23975 net.cpp:477] inception_3a/relu_3x3_reduce <- inception_3a/3x3_reduce
I1019 23:01:59.306004 23975 net.cpp:419] inception_3a/relu_3x3_reduce -> inception_3a/3x3_reduce (in-place)
I1019 23:01:59.306068 23975 net.cpp:155] Setting up inception_3a/relu_3x3_reduce
I1019 23:01:59.306083 23975 net.cpp:163] Top shape: 16 96 40 40 (2457600)
I1019 23:01:59.306090 23975 layer_factory.hpp:76] Creating layer inception_3a/3x3
I1019 23:01:59.306099 23975 net.cpp:110] Creating Layer inception_3a/3x3
I1019 23:01:59.306107 23975 net.cpp:477] inception_3a/3x3 <- inception_3a/3x3_reduce
I1019 23:01:59.306114 23975 net.cpp:433] inception_3a/3x3 -> inception_3a/3x3
I1019 23:01:59.306471 23975 net.cpp:155] Setting up inception_3a/3x3
I1019 23:01:59.306484 23975 net.cpp:163] Top shape: 16 128 40 40 (3276800)
I1019 23:01:59.306493 23975 layer_factory.hpp:76] Creating layer inception_3a/relu_3x3
I1019 23:01:59.306504 23975 net.cpp:110] Creating Layer inception_3a/relu_3x3
I1019 23:01:59.306510 23975 net.cpp:477] inception_3a/relu_3x3 <- inception_3a/3x3
I1019 23:01:59.306519 23975 net.cpp:419] inception_3a/relu_3x3 -> inception_3a/3x3 (in-place)
I1019 23:01:59.306689 23975 net.cpp:155] Setting up inception_3a/relu_3x3
I1019 23:01:59.306701 23975 net.cpp:163] Top shape: 16 128 40 40 (3276800)
I1019 23:01:59.306709 23975 layer_factory.hpp:76] Creating layer inception_3a/5x5_reduce
I1019 23:01:59.306717 23975 net.cpp:110] Creating Layer inception_3a/5x5_reduce
I1019 23:01:59.306723 23975 net.cpp:477] inception_3a/5x5_reduce <- pool2/3x3_s2_pool2/3x3_s2_0_split_2
I1019 23:01:59.306732 23975 net.cpp:433] inception_3a/5x5_reduce -> inception_3a/5x5_reduce
I1019 23:01:59.307032 23975 net.cpp:155] Setting up inception_3a/5x5_reduce
I1019 23:01:59.307045 23975 net.cpp:163] Top shape: 16 16 40 40 (409600)
I1019 23:01:59.307055 23975 layer_factory.hpp:76] Creating layer inception_3a/relu_5x5_reduce
I1019 23:01:59.307063 23975 net.cpp:110] Creating Layer inception_3a/relu_5x5_reduce
I1019 23:01:59.307070 23975 net.cpp:477] inception_3a/relu_5x5_reduce <- inception_3a/5x5_reduce
I1019 23:01:59.307077 23975 net.cpp:419] inception_3a/relu_5x5_reduce -> inception_3a/5x5_reduce (in-place)
I1019 23:01:59.307128 23975 net.cpp:155] Setting up inception_3a/relu_5x5_reduce
I1019 23:01:59.307137 23975 net.cpp:163] Top shape: 16 16 40 40 (409600)
I1019 23:01:59.307144 23975 layer_factory.hpp:76] Creating layer inception_3a/5x5
I1019 23:01:59.307153 23975 net.cpp:110] Creating Layer inception_3a/5x5
I1019 23:01:59.307159 23975 net.cpp:477] inception_3a/5x5 <- inception_3a/5x5_reduce
I1019 23:01:59.307168 23975 net.cpp:433] inception_3a/5x5 -> inception_3a/5x5
I1019 23:01:59.307477 23975 net.cpp:155] Setting up inception_3a/5x5
I1019 23:01:59.307490 23975 net.cpp:163] Top shape: 16 32 40 40 (819200)
I1019 23:01:59.307499 23975 layer_factory.hpp:76] Creating layer inception_3a/relu_5x5
I1019 23:01:59.307507 23975 net.cpp:110] Creating Layer inception_3a/relu_5x5
I1019 23:01:59.307519 23975 net.cpp:477] inception_3a/relu_5x5 <- inception_3a/5x5
I1019 23:01:59.307536 23975 net.cpp:419] inception_3a/relu_5x5 -> inception_3a/5x5 (in-place)
I1019 23:01:59.307590 23975 net.cpp:155] Setting up inception_3a/relu_5x5
I1019 23:01:59.307600 23975 net.cpp:163] Top shape: 16 32 40 40 (819200)
I1019 23:01:59.307605 23975 layer_factory.hpp:76] Creating layer inception_3a/pool
I1019 23:01:59.307612 23975 layer_factory.cpp:60] CUDNN does not support padding or multiple tops. Using Caffe's own pooling layer.
I1019 23:01:59.307621 23975 net.cpp:110] Creating Layer inception_3a/pool
I1019 23:01:59.307626 23975 net.cpp:477] inception_3a/pool <- pool2/3x3_s2_pool2/3x3_s2_0_split_3
I1019 23:01:59.307634 23975 net.cpp:433] inception_3a/pool -> inception_3a/pool
I1019 23:01:59.307647 23975 net.cpp:155] Setting up inception_3a/pool
I1019 23:01:59.307656 23975 net.cpp:163] Top shape: 16 192 40 40 (4915200)
I1019 23:01:59.307662 23975 layer_factory.hpp:76] Creating layer inception_3a/pool_proj
I1019 23:01:59.307670 23975 net.cpp:110] Creating Layer inception_3a/pool_proj
I1019 23:01:59.307677 23975 net.cpp:477] inception_3a/pool_proj <- inception_3a/pool
I1019 23:01:59.307684 23975 net.cpp:433] inception_3a/pool_proj -> inception_3a/pool_proj
I1019 23:01:59.307994 23975 net.cpp:155] Setting up inception_3a/pool_proj
I1019 23:01:59.308008 23975 net.cpp:163] Top shape: 16 32 40 40 (819200)
I1019 23:01:59.308020 23975 layer_factory.hpp:76] Creating layer inception_3a/relu_pool_proj
I1019 23:01:59.308029 23975 net.cpp:110] Creating Layer inception_3a/relu_pool_proj
I1019 23:01:59.308035 23975 net.cpp:477] inception_3a/relu_pool_proj <- inception_3a/pool_proj
I1019 23:01:59.308043 23975 net.cpp:419] inception_3a/relu_pool_proj -> inception_3a/pool_proj (in-place)
I1019 23:01:59.308213 23975 net.cpp:155] Setting up inception_3a/relu_pool_proj
I1019 23:01:59.308226 23975 net.cpp:163] Top shape: 16 32 40 40 (819200)
I1019 23:01:59.308233 23975 layer_factory.hpp:76] Creating layer inception_3a/output
I1019 23:01:59.308245 23975 net.cpp:110] Creating Layer inception_3a/output
I1019 23:01:59.308253 23975 net.cpp:477] inception_3a/output <- inception_3a/1x1
I1019 23:01:59.308260 23975 net.cpp:477] inception_3a/output <- inception_3a/3x3
I1019 23:01:59.308266 23975 net.cpp:477] inception_3a/output <- inception_3a/5x5
I1019 23:01:59.308274 23975 net.cpp:477] inception_3a/output <- inception_3a/pool_proj
I1019 23:01:59.308280 23975 net.cpp:433] inception_3a/output -> inception_3a/output
I1019 23:01:59.308296 23975 net.cpp:155] Setting up inception_3a/output
I1019 23:01:59.308305 23975 net.cpp:163] Top shape: 16 256 40 40 (6553600)
I1019 23:01:59.308310 23975 layer_factory.hpp:76] Creating layer inception_3a/output_inception_3a/output_0_split
I1019 23:01:59.308320 23975 net.cpp:110] Creating Layer inception_3a/output_inception_3a/output_0_split
I1019 23:01:59.308326 23975 net.cpp:477] inception_3a/output_inception_3a/output_0_split <- inception_3a/output
I1019 23:01:59.308333 23975 net.cpp:433] inception_3a/output_inception_3a/output_0_split -> inception_3a/output_inception_3a/output_0_split_0
I1019 23:01:59.308342 23975 net.cpp:433] inception_3a/output_inception_3a/output_0_split -> inception_3a/output_inception_3a/output_0_split_1
I1019 23:01:59.308351 23975 net.cpp:433] inception_3a/output_inception_3a/output_0_split -> inception_3a/output_inception_3a/output_0_split_2
I1019 23:01:59.308359 23975 net.cpp:433] inception_3a/output_inception_3a/output_0_split -> inception_3a/output_inception_3a/output_0_split_3
I1019 23:01:59.308368 23975 net.cpp:155] Setting up inception_3a/output_inception_3a/output_0_split
I1019 23:01:59.308375 23975 net.cpp:163] Top shape: 16 256 40 40 (6553600)
I1019 23:01:59.308382 23975 net.cpp:163] Top shape: 16 256 40 40 (6553600)
I1019 23:01:59.308389 23975 net.cpp:163] Top shape: 16 256 40 40 (6553600)
I1019 23:01:59.308395 23975 net.cpp:163] Top shape: 16 256 40 40 (6553600)
I1019 23:01:59.308401 23975 layer_factory.hpp:76] Creating layer inception_3b/1x1
I1019 23:01:59.308410 23975 net.cpp:110] Creating Layer inception_3b/1x1
I1019 23:01:59.308421 23975 net.cpp:477] inception_3b/1x1 <- inception_3a/output_inception_3a/output_0_split_0
I1019 23:01:59.308435 23975 net.cpp:433] inception_3b/1x1 -> inception_3b/1x1
I1019 23:01:59.308753 23975 net.cpp:155] Setting up inception_3b/1x1
I1019 23:01:59.308766 23975 net.cpp:163] Top shape: 16 128 40 40 (3276800)
I1019 23:01:59.308776 23975 layer_factory.hpp:76] Creating layer inception_3b/relu_1x1
I1019 23:01:59.308784 23975 net.cpp:110] Creating Layer inception_3b/relu_1x1
I1019 23:01:59.308791 23975 net.cpp:477] inception_3b/relu_1x1 <- inception_3b/1x1
I1019 23:01:59.308799 23975 net.cpp:419] inception_3b/relu_1x1 -> inception_3b/1x1 (in-place)
I1019 23:01:59.308852 23975 net.cpp:155] Setting up inception_3b/relu_1x1
I1019 23:01:59.308862 23975 net.cpp:163] Top shape: 16 128 40 40 (3276800)
I1019 23:01:59.308868 23975 layer_factory.hpp:76] Creating layer inception_3b/3x3_reduce
I1019 23:01:59.308876 23975 net.cpp:110] Creating Layer inception_3b/3x3_reduce
I1019 23:01:59.308883 23975 net.cpp:477] inception_3b/3x3_reduce <- inception_3a/output_inception_3a/output_0_split_1
I1019 23:01:59.308892 23975 net.cpp:433] inception_3b/3x3_reduce -> inception_3b/3x3_reduce
I1019 23:01:59.309200 23975 net.cpp:155] Setting up inception_3b/3x3_reduce
I1019 23:01:59.309212 23975 net.cpp:163] Top shape: 16 128 40 40 (3276800)
I1019 23:01:59.309222 23975 layer_factory.hpp:76] Creating layer inception_3b/relu_3x3_reduce
I1019 23:01:59.309231 23975 net.cpp:110] Creating Layer inception_3b/relu_3x3_reduce
I1019 23:01:59.309237 23975 net.cpp:477] inception_3b/relu_3x3_reduce <- inception_3b/3x3_reduce
I1019 23:01:59.309245 23975 net.cpp:419] inception_3b/relu_3x3_reduce -> inception_3b/3x3_reduce (in-place)
I1019 23:01:59.309298 23975 net.cpp:155] Setting up inception_3b/relu_3x3_reduce
I1019 23:01:59.309308 23975 net.cpp:163] Top shape: 16 128 40 40 (3276800)
I1019 23:01:59.309314 23975 layer_factory.hpp:76] Creating layer inception_3b/3x3
I1019 23:01:59.309322 23975 net.cpp:110] Creating Layer inception_3b/3x3
I1019 23:01:59.309329 23975 net.cpp:477] inception_3b/3x3 <- inception_3b/3x3_reduce
I1019 23:01:59.309336 23975 net.cpp:433] inception_3b/3x3 -> inception_3b/3x3
I1019 23:01:59.310269 23975 net.cpp:155] Setting up inception_3b/3x3
I1019 23:01:59.310286 23975 net.cpp:163] Top shape: 16 192 40 40 (4915200)
I1019 23:01:59.310297 23975 layer_factory.hpp:76] Creating layer inception_3b/relu_3x3
I1019 23:01:59.310304 23975 net.cpp:110] Creating Layer inception_3b/relu_3x3
I1019 23:01:59.310312 23975 net.cpp:477] inception_3b/relu_3x3 <- inception_3b/3x3
I1019 23:01:59.310319 23975 net.cpp:419] inception_3b/relu_3x3 -> inception_3b/3x3 (in-place)
I1019 23:01:59.310372 23975 net.cpp:155] Setting up inception_3b/relu_3x3
I1019 23:01:59.310382 23975 net.cpp:163] Top shape: 16 192 40 40 (4915200)
I1019 23:01:59.310389 23975 layer_factory.hpp:76] Creating layer inception_3b/5x5_reduce
I1019 23:01:59.310400 23975 net.cpp:110] Creating Layer inception_3b/5x5_reduce
I1019 23:01:59.310406 23975 net.cpp:477] inception_3b/5x5_reduce <- inception_3a/output_inception_3a/output_0_split_2
I1019 23:01:59.310415 23975 net.cpp:433] inception_3b/5x5_reduce -> inception_3b/5x5_reduce
I1019 23:01:59.310726 23975 net.cpp:155] Setting up inception_3b/5x5_reduce
I1019 23:01:59.310739 23975 net.cpp:163] Top shape: 16 32 40 40 (819200)
I1019 23:01:59.310750 23975 layer_factory.hpp:76] Creating layer inception_3b/relu_5x5_reduce
I1019 23:01:59.310757 23975 net.cpp:110] Creating Layer inception_3b/relu_5x5_reduce
I1019 23:01:59.310765 23975 net.cpp:477] inception_3b/relu_5x5_reduce <- inception_3b/5x5_reduce
I1019 23:01:59.310772 23975 net.cpp:419] inception_3b/relu_5x5_reduce -> inception_3b/5x5_reduce (in-place)
I1019 23:01:59.310950 23975 net.cpp:155] Setting up inception_3b/relu_5x5_reduce
I1019 23:01:59.310962 23975 net.cpp:163] Top shape: 16 32 40 40 (819200)
I1019 23:01:59.310969 23975 layer_factory.hpp:76] Creating layer inception_3b/5x5
I1019 23:01:59.310978 23975 net.cpp:110] Creating Layer inception_3b/5x5
I1019 23:01:59.310992 23975 net.cpp:477] inception_3b/5x5 <- inception_3b/5x5_reduce
I1019 23:01:59.311009 23975 net.cpp:433] inception_3b/5x5 -> inception_3b/5x5
I1019 23:01:59.311888 23975 net.cpp:155] Setting up inception_3b/5x5
I1019 23:01:59.311902 23975 net.cpp:163] Top shape: 16 96 40 40 (2457600)
I1019 23:01:59.311924 23975 layer_factory.hpp:76] Creating layer inception_3b/relu_5x5
I1019 23:01:59.311934 23975 net.cpp:110] Creating Layer inception_3b/relu_5x5
I1019 23:01:59.311941 23975 net.cpp:477] inception_3b/relu_5x5 <- inception_3b/5x5
I1019 23:01:59.311949 23975 net.cpp:419] inception_3b/relu_5x5 -> inception_3b/5x5 (in-place)
I1019 23:01:59.312005 23975 net.cpp:155] Setting up inception_3b/relu_5x5
I1019 23:01:59.312014 23975 net.cpp:163] Top shape: 16 96 40 40 (2457600)
I1019 23:01:59.312021 23975 layer_factory.hpp:76] Creating layer inception_3b/pool
I1019 23:01:59.312027 23975 layer_factory.cpp:60] CUDNN does not support padding or multiple tops. Using Caffe's own pooling layer.
I1019 23:01:59.312036 23975 net.cpp:110] Creating Layer inception_3b/pool
I1019 23:01:59.312041 23975 net.cpp:477] inception_3b/pool <- inception_3a/output_inception_3a/output_0_split_3
I1019 23:01:59.312049 23975 net.cpp:433] inception_3b/pool -> inception_3b/pool
I1019 23:01:59.312060 23975 net.cpp:155] Setting up inception_3b/pool
I1019 23:01:59.312068 23975 net.cpp:163] Top shape: 16 256 40 40 (6553600)
I1019 23:01:59.312074 23975 layer_factory.hpp:76] Creating layer inception_3b/pool_proj
I1019 23:01:59.312083 23975 net.cpp:110] Creating Layer inception_3b/pool_proj
I1019 23:01:59.312089 23975 net.cpp:477] inception_3b/pool_proj <- inception_3b/pool
I1019 23:01:59.312098 23975 net.cpp:433] inception_3b/pool_proj -> inception_3b/pool_proj
I1019 23:01:59.312440 23975 net.cpp:155] Setting up inception_3b/pool_proj
I1019 23:01:59.312453 23975 net.cpp:163] Top shape: 16 64 40 40 (1638400)
I1019 23:01:59.312463 23975 layer_factory.hpp:76] Creating layer inception_3b/relu_pool_proj
I1019 23:01:59.312471 23975 net.cpp:110] Creating Layer inception_3b/relu_pool_proj
I1019 23:01:59.312479 23975 net.cpp:477] inception_3b/relu_pool_proj <- inception_3b/pool_proj
I1019 23:01:59.312486 23975 net.cpp:419] inception_3b/relu_pool_proj -> inception_3b/pool_proj (in-place)
I1019 23:01:59.312539 23975 net.cpp:155] Setting up inception_3b/relu_pool_proj
I1019 23:01:59.312549 23975 net.cpp:163] Top shape: 16 64 40 40 (1638400)
I1019 23:01:59.312556 23975 layer_factory.hpp:76] Creating layer inception_3b/output
I1019 23:01:59.312564 23975 net.cpp:110] Creating Layer inception_3b/output
I1019 23:01:59.312571 23975 net.cpp:477] inception_3b/output <- inception_3b/1x1
I1019 23:01:59.312577 23975 net.cpp:477] inception_3b/output <- inception_3b/3x3
I1019 23:01:59.312584 23975 net.cpp:477] inception_3b/output <- inception_3b/5x5
I1019 23:01:59.312590 23975 net.cpp:477] inception_3b/output <- inception_3b/pool_proj
I1019 23:01:59.312597 23975 net.cpp:433] inception_3b/output -> inception_3b/output
I1019 23:01:59.312608 23975 net.cpp:155] Setting up inception_3b/output
I1019 23:01:59.312615 23975 net.cpp:163] Top shape: 16 480 40 40 (12288000)
I1019 23:01:59.312621 23975 layer_factory.hpp:76] Creating layer pool3/3x3_s2
I1019 23:01:59.312629 23975 net.cpp:110] Creating Layer pool3/3x3_s2
I1019 23:01:59.312636 23975 net.cpp:477] pool3/3x3_s2 <- inception_3b/output
I1019 23:01:59.312655 23975 net.cpp:433] pool3/3x3_s2 -> pool3/3x3_s2
I1019 23:01:59.312712 23975 net.cpp:155] Setting up pool3/3x3_s2
I1019 23:01:59.312723 23975 net.cpp:163] Top shape: 16 480 20 20 (3072000)
I1019 23:01:59.312731 23975 layer_factory.hpp:76] Creating layer pool3/3x3_s2_pool3/3x3_s2_0_split
I1019 23:01:59.312738 23975 net.cpp:110] Creating Layer pool3/3x3_s2_pool3/3x3_s2_0_split
I1019 23:01:59.312746 23975 net.cpp:477] pool3/3x3_s2_pool3/3x3_s2_0_split <- pool3/3x3_s2
I1019 23:01:59.312752 23975 net.cpp:433] pool3/3x3_s2_pool3/3x3_s2_0_split -> pool3/3x3_s2_pool3/3x3_s2_0_split_0
I1019 23:01:59.312764 23975 net.cpp:433] pool3/3x3_s2_pool3/3x3_s2_0_split -> pool3/3x3_s2_pool3/3x3_s2_0_split_1
I1019 23:01:59.312779 23975 net.cpp:433] pool3/3x3_s2_pool3/3x3_s2_0_split -> pool3/3x3_s2_pool3/3x3_s2_0_split_2
I1019 23:01:59.312795 23975 net.cpp:433] pool3/3x3_s2_pool3/3x3_s2_0_split -> pool3/3x3_s2_pool3/3x3_s2_0_split_3
I1019 23:01:59.312805 23975 net.cpp:155] Setting up pool3/3x3_s2_pool3/3x3_s2_0_split
I1019 23:01:59.312813 23975 net.cpp:163] Top shape: 16 480 20 20 (3072000)
I1019 23:01:59.312819 23975 net.cpp:163] Top shape: 16 480 20 20 (3072000)
I1019 23:01:59.312826 23975 net.cpp:163] Top shape: 16 480 20 20 (3072000)
I1019 23:01:59.312832 23975 net.cpp:163] Top shape: 16 480 20 20 (3072000)
I1019 23:01:59.312839 23975 layer_factory.hpp:76] Creating layer inception_4a/1x1
I1019 23:01:59.312847 23975 net.cpp:110] Creating Layer inception_4a/1x1
I1019 23:01:59.312854 23975 net.cpp:477] inception_4a/1x1 <- pool3/3x3_s2_pool3/3x3_s2_0_split_0
I1019 23:01:59.312861 23975 net.cpp:433] inception_4a/1x1 -> inception_4a/1x1
I1019 23:01:59.313745 23975 net.cpp:155] Setting up inception_4a/1x1
I1019 23:01:59.313760 23975 net.cpp:163] Top shape: 16 192 20 20 (1228800)
I1019 23:01:59.313768 23975 layer_factory.hpp:76] Creating layer inception_4a/relu_1x1
I1019 23:01:59.313777 23975 net.cpp:110] Creating Layer inception_4a/relu_1x1
I1019 23:01:59.313783 23975 net.cpp:477] inception_4a/relu_1x1 <- inception_4a/1x1
I1019 23:01:59.313791 23975 net.cpp:419] inception_4a/relu_1x1 -> inception_4a/1x1 (in-place)
I1019 23:01:59.313971 23975 net.cpp:155] Setting up inception_4a/relu_1x1
I1019 23:01:59.313984 23975 net.cpp:163] Top shape: 16 192 20 20 (1228800)
I1019 23:01:59.313992 23975 layer_factory.hpp:76] Creating layer inception_4a/3x3_reduce
I1019 23:01:59.314000 23975 net.cpp:110] Creating Layer inception_4a/3x3_reduce
I1019 23:01:59.314007 23975 net.cpp:477] inception_4a/3x3_reduce <- pool3/3x3_s2_pool3/3x3_s2_0_split_1
I1019 23:01:59.314016 23975 net.cpp:433] inception_4a/3x3_reduce -> inception_4a/3x3_reduce
I1019 23:01:59.314371 23975 net.cpp:155] Setting up inception_4a/3x3_reduce
I1019 23:01:59.314388 23975 net.cpp:163] Top shape: 16 96 20 20 (614400)
I1019 23:01:59.314401 23975 layer_factory.hpp:76] Creating layer inception_4a/relu_3x3_reduce
I1019 23:01:59.314410 23975 net.cpp:110] Creating Layer inception_4a/relu_3x3_reduce
I1019 23:01:59.314424 23975 net.cpp:477] inception_4a/relu_3x3_reduce <- inception_4a/3x3_reduce
I1019 23:01:59.314435 23975 net.cpp:419] inception_4a/relu_3x3_reduce -> inception_4a/3x3_reduce (in-place)
I1019 23:01:59.314489 23975 net.cpp:155] Setting up inception_4a/relu_3x3_reduce
I1019 23:01:59.314499 23975 net.cpp:163] Top shape: 16 96 20 20 (614400)
I1019 23:01:59.314507 23975 layer_factory.hpp:76] Creating layer inception_4a/3x3
I1019 23:01:59.314515 23975 net.cpp:110] Creating Layer inception_4a/3x3
I1019 23:01:59.314522 23975 net.cpp:477] inception_4a/3x3 <- inception_4a/3x3_reduce
I1019 23:01:59.314702 23975 net.cpp:433] inception_4a/3x3 -> inception_4a/3x3
I1019 23:01:59.315626 23975 net.cpp:155] Setting up inception_4a/3x3
I1019 23:01:59.315640 23975 net.cpp:163] Top shape: 16 208 20 20 (1331200)
I1019 23:01:59.315649 23975 layer_factory.hpp:76] Creating layer inception_4a/relu_3x3
I1019 23:01:59.315659 23975 net.cpp:110] Creating Layer inception_4a/relu_3x3
I1019 23:01:59.315665 23975 net.cpp:477] inception_4a/relu_3x3 <- inception_4a/3x3
I1019 23:01:59.315673 23975 net.cpp:419] inception_4a/relu_3x3 -> inception_4a/3x3 (in-place)
I1019 23:01:59.315728 23975 net.cpp:155] Setting up inception_4a/relu_3x3
I1019 23:01:59.315738 23975 net.cpp:163] Top shape: 16 208 20 20 (1331200)
I1019 23:01:59.315744 23975 layer_factory.hpp:76] Creating layer inception_4a/5x5_reduce
I1019 23:01:59.315753 23975 net.cpp:110] Creating Layer inception_4a/5x5_reduce
I1019 23:01:59.315760 23975 net.cpp:477] inception_4a/5x5_reduce <- pool3/3x3_s2_pool3/3x3_s2_0_split_2
I1019 23:01:59.315769 23975 net.cpp:433] inception_4a/5x5_reduce -> inception_4a/5x5_reduce
I1019 23:01:59.316088 23975 net.cpp:155] Setting up inception_4a/5x5_reduce
I1019 23:01:59.316104 23975 net.cpp:163] Top shape: 16 16 20 20 (102400)
I1019 23:01:59.316119 23975 layer_factory.hpp:76] Creating layer inception_4a/relu_5x5_reduce
I1019 23:01:59.316138 23975 net.cpp:110] Creating Layer inception_4a/relu_5x5_reduce
I1019 23:01:59.316145 23975 net.cpp:477] inception_4a/relu_5x5_reduce <- inception_4a/5x5_reduce
I1019 23:01:59.316154 23975 net.cpp:419] inception_4a/relu_5x5_reduce -> inception_4a/5x5_reduce (in-place)
I1019 23:01:59.316208 23975 net.cpp:155] Setting up inception_4a/relu_5x5_reduce
I1019 23:01:59.316218 23975 net.cpp:163] Top shape: 16 16 20 20 (102400)
I1019 23:01:59.316225 23975 layer_factory.hpp:76] Creating layer inception_4a/5x5
I1019 23:01:59.316233 23975 net.cpp:110] Creating Layer inception_4a/5x5
I1019 23:01:59.316241 23975 net.cpp:477] inception_4a/5x5 <- inception_4a/5x5_reduce
I1019 23:01:59.316248 23975 net.cpp:433] inception_4a/5x5 -> inception_4a/5x5
I1019 23:01:59.316565 23975 net.cpp:155] Setting up inception_4a/5x5
I1019 23:01:59.316579 23975 net.cpp:163] Top shape: 16 48 20 20 (307200)
I1019 23:01:59.316591 23975 layer_factory.hpp:76] Creating layer inception_4a/relu_5x5
I1019 23:01:59.316601 23975 net.cpp:110] Creating Layer inception_4a/relu_5x5
I1019 23:01:59.316606 23975 net.cpp:477] inception_4a/relu_5x5 <- inception_4a/5x5
I1019 23:01:59.316614 23975 net.cpp:419] inception_4a/relu_5x5 -> inception_4a/5x5 (in-place)
I1019 23:01:59.316781 23975 net.cpp:155] Setting up inception_4a/relu_5x5
I1019 23:01:59.316792 23975 net.cpp:163] Top shape: 16 48 20 20 (307200)
I1019 23:01:59.316799 23975 layer_factory.hpp:76] Creating layer inception_4a/pool
I1019 23:01:59.316807 23975 layer_factory.cpp:60] CUDNN does not support padding or multiple tops. Using Caffe's own pooling layer.
I1019 23:01:59.316813 23975 net.cpp:110] Creating Layer inception_4a/pool
I1019 23:01:59.316820 23975 net.cpp:477] inception_4a/pool <- pool3/3x3_s2_pool3/3x3_s2_0_split_3
I1019 23:01:59.316828 23975 net.cpp:433] inception_4a/pool -> inception_4a/pool
I1019 23:01:59.316843 23975 net.cpp:155] Setting up inception_4a/pool
I1019 23:01:59.316850 23975 net.cpp:163] Top shape: 16 480 20 20 (3072000)
I1019 23:01:59.316856 23975 layer_factory.hpp:76] Creating layer inception_4a/pool_proj
I1019 23:01:59.316864 23975 net.cpp:110] Creating Layer inception_4a/pool_proj
I1019 23:01:59.316871 23975 net.cpp:477] inception_4a/pool_proj <- inception_4a/pool
I1019 23:01:59.316879 23975 net.cpp:433] inception_4a/pool_proj -> inception_4a/pool_proj
I1019 23:01:59.317203 23975 net.cpp:155] Setting up inception_4a/pool_proj
I1019 23:01:59.317216 23975 net.cpp:163] Top shape: 16 64 20 20 (409600)
I1019 23:01:59.317225 23975 layer_factory.hpp:76] Creating layer inception_4a/relu_pool_proj
I1019 23:01:59.317234 23975 net.cpp:110] Creating Layer inception_4a/relu_pool_proj
I1019 23:01:59.317240 23975 net.cpp:477] inception_4a/relu_pool_proj <- inception_4a/pool_proj
I1019 23:01:59.317248 23975 net.cpp:419] inception_4a/relu_pool_proj -> inception_4a/pool_proj (in-place)
I1019 23:01:59.317301 23975 net.cpp:155] Setting up inception_4a/relu_pool_proj
I1019 23:01:59.317312 23975 net.cpp:163] Top shape: 16 64 20 20 (409600)
I1019 23:01:59.317317 23975 layer_factory.hpp:76] Creating layer inception_4a/output
I1019 23:01:59.317328 23975 net.cpp:110] Creating Layer inception_4a/output
I1019 23:01:59.317335 23975 net.cpp:477] inception_4a/output <- inception_4a/1x1
I1019 23:01:59.317342 23975 net.cpp:477] inception_4a/output <- inception_4a/3x3
I1019 23:01:59.317349 23975 net.cpp:477] inception_4a/output <- inception_4a/5x5
I1019 23:01:59.317355 23975 net.cpp:477] inception_4a/output <- inception_4a/pool_proj
I1019 23:01:59.317363 23975 net.cpp:433] inception_4a/output -> inception_4a/output
I1019 23:01:59.317373 23975 net.cpp:155] Setting up inception_4a/output
I1019 23:01:59.317380 23975 net.cpp:163] Top shape: 16 512 20 20 (3276800)
I1019 23:01:59.317386 23975 layer_factory.hpp:76] Creating layer inception_4a/output_inception_4a/output_0_split
I1019 23:01:59.317394 23975 net.cpp:110] Creating Layer inception_4a/output_inception_4a/output_0_split
I1019 23:01:59.317400 23975 net.cpp:477] inception_4a/output_inception_4a/output_0_split <- inception_4a/output
I1019 23:01:59.317420 23975 net.cpp:433] inception_4a/output_inception_4a/output_0_split -> inception_4a/output_inception_4a/output_0_split_0
I1019 23:01:59.317430 23975 net.cpp:433] inception_4a/output_inception_4a/output_0_split -> inception_4a/output_inception_4a/output_0_split_1
I1019 23:01:59.317440 23975 net.cpp:433] inception_4a/output_inception_4a/output_0_split -> inception_4a/output_inception_4a/output_0_split_2
I1019 23:01:59.317448 23975 net.cpp:433] inception_4a/output_inception_4a/output_0_split -> inception_4a/output_inception_4a/output_0_split_3
I1019 23:01:59.317457 23975 net.cpp:155] Setting up inception_4a/output_inception_4a/output_0_split
I1019 23:01:59.317464 23975 net.cpp:163] Top shape: 16 512 20 20 (3276800)
I1019 23:01:59.317471 23975 net.cpp:163] Top shape: 16 512 20 20 (3276800)
I1019 23:01:59.317477 23975 net.cpp:163] Top shape: 16 512 20 20 (3276800)
I1019 23:01:59.317483 23975 net.cpp:163] Top shape: 16 512 20 20 (3276800)
I1019 23:01:59.317489 23975 layer_factory.hpp:76] Creating layer inception_4b/1x1
I1019 23:01:59.317497 23975 net.cpp:110] Creating Layer inception_4b/1x1
I1019 23:01:59.317503 23975 net.cpp:477] inception_4b/1x1 <- inception_4a/output_inception_4a/output_0_split_0
I1019 23:01:59.317512 23975 net.cpp:433] inception_4b/1x1 -> inception_4b/1x1
I1019 23:01:59.317862 23975 net.cpp:155] Setting up inception_4b/1x1
I1019 23:01:59.317876 23975 net.cpp:163] Top shape: 16 160 20 20 (1024000)
I1019 23:01:59.317885 23975 layer_factory.hpp:76] Creating layer inception_4b/relu_1x1
I1019 23:01:59.317893 23975 net.cpp:110] Creating Layer inception_4b/relu_1x1
I1019 23:01:59.317899 23975 net.cpp:477] inception_4b/relu_1x1 <- inception_4b/1x1
I1019 23:01:59.317908 23975 net.cpp:419] inception_4b/relu_1x1 -> inception_4b/1x1 (in-place)
I1019 23:01:59.317960 23975 net.cpp:155] Setting up inception_4b/relu_1x1
I1019 23:01:59.317970 23975 net.cpp:163] Top shape: 16 160 20 20 (1024000)
I1019 23:01:59.317976 23975 layer_factory.hpp:76] Creating layer inception_4b/3x3_reduce
I1019 23:01:59.317984 23975 net.cpp:110] Creating Layer inception_4b/3x3_reduce
I1019 23:01:59.317991 23975 net.cpp:477] inception_4b/3x3_reduce <- inception_4a/output_inception_4a/output_0_split_1
I1019 23:01:59.317999 23975 net.cpp:433] inception_4b/3x3_reduce -> inception_4b/3x3_reduce
I1019 23:01:59.318874 23975 net.cpp:155] Setting up inception_4b/3x3_reduce
I1019 23:01:59.318892 23975 net.cpp:163] Top shape: 16 112 20 20 (716800)
I1019 23:01:59.318902 23975 layer_factory.hpp:76] Creating layer inception_4b/relu_3x3_reduce
I1019 23:01:59.318909 23975 net.cpp:110] Creating Layer inception_4b/relu_3x3_reduce
I1019 23:01:59.318917 23975 net.cpp:477] inception_4b/relu_3x3_reduce <- inception_4b/3x3_reduce
I1019 23:01:59.318924 23975 net.cpp:419] inception_4b/relu_3x3_reduce -> inception_4b/3x3_reduce (in-place)
I1019 23:01:59.319090 23975 net.cpp:155] Setting up inception_4b/relu_3x3_reduce
I1019 23:01:59.319103 23975 net.cpp:163] Top shape: 16 112 20 20 (716800)
I1019 23:01:59.319110 23975 layer_factory.hpp:76] Creating layer inception_4b/3x3
I1019 23:01:59.319119 23975 net.cpp:110] Creating Layer inception_4b/3x3
I1019 23:01:59.319126 23975 net.cpp:477] inception_4b/3x3 <- inception_4b/3x3_reduce
I1019 23:01:59.319135 23975 net.cpp:433] inception_4b/3x3 -> inception_4b/3x3
I1019 23:01:59.320071 23975 net.cpp:155] Setting up inception_4b/3x3
I1019 23:01:59.320085 23975 net.cpp:163] Top shape: 16 224 20 20 (1433600)
I1019 23:01:59.320094 23975 layer_factory.hpp:76] Creating layer inception_4b/relu_3x3
I1019 23:01:59.320102 23975 net.cpp:110] Creating Layer inception_4b/relu_3x3
I1019 23:01:59.320108 23975 net.cpp:477] inception_4b/relu_3x3 <- inception_4b/3x3
I1019 23:01:59.320116 23975 net.cpp:419] inception_4b/relu_3x3 -> inception_4b/3x3 (in-place)
I1019 23:01:59.320171 23975 net.cpp:155] Setting up inception_4b/relu_3x3
I1019 23:01:59.320181 23975 net.cpp:163] Top shape: 16 224 20 20 (1433600)
I1019 23:01:59.320188 23975 layer_factory.hpp:76] Creating layer inception_4b/5x5_reduce
I1019 23:01:59.320219 23975 net.cpp:110] Creating Layer inception_4b/5x5_reduce
I1019 23:01:59.320226 23975 net.cpp:477] inception_4b/5x5_reduce <- inception_4a/output_inception_4a/output_0_split_2
I1019 23:01:59.320235 23975 net.cpp:433] inception_4b/5x5_reduce -> inception_4b/5x5_reduce
I1019 23:01:59.320556 23975 net.cpp:155] Setting up inception_4b/5x5_reduce
I1019 23:01:59.320569 23975 net.cpp:163] Top shape: 16 24 20 20 (153600)
I1019 23:01:59.320580 23975 layer_factory.hpp:76] Creating layer inception_4b/relu_5x5_reduce
I1019 23:01:59.320590 23975 net.cpp:110] Creating Layer inception_4b/relu_5x5_reduce
I1019 23:01:59.320597 23975 net.cpp:477] inception_4b/relu_5x5_reduce <- inception_4b/5x5_reduce
I1019 23:01:59.320605 23975 net.cpp:419] inception_4b/relu_5x5_reduce -> inception_4b/5x5_reduce (in-place)
I1019 23:01:59.320659 23975 net.cpp:155] Setting up inception_4b/relu_5x5_reduce
I1019 23:01:59.320669 23975 net.cpp:163] Top shape: 16 24 20 20 (153600)
I1019 23:01:59.320677 23975 layer_factory.hpp:76] Creating layer inception_4b/5x5
I1019 23:01:59.320684 23975 net.cpp:110] Creating Layer inception_4b/5x5
I1019 23:01:59.320691 23975 net.cpp:477] inception_4b/5x5 <- inception_4b/5x5_reduce
I1019 23:01:59.320699 23975 net.cpp:433] inception_4b/5x5 -> inception_4b/5x5
I1019 23:01:59.321025 23975 net.cpp:155] Setting up inception_4b/5x5
I1019 23:01:59.321038 23975 net.cpp:163] Top shape: 16 64 20 20 (409600)
I1019 23:01:59.321048 23975 layer_factory.hpp:76] Creating layer inception_4b/relu_5x5
I1019 23:01:59.321055 23975 net.cpp:110] Creating Layer inception_4b/relu_5x5
I1019 23:01:59.321063 23975 net.cpp:477] inception_4b/relu_5x5 <- inception_4b/5x5
I1019 23:01:59.321069 23975 net.cpp:419] inception_4b/relu_5x5 -> inception_4b/5x5 (in-place)
I1019 23:01:59.321131 23975 net.cpp:155] Setting up inception_4b/relu_5x5
I1019 23:01:59.321142 23975 net.cpp:163] Top shape: 16 64 20 20 (409600)
I1019 23:01:59.321148 23975 layer_factory.hpp:76] Creating layer inception_4b/pool
I1019 23:01:59.321156 23975 layer_factory.cpp:60] CUDNN does not support padding or multiple tops. Using Caffe's own pooling layer.
I1019 23:01:59.321162 23975 net.cpp:110] Creating Layer inception_4b/pool
I1019 23:01:59.321169 23975 net.cpp:477] inception_4b/pool <- inception_4a/output_inception_4a/output_0_split_3
I1019 23:01:59.321177 23975 net.cpp:433] inception_4b/pool -> inception_4b/pool
I1019 23:01:59.321188 23975 net.cpp:155] Setting up inception_4b/pool
I1019 23:01:59.321195 23975 net.cpp:163] Top shape: 16 512 20 20 (3276800)
I1019 23:01:59.321202 23975 layer_factory.hpp:76] Creating layer inception_4b/pool_proj
I1019 23:01:59.321210 23975 net.cpp:110] Creating Layer inception_4b/pool_proj
I1019 23:01:59.321216 23975 net.cpp:477] inception_4b/pool_proj <- inception_4b/pool
I1019 23:01:59.321224 23975 net.cpp:433] inception_4b/pool_proj -> inception_4b/pool_proj
I1019 23:01:59.321548 23975 net.cpp:155] Setting up inception_4b/pool_proj
I1019 23:01:59.321563 23975 net.cpp:163] Top shape: 16 64 20 20 (409600)
I1019 23:01:59.321571 23975 layer_factory.hpp:76] Creating layer inception_4b/relu_pool_proj
I1019 23:01:59.321579 23975 net.cpp:110] Creating Layer inception_4b/relu_pool_proj
I1019 23:01:59.321586 23975 net.cpp:477] inception_4b/relu_pool_proj <- inception_4b/pool_proj
I1019 23:01:59.321594 23975 net.cpp:419] inception_4b/relu_pool_proj -> inception_4b/pool_proj (in-place)
I1019 23:01:59.321760 23975 net.cpp:155] Setting up inception_4b/relu_pool_proj
I1019 23:01:59.321774 23975 net.cpp:163] Top shape: 16 64 20 20 (409600)
I1019 23:01:59.321780 23975 layer_factory.hpp:76] Creating layer inception_4b/output
I1019 23:01:59.321789 23975 net.cpp:110] Creating Layer inception_4b/output
I1019 23:01:59.321794 23975 net.cpp:477] inception_4b/output <- inception_4b/1x1
I1019 23:01:59.321802 23975 net.cpp:477] inception_4b/output <- inception_4b/3x3
I1019 23:01:59.321809 23975 net.cpp:477] inception_4b/output <- inception_4b/5x5
I1019 23:01:59.321815 23975 net.cpp:477] inception_4b/output <- inception_4b/pool_proj
I1019 23:01:59.321827 23975 net.cpp:433] inception_4b/output -> inception_4b/output
I1019 23:01:59.321843 23975 net.cpp:155] Setting up inception_4b/output
I1019 23:01:59.321851 23975 net.cpp:163] Top shape: 16 512 20 20 (3276800)
I1019 23:01:59.321857 23975 layer_factory.hpp:76] Creating layer inception_4b/output_inception_4b/output_0_split
I1019 23:01:59.321866 23975 net.cpp:110] Creating Layer inception_4b/output_inception_4b/output_0_split
I1019 23:01:59.321872 23975 net.cpp:477] inception_4b/output_inception_4b/output_0_split <- inception_4b/output
I1019 23:01:59.321880 23975 net.cpp:433] inception_4b/output_inception_4b/output_0_split -> inception_4b/output_inception_4b/output_0_split_0
I1019 23:01:59.321888 23975 net.cpp:433] inception_4b/output_inception_4b/output_0_split -> inception_4b/output_inception_4b/output_0_split_1
I1019 23:01:59.321897 23975 net.cpp:433] inception_4b/output_inception_4b/output_0_split -> inception_4b/output_inception_4b/output_0_split_2
I1019 23:01:59.321905 23975 net.cpp:433] inception_4b/output_inception_4b/output_0_split -> inception_4b/output_inception_4b/output_0_split_3
I1019 23:01:59.321914 23975 net.cpp:155] Setting up inception_4b/output_inception_4b/output_0_split
I1019 23:01:59.321921 23975 net.cpp:163] Top shape: 16 512 20 20 (3276800)
I1019 23:01:59.321928 23975 net.cpp:163] Top shape: 16 512 20 20 (3276800)
I1019 23:01:59.321934 23975 net.cpp:163] Top shape: 16 512 20 20 (3276800)
I1019 23:01:59.321940 23975 net.cpp:163] Top shape: 16 512 20 20 (3276800)
I1019 23:01:59.321946 23975 layer_factory.hpp:76] Creating layer inception_4c/1x1
I1019 23:01:59.321954 23975 net.cpp:110] Creating Layer inception_4c/1x1
I1019 23:01:59.321960 23975 net.cpp:477] inception_4c/1x1 <- inception_4b/output_inception_4b/output_0_split_0
I1019 23:01:59.321969 23975 net.cpp:433] inception_4c/1x1 -> inception_4c/1x1
I1019 23:01:59.322320 23975 net.cpp:155] Setting up inception_4c/1x1
I1019 23:01:59.322337 23975 net.cpp:163] Top shape: 16 128 20 20 (819200)
I1019 23:01:59.322347 23975 layer_factory.hpp:76] Creating layer inception_4c/relu_1x1
I1019 23:01:59.322355 23975 net.cpp:110] Creating Layer inception_4c/relu_1x1
I1019 23:01:59.322362 23975 net.cpp:477] inception_4c/relu_1x1 <- inception_4c/1x1
I1019 23:01:59.322370 23975 net.cpp:419] inception_4c/relu_1x1 -> inception_4c/1x1 (in-place)
I1019 23:01:59.322424 23975 net.cpp:155] Setting up inception_4c/relu_1x1
I1019 23:01:59.322434 23975 net.cpp:163] Top shape: 16 128 20 20 (819200)
I1019 23:01:59.322440 23975 layer_factory.hpp:76] Creating layer inception_4c/3x3_reduce
I1019 23:01:59.322453 23975 net.cpp:110] Creating Layer inception_4c/3x3_reduce
I1019 23:01:59.322459 23975 net.cpp:477] inception_4c/3x3_reduce <- inception_4b/output_inception_4b/output_0_split_1
I1019 23:01:59.322468 23975 net.cpp:433] inception_4c/3x3_reduce -> inception_4c/3x3_reduce
I1019 23:01:59.322808 23975 net.cpp:155] Setting up inception_4c/3x3_reduce
I1019 23:01:59.322821 23975 net.cpp:163] Top shape: 16 128 20 20 (819200)
I1019 23:01:59.322830 23975 layer_factory.hpp:76] Creating layer inception_4c/relu_3x3_reduce
I1019 23:01:59.322839 23975 net.cpp:110] Creating Layer inception_4c/relu_3x3_reduce
I1019 23:01:59.322845 23975 net.cpp:477] inception_4c/relu_3x3_reduce <- inception_4c/3x3_reduce
I1019 23:01:59.322854 23975 net.cpp:419] inception_4c/relu_3x3_reduce -> inception_4c/3x3_reduce (in-place)
I1019 23:01:59.322907 23975 net.cpp:155] Setting up inception_4c/relu_3x3_reduce
I1019 23:01:59.322917 23975 net.cpp:163] Top shape: 16 128 20 20 (819200)
I1019 23:01:59.322923 23975 layer_factory.hpp:76] Creating layer inception_4c/3x3
I1019 23:01:59.322932 23975 net.cpp:110] Creating Layer inception_4c/3x3
I1019 23:01:59.322938 23975 net.cpp:477] inception_4c/3x3 <- inception_4c/3x3_reduce
I1019 23:01:59.322949 23975 net.cpp:433] inception_4c/3x3 -> inception_4c/3x3
I1019 23:01:59.323983 23975 net.cpp:155] Setting up inception_4c/3x3
I1019 23:01:59.323997 23975 net.cpp:163] Top shape: 16 256 20 20 (1638400)
I1019 23:01:59.324007 23975 layer_factory.hpp:76] Creating layer inception_4c/relu_3x3
I1019 23:01:59.324019 23975 net.cpp:110] Creating Layer inception_4c/relu_3x3
I1019 23:01:59.324034 23975 net.cpp:477] inception_4c/relu_3x3 <- inception_4c/3x3
I1019 23:01:59.324043 23975 net.cpp:419] inception_4c/relu_3x3 -> inception_4c/3x3 (in-place)
I1019 23:01:59.324097 23975 net.cpp:155] Setting up inception_4c/relu_3x3
I1019 23:01:59.324107 23975 net.cpp:163] Top shape: 16 256 20 20 (1638400)
I1019 23:01:59.324115 23975 layer_factory.hpp:76] Creating layer inception_4c/5x5_reduce
I1019 23:01:59.324123 23975 net.cpp:110] Creating Layer inception_4c/5x5_reduce
I1019 23:01:59.324129 23975 net.cpp:477] inception_4c/5x5_reduce <- inception_4b/output_inception_4b/output_0_split_2
I1019 23:01:59.324137 23975 net.cpp:433] inception_4c/5x5_reduce -> inception_4c/5x5_reduce
I1019 23:01:59.324462 23975 net.cpp:155] Setting up inception_4c/5x5_reduce
I1019 23:01:59.324476 23975 net.cpp:163] Top shape: 16 24 20 20 (153600)
I1019 23:01:59.324484 23975 layer_factory.hpp:76] Creating layer inception_4c/relu_5x5_reduce
I1019 23:01:59.324492 23975 net.cpp:110] Creating Layer inception_4c/relu_5x5_reduce
I1019 23:01:59.324499 23975 net.cpp:477] inception_4c/relu_5x5_reduce <- inception_4c/5x5_reduce
I1019 23:01:59.324506 23975 net.cpp:419] inception_4c/relu_5x5_reduce -> inception_4c/5x5_reduce (in-place)
I1019 23:01:59.324677 23975 net.cpp:155] Setting up inception_4c/relu_5x5_reduce
I1019 23:01:59.324690 23975 net.cpp:163] Top shape: 16 24 20 20 (153600)
I1019 23:01:59.324697 23975 layer_factory.hpp:76] Creating layer inception_4c/5x5
I1019 23:01:59.324707 23975 net.cpp:110] Creating Layer inception_4c/5x5
I1019 23:01:59.324713 23975 net.cpp:477] inception_4c/5x5 <- inception_4c/5x5_reduce
I1019 23:01:59.324722 23975 net.cpp:433] inception_4c/5x5 -> inception_4c/5x5
I1019 23:01:59.325062 23975 net.cpp:155] Setting up inception_4c/5x5
I1019 23:01:59.325076 23975 net.cpp:163] Top shape: 16 64 20 20 (409600)
I1019 23:01:59.325085 23975 layer_factory.hpp:76] Creating layer inception_4c/relu_5x5
I1019 23:01:59.325093 23975 net.cpp:110] Creating Layer inception_4c/relu_5x5
I1019 23:01:59.325100 23975 net.cpp:477] inception_4c/relu_5x5 <- inception_4c/5x5
I1019 23:01:59.325108 23975 net.cpp:419] inception_4c/relu_5x5 -> inception_4c/5x5 (in-place)
I1019 23:01:59.325165 23975 net.cpp:155] Setting up inception_4c/relu_5x5
I1019 23:01:59.325176 23975 net.cpp:163] Top shape: 16 64 20 20 (409600)
I1019 23:01:59.325181 23975 layer_factory.hpp:76] Creating layer inception_4c/pool
I1019 23:01:59.325188 23975 layer_factory.cpp:60] CUDNN does not support padding or multiple tops. Using Caffe's own pooling layer.
I1019 23:01:59.325196 23975 net.cpp:110] Creating Layer inception_4c/pool
I1019 23:01:59.325202 23975 net.cpp:477] inception_4c/pool <- inception_4b/output_inception_4b/output_0_split_3
I1019 23:01:59.325211 23975 net.cpp:433] inception_4c/pool -> inception_4c/pool
I1019 23:01:59.325220 23975 net.cpp:155] Setting up inception_4c/pool
I1019 23:01:59.325228 23975 net.cpp:163] Top shape: 16 512 20 20 (3276800)
I1019 23:01:59.325233 23975 layer_factory.hpp:76] Creating layer inception_4c/pool_proj
I1019 23:01:59.325242 23975 net.cpp:110] Creating Layer inception_4c/pool_proj
I1019 23:01:59.325248 23975 net.cpp:477] inception_4c/pool_proj <- inception_4c/pool
I1019 23:01:59.325256 23975 net.cpp:433] inception_4c/pool_proj -> inception_4c/pool_proj
I1019 23:01:59.326107 23975 net.cpp:155] Setting up inception_4c/pool_proj
I1019 23:01:59.326124 23975 net.cpp:163] Top shape: 16 64 20 20 (409600)
I1019 23:01:59.326140 23975 layer_factory.hpp:76] Creating layer inception_4c/relu_pool_proj
I1019 23:01:59.326149 23975 net.cpp:110] Creating Layer inception_4c/relu_pool_proj
I1019 23:01:59.326155 23975 net.cpp:477] inception_4c/relu_pool_proj <- inception_4c/pool_proj
I1019 23:01:59.326164 23975 net.cpp:419] inception_4c/relu_pool_proj -> inception_4c/pool_proj (in-place)
I1019 23:01:59.326218 23975 net.cpp:155] Setting up inception_4c/relu_pool_proj
I1019 23:01:59.326228 23975 net.cpp:163] Top shape: 16 64 20 20 (409600)
I1019 23:01:59.326241 23975 layer_factory.hpp:76] Creating layer inception_4c/output
I1019 23:01:59.326256 23975 net.cpp:110] Creating Layer inception_4c/output
I1019 23:01:59.326263 23975 net.cpp:477] inception_4c/output <- inception_4c/1x1
I1019 23:01:59.326272 23975 net.cpp:477] inception_4c/output <- inception_4c/3x3
I1019 23:01:59.326278 23975 net.cpp:477] inception_4c/output <- inception_4c/5x5
I1019 23:01:59.326284 23975 net.cpp:477] inception_4c/output <- inception_4c/pool_proj
I1019 23:01:59.326292 23975 net.cpp:433] inception_4c/output -> inception_4c/output
I1019 23:01:59.326302 23975 net.cpp:155] Setting up inception_4c/output
I1019 23:01:59.326309 23975 net.cpp:163] Top shape: 16 512 20 20 (3276800)
I1019 23:01:59.326315 23975 layer_factory.hpp:76] Creating layer inception_4c/output_inception_4c/output_0_split
I1019 23:01:59.326323 23975 net.cpp:110] Creating Layer inception_4c/output_inception_4c/output_0_split
I1019 23:01:59.326329 23975 net.cpp:477] inception_4c/output_inception_4c/output_0_split <- inception_4c/output
I1019 23:01:59.326338 23975 net.cpp:433] inception_4c/output_inception_4c/output_0_split -> inception_4c/output_inception_4c/output_0_split_0
I1019 23:01:59.326345 23975 net.cpp:433] inception_4c/output_inception_4c/output_0_split -> inception_4c/output_inception_4c/output_0_split_1
I1019 23:01:59.326354 23975 net.cpp:433] inception_4c/output_inception_4c/output_0_split -> inception_4c/output_inception_4c/output_0_split_2
I1019 23:01:59.326364 23975 net.cpp:433] inception_4c/output_inception_4c/output_0_split -> inception_4c/output_inception_4c/output_0_split_3
I1019 23:01:59.326372 23975 net.cpp:155] Setting up inception_4c/output_inception_4c/output_0_split
I1019 23:01:59.326380 23975 net.cpp:163] Top shape: 16 512 20 20 (3276800)
I1019 23:01:59.326385 23975 net.cpp:163] Top shape: 16 512 20 20 (3276800)
I1019 23:01:59.326392 23975 net.cpp:163] Top shape: 16 512 20 20 (3276800)
I1019 23:01:59.326398 23975 net.cpp:163] Top shape: 16 512 20 20 (3276800)
I1019 23:01:59.326405 23975 layer_factory.hpp:76] Creating layer inception_4d/1x1
I1019 23:01:59.326412 23975 net.cpp:110] Creating Layer inception_4d/1x1
I1019 23:01:59.326418 23975 net.cpp:477] inception_4d/1x1 <- inception_4c/output_inception_4c/output_0_split_0
I1019 23:01:59.326426 23975 net.cpp:433] inception_4d/1x1 -> inception_4d/1x1
I1019 23:01:59.326776 23975 net.cpp:155] Setting up inception_4d/1x1
I1019 23:01:59.326789 23975 net.cpp:163] Top shape: 16 112 20 20 (716800)
I1019 23:01:59.326798 23975 layer_factory.hpp:76] Creating layer inception_4d/relu_1x1
I1019 23:01:59.326807 23975 net.cpp:110] Creating Layer inception_4d/relu_1x1
I1019 23:01:59.326813 23975 net.cpp:477] inception_4d/relu_1x1 <- inception_4d/1x1
I1019 23:01:59.326820 23975 net.cpp:419] inception_4d/relu_1x1 -> inception_4d/1x1 (in-place)
I1019 23:01:59.326874 23975 net.cpp:155] Setting up inception_4d/relu_1x1
I1019 23:01:59.326884 23975 net.cpp:163] Top shape: 16 112 20 20 (716800)
I1019 23:01:59.326890 23975 layer_factory.hpp:76] Creating layer inception_4d/3x3_reduce
I1019 23:01:59.326900 23975 net.cpp:110] Creating Layer inception_4d/3x3_reduce
I1019 23:01:59.326905 23975 net.cpp:477] inception_4d/3x3_reduce <- inception_4c/output_inception_4c/output_0_split_1
I1019 23:01:59.326915 23975 net.cpp:433] inception_4d/3x3_reduce -> inception_4d/3x3_reduce
I1019 23:01:59.327268 23975 net.cpp:155] Setting up inception_4d/3x3_reduce
I1019 23:01:59.327281 23975 net.cpp:163] Top shape: 16 144 20 20 (921600)
I1019 23:01:59.327291 23975 layer_factory.hpp:76] Creating layer inception_4d/relu_3x3_reduce
I1019 23:01:59.327298 23975 net.cpp:110] Creating Layer inception_4d/relu_3x3_reduce
I1019 23:01:59.327306 23975 net.cpp:477] inception_4d/relu_3x3_reduce <- inception_4d/3x3_reduce
I1019 23:01:59.327312 23975 net.cpp:419] inception_4d/relu_3x3_reduce -> inception_4d/3x3_reduce (in-place)
I1019 23:01:59.327481 23975 net.cpp:155] Setting up inception_4d/relu_3x3_reduce
I1019 23:01:59.327492 23975 net.cpp:163] Top shape: 16 144 20 20 (921600)
I1019 23:01:59.327504 23975 layer_factory.hpp:76] Creating layer inception_4d/3x3
I1019 23:01:59.327517 23975 net.cpp:110] Creating Layer inception_4d/3x3
I1019 23:01:59.327524 23975 net.cpp:477] inception_4d/3x3 <- inception_4d/3x3_reduce
I1019 23:01:59.327533 23975 net.cpp:433] inception_4d/3x3 -> inception_4d/3x3
I1019 23:01:59.328716 23975 net.cpp:155] Setting up inception_4d/3x3
I1019 23:01:59.328730 23975 net.cpp:163] Top shape: 16 288 20 20 (1843200)
I1019 23:01:59.328739 23975 layer_factory.hpp:76] Creating layer inception_4d/relu_3x3
I1019 23:01:59.328747 23975 net.cpp:110] Creating Layer inception_4d/relu_3x3
I1019 23:01:59.328754 23975 net.cpp:477] inception_4d/relu_3x3 <- inception_4d/3x3
I1019 23:01:59.328763 23975 net.cpp:419] inception_4d/relu_3x3 -> inception_4d/3x3 (in-place)
I1019 23:01:59.328815 23975 net.cpp:155] Setting up inception_4d/relu_3x3
I1019 23:01:59.328824 23975 net.cpp:163] Top shape: 16 288 20 20 (1843200)
I1019 23:01:59.328831 23975 layer_factory.hpp:76] Creating layer inception_4d/5x5_reduce
I1019 23:01:59.328840 23975 net.cpp:110] Creating Layer inception_4d/5x5_reduce
I1019 23:01:59.328845 23975 net.cpp:477] inception_4d/5x5_reduce <- inception_4c/output_inception_4c/output_0_split_2
I1019 23:01:59.328853 23975 net.cpp:433] inception_4d/5x5_reduce -> inception_4d/5x5_reduce
I1019 23:01:59.329188 23975 net.cpp:155] Setting up inception_4d/5x5_reduce
I1019 23:01:59.329201 23975 net.cpp:163] Top shape: 16 32 20 20 (204800)
I1019 23:01:59.329210 23975 layer_factory.hpp:76] Creating layer inception_4d/relu_5x5_reduce
I1019 23:01:59.329218 23975 net.cpp:110] Creating Layer inception_4d/relu_5x5_reduce
I1019 23:01:59.329226 23975 net.cpp:477] inception_4d/relu_5x5_reduce <- inception_4d/5x5_reduce
I1019 23:01:59.329232 23975 net.cpp:419] inception_4d/relu_5x5_reduce -> inception_4d/5x5_reduce (in-place)
I1019 23:01:59.329287 23975 net.cpp:155] Setting up inception_4d/relu_5x5_reduce
I1019 23:01:59.329296 23975 net.cpp:163] Top shape: 16 32 20 20 (204800)
I1019 23:01:59.329303 23975 layer_factory.hpp:76] Creating layer inception_4d/5x5
I1019 23:01:59.329311 23975 net.cpp:110] Creating Layer inception_4d/5x5
I1019 23:01:59.329318 23975 net.cpp:477] inception_4d/5x5 <- inception_4d/5x5_reduce
I1019 23:01:59.329325 23975 net.cpp:433] inception_4d/5x5 -> inception_4d/5x5
I1019 23:01:59.329668 23975 net.cpp:155] Setting up inception_4d/5x5
I1019 23:01:59.329681 23975 net.cpp:163] Top shape: 16 64 20 20 (409600)
I1019 23:01:59.329690 23975 layer_factory.hpp:76] Creating layer inception_4d/relu_5x5
I1019 23:01:59.329699 23975 net.cpp:110] Creating Layer inception_4d/relu_5x5
I1019 23:01:59.329704 23975 net.cpp:477] inception_4d/relu_5x5 <- inception_4d/5x5
I1019 23:01:59.329712 23975 net.cpp:419] inception_4d/relu_5x5 -> inception_4d/5x5 (in-place)
I1019 23:01:59.329885 23975 net.cpp:155] Setting up inception_4d/relu_5x5
I1019 23:01:59.329901 23975 net.cpp:163] Top shape: 16 64 20 20 (409600)
I1019 23:01:59.329908 23975 layer_factory.hpp:76] Creating layer inception_4d/pool
I1019 23:01:59.329916 23975 layer_factory.cpp:60] CUDNN does not support padding or multiple tops. Using Caffe's own pooling layer.
I1019 23:01:59.329922 23975 net.cpp:110] Creating Layer inception_4d/pool
I1019 23:01:59.329929 23975 net.cpp:477] inception_4d/pool <- inception_4c/output_inception_4c/output_0_split_3
I1019 23:01:59.329937 23975 net.cpp:433] inception_4d/pool -> inception_4d/pool
I1019 23:01:59.329948 23975 net.cpp:155] Setting up inception_4d/pool
I1019 23:01:59.329955 23975 net.cpp:163] Top shape: 16 512 20 20 (3276800)
I1019 23:01:59.329962 23975 layer_factory.hpp:76] Creating layer inception_4d/pool_proj
I1019 23:01:59.329970 23975 net.cpp:110] Creating Layer inception_4d/pool_proj
I1019 23:01:59.329977 23975 net.cpp:477] inception_4d/pool_proj <- inception_4d/pool
I1019 23:01:59.329984 23975 net.cpp:433] inception_4d/pool_proj -> inception_4d/pool_proj
I1019 23:01:59.330334 23975 net.cpp:155] Setting up inception_4d/pool_proj
I1019 23:01:59.330351 23975 net.cpp:163] Top shape: 16 64 20 20 (409600)
I1019 23:01:59.330360 23975 layer_factory.hpp:76] Creating layer inception_4d/relu_pool_proj
I1019 23:01:59.330379 23975 net.cpp:110] Creating Layer inception_4d/relu_pool_proj
I1019 23:01:59.330390 23975 net.cpp:477] inception_4d/relu_pool_proj <- inception_4d/pool_proj
I1019 23:01:59.330400 23975 net.cpp:419] inception_4d/relu_pool_proj -> inception_4d/pool_proj (in-place)
I1019 23:01:59.330466 23975 net.cpp:155] Setting up inception_4d/relu_pool_proj
I1019 23:01:59.330476 23975 net.cpp:163] Top shape: 16 64 20 20 (409600)
I1019 23:01:59.330482 23975 layer_factory.hpp:76] Creating layer inception_4d/output
I1019 23:01:59.330492 23975 net.cpp:110] Creating Layer inception_4d/output
I1019 23:01:59.330498 23975 net.cpp:477] inception_4d/output <- inception_4d/1x1
I1019 23:01:59.330505 23975 net.cpp:477] inception_4d/output <- inception_4d/3x3
I1019 23:01:59.330513 23975 net.cpp:477] inception_4d/output <- inception_4d/5x5
I1019 23:01:59.330518 23975 net.cpp:477] inception_4d/output <- inception_4d/pool_proj
I1019 23:01:59.330525 23975 net.cpp:433] inception_4d/output -> inception_4d/output
I1019 23:01:59.330535 23975 net.cpp:155] Setting up inception_4d/output
I1019 23:01:59.330543 23975 net.cpp:163] Top shape: 16 528 20 20 (3379200)
I1019 23:01:59.330549 23975 layer_factory.hpp:76] Creating layer inception_4d/output_inception_4d/output_0_split
I1019 23:01:59.330559 23975 net.cpp:110] Creating Layer inception_4d/output_inception_4d/output_0_split
I1019 23:01:59.330566 23975 net.cpp:477] inception_4d/output_inception_4d/output_0_split <- inception_4d/output
I1019 23:01:59.330574 23975 net.cpp:433] inception_4d/output_inception_4d/output_0_split -> inception_4d/output_inception_4d/output_0_split_0
I1019 23:01:59.330582 23975 net.cpp:433] inception_4d/output_inception_4d/output_0_split -> inception_4d/output_inception_4d/output_0_split_1
I1019 23:01:59.330591 23975 net.cpp:433] inception_4d/output_inception_4d/output_0_split -> inception_4d/output_inception_4d/output_0_split_2
I1019 23:01:59.330600 23975 net.cpp:433] inception_4d/output_inception_4d/output_0_split -> inception_4d/output_inception_4d/output_0_split_3
I1019 23:01:59.330610 23975 net.cpp:155] Setting up inception_4d/output_inception_4d/output_0_split
I1019 23:01:59.330616 23975 net.cpp:163] Top shape: 16 528 20 20 (3379200)
I1019 23:01:59.330622 23975 net.cpp:163] Top shape: 16 528 20 20 (3379200)
I1019 23:01:59.330629 23975 net.cpp:163] Top shape: 16 528 20 20 (3379200)
I1019 23:01:59.330638 23975 net.cpp:163] Top shape: 16 528 20 20 (3379200)
I1019 23:01:59.330644 23975 layer_factory.hpp:76] Creating layer inception_4e/1x1
I1019 23:01:59.330654 23975 net.cpp:110] Creating Layer inception_4e/1x1
I1019 23:01:59.330662 23975 net.cpp:477] inception_4e/1x1 <- inception_4d/output_inception_4d/output_0_split_0
I1019 23:01:59.330672 23975 net.cpp:433] inception_4e/1x1 -> inception_4e/1x1
I1019 23:01:59.331603 23975 net.cpp:155] Setting up inception_4e/1x1
I1019 23:01:59.331621 23975 net.cpp:163] Top shape: 16 256 20 20 (1638400)
I1019 23:01:59.331630 23975 layer_factory.hpp:76] Creating layer inception_4e/relu_1x1
I1019 23:01:59.331640 23975 net.cpp:110] Creating Layer inception_4e/relu_1x1
I1019 23:01:59.331646 23975 net.cpp:477] inception_4e/relu_1x1 <- inception_4e/1x1
I1019 23:01:59.331653 23975 net.cpp:419] inception_4e/relu_1x1 -> inception_4e/1x1 (in-place)
I1019 23:01:59.331719 23975 net.cpp:155] Setting up inception_4e/relu_1x1
I1019 23:01:59.331730 23975 net.cpp:163] Top shape: 16 256 20 20 (1638400)
I1019 23:01:59.331737 23975 layer_factory.hpp:76] Creating layer inception_4e/3x3_reduce
I1019 23:01:59.331746 23975 net.cpp:110] Creating Layer inception_4e/3x3_reduce
I1019 23:01:59.331753 23975 net.cpp:477] inception_4e/3x3_reduce <- inception_4d/output_inception_4d/output_0_split_1
I1019 23:01:59.331761 23975 net.cpp:433] inception_4e/3x3_reduce -> inception_4e/3x3_reduce
I1019 23:01:59.332151 23975 net.cpp:155] Setting up inception_4e/3x3_reduce
I1019 23:01:59.332165 23975 net.cpp:163] Top shape: 16 160 20 20 (1024000)
I1019 23:01:59.332175 23975 layer_factory.hpp:76] Creating layer inception_4e/relu_3x3_reduce
I1019 23:01:59.332190 23975 net.cpp:110] Creating Layer inception_4e/relu_3x3_reduce
I1019 23:01:59.332201 23975 net.cpp:477] inception_4e/relu_3x3_reduce <- inception_4e/3x3_reduce
I1019 23:01:59.332209 23975 net.cpp:419] inception_4e/relu_3x3_reduce -> inception_4e/3x3_reduce (in-place)
I1019 23:01:59.332273 23975 net.cpp:155] Setting up inception_4e/relu_3x3_reduce
I1019 23:01:59.332283 23975 net.cpp:163] Top shape: 16 160 20 20 (1024000)
I1019 23:01:59.332288 23975 layer_factory.hpp:76] Creating layer inception_4e/3x3
I1019 23:01:59.332299 23975 net.cpp:110] Creating Layer inception_4e/3x3
I1019 23:01:59.332305 23975 net.cpp:477] inception_4e/3x3 <- inception_4e/3x3_reduce
I1019 23:01:59.332315 23975 net.cpp:433] inception_4e/3x3 -> inception_4e/3x3
I1019 23:01:59.333698 23975 net.cpp:155] Setting up inception_4e/3x3
I1019 23:01:59.333710 23975 net.cpp:163] Top shape: 16 320 20 20 (2048000)
I1019 23:01:59.333722 23975 layer_factory.hpp:76] Creating layer inception_4e/relu_3x3
I1019 23:01:59.333731 23975 net.cpp:110] Creating Layer inception_4e/relu_3x3
I1019 23:01:59.333737 23975 net.cpp:477] inception_4e/relu_3x3 <- inception_4e/3x3
I1019 23:01:59.333745 23975 net.cpp:419] inception_4e/relu_3x3 -> inception_4e/3x3 (in-place)
I1019 23:01:59.333930 23975 net.cpp:155] Setting up inception_4e/relu_3x3
I1019 23:01:59.333942 23975 net.cpp:163] Top shape: 16 320 20 20 (2048000)
I1019 23:01:59.333950 23975 layer_factory.hpp:76] Creating layer inception_4e/5x5_reduce
I1019 23:01:59.333961 23975 net.cpp:110] Creating Layer inception_4e/5x5_reduce
I1019 23:01:59.333967 23975 net.cpp:477] inception_4e/5x5_reduce <- inception_4d/output_inception_4d/output_0_split_2
I1019 23:01:59.333976 23975 net.cpp:433] inception_4e/5x5_reduce -> inception_4e/5x5_reduce
I1019 23:01:59.334331 23975 net.cpp:155] Setting up inception_4e/5x5_reduce
I1019 23:01:59.334347 23975 net.cpp:163] Top shape: 16 32 20 20 (204800)
I1019 23:01:59.334357 23975 layer_factory.hpp:76] Creating layer inception_4e/relu_5x5_reduce
I1019 23:01:59.334365 23975 net.cpp:110] Creating Layer inception_4e/relu_5x5_reduce
I1019 23:01:59.334372 23975 net.cpp:477] inception_4e/relu_5x5_reduce <- inception_4e/5x5_reduce
I1019 23:01:59.334381 23975 net.cpp:419] inception_4e/relu_5x5_reduce -> inception_4e/5x5_reduce (in-place)
I1019 23:01:59.334444 23975 net.cpp:155] Setting up inception_4e/relu_5x5_reduce
I1019 23:01:59.334455 23975 net.cpp:163] Top shape: 16 32 20 20 (204800)
I1019 23:01:59.334461 23975 layer_factory.hpp:76] Creating layer inception_4e/5x5
I1019 23:01:59.334471 23975 net.cpp:110] Creating Layer inception_4e/5x5
I1019 23:01:59.334478 23975 net.cpp:477] inception_4e/5x5 <- inception_4e/5x5_reduce
I1019 23:01:59.334488 23975 net.cpp:433] inception_4e/5x5 -> inception_4e/5x5
I1019 23:01:59.335400 23975 net.cpp:155] Setting up inception_4e/5x5
I1019 23:01:59.335414 23975 net.cpp:163] Top shape: 16 128 20 20 (819200)
I1019 23:01:59.335427 23975 layer_factory.hpp:76] Creating layer inception_4e/relu_5x5
I1019 23:01:59.335435 23975 net.cpp:110] Creating Layer inception_4e/relu_5x5
I1019 23:01:59.335443 23975 net.cpp:477] inception_4e/relu_5x5 <- inception_4e/5x5
I1019 23:01:59.335451 23975 net.cpp:419] inception_4e/relu_5x5 -> inception_4e/5x5 (in-place)
I1019 23:01:59.335516 23975 net.cpp:155] Setting up inception_4e/relu_5x5
I1019 23:01:59.335527 23975 net.cpp:163] Top shape: 16 128 20 20 (819200)
I1019 23:01:59.335533 23975 layer_factory.hpp:76] Creating layer inception_4e/pool
I1019 23:01:59.335539 23975 layer_factory.cpp:60] CUDNN does not support padding or multiple tops. Using Caffe's own pooling layer.
I1019 23:01:59.335547 23975 net.cpp:110] Creating Layer inception_4e/pool
I1019 23:01:59.335553 23975 net.cpp:477] inception_4e/pool <- inception_4d/output_inception_4d/output_0_split_3
I1019 23:01:59.335564 23975 net.cpp:433] inception_4e/pool -> inception_4e/pool
I1019 23:01:59.335575 23975 net.cpp:155] Setting up inception_4e/pool
I1019 23:01:59.335582 23975 net.cpp:163] Top shape: 16 528 20 20 (3379200)
I1019 23:01:59.335588 23975 layer_factory.hpp:76] Creating layer inception_4e/pool_proj
I1019 23:01:59.335609 23975 net.cpp:110] Creating Layer inception_4e/pool_proj
I1019 23:01:59.335616 23975 net.cpp:477] inception_4e/pool_proj <- inception_4e/pool
I1019 23:01:59.335628 23975 net.cpp:433] inception_4e/pool_proj -> inception_4e/pool_proj
I1019 23:01:59.335994 23975 net.cpp:155] Setting up inception_4e/pool_proj
I1019 23:01:59.336007 23975 net.cpp:163] Top shape: 16 128 20 20 (819200)
I1019 23:01:59.336016 23975 layer_factory.hpp:76] Creating layer inception_4e/relu_pool_proj
I1019 23:01:59.336024 23975 net.cpp:110] Creating Layer inception_4e/relu_pool_proj
I1019 23:01:59.336031 23975 net.cpp:477] inception_4e/relu_pool_proj <- inception_4e/pool_proj
I1019 23:01:59.336041 23975 net.cpp:419] inception_4e/relu_pool_proj -> inception_4e/pool_proj (in-place)
I1019 23:01:59.336105 23975 net.cpp:155] Setting up inception_4e/relu_pool_proj
I1019 23:01:59.336115 23975 net.cpp:163] Top shape: 16 128 20 20 (819200)
I1019 23:01:59.336122 23975 layer_factory.hpp:76] Creating layer inception_4e/output
I1019 23:01:59.336132 23975 net.cpp:110] Creating Layer inception_4e/output
I1019 23:01:59.336138 23975 net.cpp:477] inception_4e/output <- inception_4e/1x1
I1019 23:01:59.336145 23975 net.cpp:477] inception_4e/output <- inception_4e/3x3
I1019 23:01:59.336153 23975 net.cpp:477] inception_4e/output <- inception_4e/5x5
I1019 23:01:59.336158 23975 net.cpp:477] inception_4e/output <- inception_4e/pool_proj
I1019 23:01:59.336165 23975 net.cpp:433] inception_4e/output -> inception_4e/output
I1019 23:01:59.336175 23975 net.cpp:155] Setting up inception_4e/output
I1019 23:01:59.336184 23975 net.cpp:163] Top shape: 16 832 20 20 (5324800)
I1019 23:01:59.336189 23975 layer_factory.hpp:76] Creating layer pool4/3x3_s2
I1019 23:01:59.336199 23975 net.cpp:110] Creating Layer pool4/3x3_s2
I1019 23:01:59.336206 23975 net.cpp:477] pool4/3x3_s2 <- inception_4e/output
I1019 23:01:59.336215 23975 net.cpp:433] pool4/3x3_s2 -> pool4/3x3_s2
I1019 23:01:59.336395 23975 net.cpp:155] Setting up pool4/3x3_s2
I1019 23:01:59.336406 23975 net.cpp:163] Top shape: 16 832 10 10 (1331200)
I1019 23:01:59.336413 23975 layer_factory.hpp:76] Creating layer pool4/3x3_s2_pool4/3x3_s2_0_split
I1019 23:01:59.336426 23975 net.cpp:110] Creating Layer pool4/3x3_s2_pool4/3x3_s2_0_split
I1019 23:01:59.336432 23975 net.cpp:477] pool4/3x3_s2_pool4/3x3_s2_0_split <- pool4/3x3_s2
I1019 23:01:59.336441 23975 net.cpp:433] pool4/3x3_s2_pool4/3x3_s2_0_split -> pool4/3x3_s2_pool4/3x3_s2_0_split_0
I1019 23:01:59.336449 23975 net.cpp:433] pool4/3x3_s2_pool4/3x3_s2_0_split -> pool4/3x3_s2_pool4/3x3_s2_0_split_1
I1019 23:01:59.336460 23975 net.cpp:433] pool4/3x3_s2_pool4/3x3_s2_0_split -> pool4/3x3_s2_pool4/3x3_s2_0_split_2
I1019 23:01:59.336469 23975 net.cpp:433] pool4/3x3_s2_pool4/3x3_s2_0_split -> pool4/3x3_s2_pool4/3x3_s2_0_split_3
I1019 23:01:59.336478 23975 net.cpp:155] Setting up pool4/3x3_s2_pool4/3x3_s2_0_split
I1019 23:01:59.336485 23975 net.cpp:163] Top shape: 16 832 10 10 (1331200)
I1019 23:01:59.336493 23975 net.cpp:163] Top shape: 16 832 10 10 (1331200)
I1019 23:01:59.336498 23975 net.cpp:163] Top shape: 16 832 10 10 (1331200)
I1019 23:01:59.336504 23975 net.cpp:163] Top shape: 16 832 10 10 (1331200)
I1019 23:01:59.336510 23975 layer_factory.hpp:76] Creating layer inception_5a/1x1
I1019 23:01:59.336519 23975 net.cpp:110] Creating Layer inception_5a/1x1
I1019 23:01:59.336524 23975 net.cpp:477] inception_5a/1x1 <- pool4/3x3_s2_pool4/3x3_s2_0_split_0
I1019 23:01:59.336534 23975 net.cpp:433] inception_5a/1x1 -> inception_5a/1x1
I1019 23:01:59.337498 23975 net.cpp:155] Setting up inception_5a/1x1
I1019 23:01:59.337512 23975 net.cpp:163] Top shape: 16 256 10 10 (409600)
I1019 23:01:59.337520 23975 layer_factory.hpp:76] Creating layer inception_5a/relu_1x1
I1019 23:01:59.337529 23975 net.cpp:110] Creating Layer inception_5a/relu_1x1
I1019 23:01:59.337535 23975 net.cpp:477] inception_5a/relu_1x1 <- inception_5a/1x1
I1019 23:01:59.337543 23975 net.cpp:419] inception_5a/relu_1x1 -> inception_5a/1x1 (in-place)
I1019 23:01:59.337612 23975 net.cpp:155] Setting up inception_5a/relu_1x1
I1019 23:01:59.337630 23975 net.cpp:163] Top shape: 16 256 10 10 (409600)
I1019 23:01:59.337635 23975 layer_factory.hpp:76] Creating layer inception_5a/3x3_reduce
I1019 23:01:59.337646 23975 net.cpp:110] Creating Layer inception_5a/3x3_reduce
I1019 23:01:59.337653 23975 net.cpp:477] inception_5a/3x3_reduce <- pool4/3x3_s2_pool4/3x3_s2_0_split_1
I1019 23:01:59.337661 23975 net.cpp:433] inception_5a/3x3_reduce -> inception_5a/3x3_reduce
I1019 23:01:59.338608 23975 net.cpp:155] Setting up inception_5a/3x3_reduce
I1019 23:01:59.338625 23975 net.cpp:163] Top shape: 16 160 10 10 (256000)
I1019 23:01:59.338634 23975 layer_factory.hpp:76] Creating layer inception_5a/relu_3x3_reduce
I1019 23:01:59.338644 23975 net.cpp:110] Creating Layer inception_5a/relu_3x3_reduce
I1019 23:01:59.338649 23975 net.cpp:477] inception_5a/relu_3x3_reduce <- inception_5a/3x3_reduce
I1019 23:01:59.338657 23975 net.cpp:419] inception_5a/relu_3x3_reduce -> inception_5a/3x3_reduce (in-place)
I1019 23:01:59.338721 23975 net.cpp:155] Setting up inception_5a/relu_3x3_reduce
I1019 23:01:59.338731 23975 net.cpp:163] Top shape: 16 160 10 10 (256000)
I1019 23:01:59.338737 23975 layer_factory.hpp:76] Creating layer inception_5a/3x3
I1019 23:01:59.338745 23975 net.cpp:110] Creating Layer inception_5a/3x3
I1019 23:01:59.338752 23975 net.cpp:477] inception_5a/3x3 <- inception_5a/3x3_reduce
I1019 23:01:59.338762 23975 net.cpp:433] inception_5a/3x3 -> inception_5a/3x3
I1019 23:01:59.340173 23975 net.cpp:155] Setting up inception_5a/3x3
I1019 23:01:59.340186 23975 net.cpp:163] Top shape: 16 320 10 10 (512000)
I1019 23:01:59.340195 23975 layer_factory.hpp:76] Creating layer inception_5a/relu_3x3
I1019 23:01:59.340204 23975 net.cpp:110] Creating Layer inception_5a/relu_3x3
I1019 23:01:59.340210 23975 net.cpp:477] inception_5a/relu_3x3 <- inception_5a/3x3
I1019 23:01:59.340220 23975 net.cpp:419] inception_5a/relu_3x3 -> inception_5a/3x3 (in-place)
I1019 23:01:59.340286 23975 net.cpp:155] Setting up inception_5a/relu_3x3
I1019 23:01:59.340296 23975 net.cpp:163] Top shape: 16 320 10 10 (512000)
I1019 23:01:59.340302 23975 layer_factory.hpp:76] Creating layer inception_5a/5x5_reduce
I1019 23:01:59.340312 23975 net.cpp:110] Creating Layer inception_5a/5x5_reduce
I1019 23:01:59.340319 23975 net.cpp:477] inception_5a/5x5_reduce <- pool4/3x3_s2_pool4/3x3_s2_0_split_2
I1019 23:01:59.340327 23975 net.cpp:433] inception_5a/5x5_reduce -> inception_5a/5x5_reduce
I1019 23:01:59.340682 23975 net.cpp:155] Setting up inception_5a/5x5_reduce
I1019 23:01:59.340698 23975 net.cpp:163] Top shape: 16 32 10 10 (51200)
I1019 23:01:59.340706 23975 layer_factory.hpp:76] Creating layer inception_5a/relu_5x5_reduce
I1019 23:01:59.340714 23975 net.cpp:110] Creating Layer inception_5a/relu_5x5_reduce
I1019 23:01:59.340721 23975 net.cpp:477] inception_5a/relu_5x5_reduce <- inception_5a/5x5_reduce
I1019 23:01:59.340729 23975 net.cpp:419] inception_5a/relu_5x5_reduce -> inception_5a/5x5_reduce (in-place)
I1019 23:01:59.340911 23975 net.cpp:155] Setting up inception_5a/relu_5x5_reduce
I1019 23:01:59.340924 23975 net.cpp:163] Top shape: 16 32 10 10 (51200)
I1019 23:01:59.340930 23975 layer_factory.hpp:76] Creating layer inception_5a/5x5
I1019 23:01:59.340939 23975 net.cpp:110] Creating Layer inception_5a/5x5
I1019 23:01:59.340946 23975 net.cpp:477] inception_5a/5x5 <- inception_5a/5x5_reduce
I1019 23:01:59.340957 23975 net.cpp:433] inception_5a/5x5 -> inception_5a/5x5
I1019 23:01:59.341356 23975 net.cpp:155] Setting up inception_5a/5x5
I1019 23:01:59.341368 23975 net.cpp:163] Top shape: 16 128 10 10 (204800)
I1019 23:01:59.341377 23975 layer_factory.hpp:76] Creating layer inception_5a/relu_5x5
I1019 23:01:59.341385 23975 net.cpp:110] Creating Layer inception_5a/relu_5x5
I1019 23:01:59.341392 23975 net.cpp:477] inception_5a/relu_5x5 <- inception_5a/5x5
I1019 23:01:59.341401 23975 net.cpp:419] inception_5a/relu_5x5 -> inception_5a/5x5 (in-place)
I1019 23:01:59.341464 23975 net.cpp:155] Setting up inception_5a/relu_5x5
I1019 23:01:59.341475 23975 net.cpp:163] Top shape: 16 128 10 10 (204800)
I1019 23:01:59.341492 23975 layer_factory.hpp:76] Creating layer inception_5a/pool
I1019 23:01:59.341500 23975 layer_factory.cpp:60] CUDNN does not support padding or multiple tops. Using Caffe's own pooling layer.
I1019 23:01:59.341522 23975 net.cpp:110] Creating Layer inception_5a/pool
I1019 23:01:59.341529 23975 net.cpp:477] inception_5a/pool <- pool4/3x3_s2_pool4/3x3_s2_0_split_3
I1019 23:01:59.341538 23975 net.cpp:433] inception_5a/pool -> inception_5a/pool
I1019 23:01:59.341548 23975 net.cpp:155] Setting up inception_5a/pool
I1019 23:01:59.341559 23975 net.cpp:163] Top shape: 16 832 10 10 (1331200)
I1019 23:01:59.341565 23975 layer_factory.hpp:76] Creating layer inception_5a/pool_proj
I1019 23:01:59.341574 23975 net.cpp:110] Creating Layer inception_5a/pool_proj
I1019 23:01:59.341580 23975 net.cpp:477] inception_5a/pool_proj <- inception_5a/pool
I1019 23:01:59.341588 23975 net.cpp:433] inception_5a/pool_proj -> inception_5a/pool_proj
I1019 23:01:59.342514 23975 net.cpp:155] Setting up inception_5a/pool_proj
I1019 23:01:59.342533 23975 net.cpp:163] Top shape: 16 128 10 10 (204800)
I1019 23:01:59.342543 23975 layer_factory.hpp:76] Creating layer inception_5a/relu_pool_proj
I1019 23:01:59.342551 23975 net.cpp:110] Creating Layer inception_5a/relu_pool_proj
I1019 23:01:59.342558 23975 net.cpp:477] inception_5a/relu_pool_proj <- inception_5a/pool_proj
I1019 23:01:59.342566 23975 net.cpp:419] inception_5a/relu_pool_proj -> inception_5a/pool_proj (in-place)
I1019 23:01:59.342633 23975 net.cpp:155] Setting up inception_5a/relu_pool_proj
I1019 23:01:59.342643 23975 net.cpp:163] Top shape: 16 128 10 10 (204800)
I1019 23:01:59.342649 23975 layer_factory.hpp:76] Creating layer inception_5a/output
I1019 23:01:59.342658 23975 net.cpp:110] Creating Layer inception_5a/output
I1019 23:01:59.342664 23975 net.cpp:477] inception_5a/output <- inception_5a/1x1
I1019 23:01:59.342670 23975 net.cpp:477] inception_5a/output <- inception_5a/3x3
I1019 23:01:59.342679 23975 net.cpp:477] inception_5a/output <- inception_5a/5x5
I1019 23:01:59.342686 23975 net.cpp:477] inception_5a/output <- inception_5a/pool_proj
I1019 23:01:59.342694 23975 net.cpp:433] inception_5a/output -> inception_5a/output
I1019 23:01:59.342703 23975 net.cpp:155] Setting up inception_5a/output
I1019 23:01:59.342711 23975 net.cpp:163] Top shape: 16 832 10 10 (1331200)
I1019 23:01:59.342717 23975 layer_factory.hpp:76] Creating layer inception_5a/output_inception_5a/output_0_split
I1019 23:01:59.342725 23975 net.cpp:110] Creating Layer inception_5a/output_inception_5a/output_0_split
I1019 23:01:59.342732 23975 net.cpp:477] inception_5a/output_inception_5a/output_0_split <- inception_5a/output
I1019 23:01:59.342739 23975 net.cpp:433] inception_5a/output_inception_5a/output_0_split -> inception_5a/output_inception_5a/output_0_split_0
I1019 23:01:59.342751 23975 net.cpp:433] inception_5a/output_inception_5a/output_0_split -> inception_5a/output_inception_5a/output_0_split_1
I1019 23:01:59.342761 23975 net.cpp:433] inception_5a/output_inception_5a/output_0_split -> inception_5a/output_inception_5a/output_0_split_2
I1019 23:01:59.342769 23975 net.cpp:433] inception_5a/output_inception_5a/output_0_split -> inception_5a/output_inception_5a/output_0_split_3
I1019 23:01:59.342778 23975 net.cpp:155] Setting up inception_5a/output_inception_5a/output_0_split
I1019 23:01:59.342785 23975 net.cpp:163] Top shape: 16 832 10 10 (1331200)
I1019 23:01:59.342792 23975 net.cpp:163] Top shape: 16 832 10 10 (1331200)
I1019 23:01:59.342797 23975 net.cpp:163] Top shape: 16 832 10 10 (1331200)
I1019 23:01:59.342804 23975 net.cpp:163] Top shape: 16 832 10 10 (1331200)
I1019 23:01:59.342810 23975 layer_factory.hpp:76] Creating layer inception_5b/1x1
I1019 23:01:59.342820 23975 net.cpp:110] Creating Layer inception_5b/1x1
I1019 23:01:59.342826 23975 net.cpp:477] inception_5b/1x1 <- inception_5a/output_inception_5a/output_0_split_0
I1019 23:01:59.342834 23975 net.cpp:433] inception_5b/1x1 -> inception_5b/1x1
I1019 23:01:59.343942 23975 net.cpp:155] Setting up inception_5b/1x1
I1019 23:01:59.343960 23975 net.cpp:163] Top shape: 16 384 10 10 (614400)
I1019 23:01:59.343977 23975 layer_factory.hpp:76] Creating layer inception_5b/relu_1x1
I1019 23:01:59.343986 23975 net.cpp:110] Creating Layer inception_5b/relu_1x1
I1019 23:01:59.343993 23975 net.cpp:477] inception_5b/relu_1x1 <- inception_5b/1x1
I1019 23:01:59.344003 23975 net.cpp:419] inception_5b/relu_1x1 -> inception_5b/1x1 (in-place)
I1019 23:01:59.344185 23975 net.cpp:155] Setting up inception_5b/relu_1x1
I1019 23:01:59.344197 23975 net.cpp:163] Top shape: 16 384 10 10 (614400)
I1019 23:01:59.344204 23975 layer_factory.hpp:76] Creating layer inception_5b/3x3_reduce
I1019 23:01:59.344215 23975 net.cpp:110] Creating Layer inception_5b/3x3_reduce
I1019 23:01:59.344223 23975 net.cpp:477] inception_5b/3x3_reduce <- inception_5a/output_inception_5a/output_0_split_1
I1019 23:01:59.344230 23975 net.cpp:433] inception_5b/3x3_reduce -> inception_5b/3x3_reduce
I1019 23:01:59.345235 23975 net.cpp:155] Setting up inception_5b/3x3_reduce
I1019 23:01:59.345249 23975 net.cpp:163] Top shape: 16 192 10 10 (307200)
I1019 23:01:59.345259 23975 layer_factory.hpp:76] Creating layer inception_5b/relu_3x3_reduce
I1019 23:01:59.345268 23975 net.cpp:110] Creating Layer inception_5b/relu_3x3_reduce
I1019 23:01:59.345275 23975 net.cpp:477] inception_5b/relu_3x3_reduce <- inception_5b/3x3_reduce
I1019 23:01:59.345283 23975 net.cpp:419] inception_5b/relu_3x3_reduce -> inception_5b/3x3_reduce (in-place)
I1019 23:01:59.345340 23975 net.cpp:155] Setting up inception_5b/relu_3x3_reduce
I1019 23:01:59.345350 23975 net.cpp:163] Top shape: 16 192 10 10 (307200)
I1019 23:01:59.345356 23975 layer_factory.hpp:76] Creating layer inception_5b/3x3
I1019 23:01:59.345374 23975 net.cpp:110] Creating Layer inception_5b/3x3
I1019 23:01:59.345382 23975 net.cpp:477] inception_5b/3x3 <- inception_5b/3x3_reduce
I1019 23:01:59.345391 23975 net.cpp:433] inception_5b/3x3 -> inception_5b/3x3
I1019 23:01:59.347234 23975 net.cpp:155] Setting up inception_5b/3x3
I1019 23:01:59.347251 23975 net.cpp:163] Top shape: 16 384 10 10 (614400)
I1019 23:01:59.347261 23975 layer_factory.hpp:76] Creating layer inception_5b/relu_3x3
I1019 23:01:59.347272 23975 net.cpp:110] Creating Layer inception_5b/relu_3x3
I1019 23:01:59.347280 23975 net.cpp:477] inception_5b/relu_3x3 <- inception_5b/3x3
I1019 23:01:59.347290 23975 net.cpp:419] inception_5b/relu_3x3 -> inception_5b/3x3 (in-place)
I1019 23:01:59.347354 23975 net.cpp:155] Setting up inception_5b/relu_3x3
I1019 23:01:59.347364 23975 net.cpp:163] Top shape: 16 384 10 10 (614400)
I1019 23:01:59.347370 23975 layer_factory.hpp:76] Creating layer inception_5b/5x5_reduce
I1019 23:01:59.347383 23975 net.cpp:110] Creating Layer inception_5b/5x5_reduce
I1019 23:01:59.347388 23975 net.cpp:477] inception_5b/5x5_reduce <- inception_5a/output_inception_5a/output_0_split_2
I1019 23:01:59.347396 23975 net.cpp:433] inception_5b/5x5_reduce -> inception_5b/5x5_reduce
I1019 23:01:59.347779 23975 net.cpp:155] Setting up inception_5b/5x5_reduce
I1019 23:01:59.347792 23975 net.cpp:163] Top shape: 16 48 10 10 (76800)
I1019 23:01:59.347801 23975 layer_factory.hpp:76] Creating layer inception_5b/relu_5x5_reduce
I1019 23:01:59.347810 23975 net.cpp:110] Creating Layer inception_5b/relu_5x5_reduce
I1019 23:01:59.347817 23975 net.cpp:477] inception_5b/relu_5x5_reduce <- inception_5b/5x5_reduce
I1019 23:01:59.347825 23975 net.cpp:419] inception_5b/relu_5x5_reduce -> inception_5b/5x5_reduce (in-place)
I1019 23:01:59.347888 23975 net.cpp:155] Setting up inception_5b/relu_5x5_reduce
I1019 23:01:59.347898 23975 net.cpp:163] Top shape: 16 48 10 10 (76800)
I1019 23:01:59.347904 23975 layer_factory.hpp:76] Creating layer inception_5b/5x5
I1019 23:01:59.347913 23975 net.cpp:110] Creating Layer inception_5b/5x5
I1019 23:01:59.347919 23975 net.cpp:477] inception_5b/5x5 <- inception_5b/5x5_reduce
I1019 23:01:59.347929 23975 net.cpp:433] inception_5b/5x5 -> inception_5b/5x5
I1019 23:01:59.348357 23975 net.cpp:155] Setting up inception_5b/5x5
I1019 23:01:59.348476 23975 net.cpp:163] Top shape: 16 128 10 10 (204800)
I1019 23:01:59.348492 23975 layer_factory.hpp:76] Creating layer inception_5b/relu_5x5
I1019 23:01:59.348510 23975 net.cpp:110] Creating Layer inception_5b/relu_5x5
I1019 23:01:59.348518 23975 net.cpp:477] inception_5b/relu_5x5 <- inception_5b/5x5
I1019 23:01:59.348528 23975 net.cpp:419] inception_5b/relu_5x5 -> inception_5b/5x5 (in-place)
I1019 23:01:59.348712 23975 net.cpp:155] Setting up inception_5b/relu_5x5
I1019 23:01:59.348726 23975 net.cpp:163] Top shape: 16 128 10 10 (204800)
I1019 23:01:59.348731 23975 layer_factory.hpp:76] Creating layer inception_5b/pool
I1019 23:01:59.348738 23975 layer_factory.cpp:60] CUDNN does not support padding or multiple tops. Using Caffe's own pooling layer.
I1019 23:01:59.348747 23975 net.cpp:110] Creating Layer inception_5b/pool
I1019 23:01:59.348753 23975 net.cpp:477] inception_5b/pool <- inception_5a/output_inception_5a/output_0_split_3
I1019 23:01:59.348762 23975 net.cpp:433] inception_5b/pool -> inception_5b/pool
I1019 23:01:59.348773 23975 net.cpp:155] Setting up inception_5b/pool
I1019 23:01:59.348779 23975 net.cpp:163] Top shape: 16 832 10 10 (1331200)
I1019 23:01:59.348785 23975 layer_factory.hpp:76] Creating layer inception_5b/pool_proj
I1019 23:01:59.348796 23975 net.cpp:110] Creating Layer inception_5b/pool_proj
I1019 23:01:59.348803 23975 net.cpp:477] inception_5b/pool_proj <- inception_5b/pool
I1019 23:01:59.348812 23975 net.cpp:433] inception_5b/pool_proj -> inception_5b/pool_proj
I1019 23:01:59.349730 23975 net.cpp:155] Setting up inception_5b/pool_proj
I1019 23:01:59.349745 23975 net.cpp:163] Top shape: 16 128 10 10 (204800)
I1019 23:01:59.349756 23975 layer_factory.hpp:76] Creating layer inception_5b/relu_pool_proj
I1019 23:01:59.349766 23975 net.cpp:110] Creating Layer inception_5b/relu_pool_proj
I1019 23:01:59.349772 23975 net.cpp:477] inception_5b/relu_pool_proj <- inception_5b/pool_proj
I1019 23:01:59.349781 23975 net.cpp:419] inception_5b/relu_pool_proj -> inception_5b/pool_proj (in-place)
I1019 23:01:59.349849 23975 net.cpp:155] Setting up inception_5b/relu_pool_proj
I1019 23:01:59.349859 23975 net.cpp:163] Top shape: 16 128 10 10 (204800)
I1019 23:01:59.349865 23975 layer_factory.hpp:76] Creating layer inception_5b/output
I1019 23:01:59.349874 23975 net.cpp:110] Creating Layer inception_5b/output
I1019 23:01:59.349880 23975 net.cpp:477] inception_5b/output <- inception_5b/1x1
I1019 23:01:59.349889 23975 net.cpp:477] inception_5b/output <- inception_5b/3x3
I1019 23:01:59.349896 23975 net.cpp:477] inception_5b/output <- inception_5b/5x5
I1019 23:01:59.349903 23975 net.cpp:477] inception_5b/output <- inception_5b/pool_proj
I1019 23:01:59.349910 23975 net.cpp:433] inception_5b/output -> inception_5b/output
I1019 23:01:59.349920 23975 net.cpp:155] Setting up inception_5b/output
I1019 23:01:59.349928 23975 net.cpp:163] Top shape: 16 1024 10 10 (1638400)
I1019 23:01:59.349934 23975 layer_factory.hpp:76] Creating layer pool5/7x7_s1
I1019 23:01:59.349946 23975 net.cpp:110] Creating Layer pool5/7x7_s1
I1019 23:01:59.349951 23975 net.cpp:477] pool5/7x7_s1 <- inception_5b/output
I1019 23:01:59.349959 23975 net.cpp:433] pool5/7x7_s1 -> pool5/7x7_s1
I1019 23:01:59.350019 23975 net.cpp:155] Setting up pool5/7x7_s1
I1019 23:01:59.350029 23975 net.cpp:163] Top shape: 16 1024 4 4 (262144)
I1019 23:01:59.350035 23975 layer_factory.hpp:76] Creating layer pool5/drop_7x7_s1
I1019 23:01:59.350060 23975 net.cpp:110] Creating Layer pool5/drop_7x7_s1
I1019 23:01:59.350072 23975 net.cpp:477] pool5/drop_7x7_s1 <- pool5/7x7_s1
I1019 23:01:59.350080 23975 net.cpp:419] pool5/drop_7x7_s1 -> pool5/7x7_s1 (in-place)
I1019 23:01:59.350098 23975 net.cpp:155] Setting up pool5/drop_7x7_s1
I1019 23:01:59.350106 23975 net.cpp:163] Top shape: 16 1024 4 4 (262144)
I1019 23:01:59.350112 23975 layer_factory.hpp:76] Creating layer map-score
I1019 23:01:59.350126 23975 net.cpp:110] Creating Layer map-score
I1019 23:01:59.350131 23975 net.cpp:477] map-score <- pool5/7x7_s1
I1019 23:01:59.350142 23975 net.cpp:433] map-score -> map-score
I1019 23:01:59.351776 23975 net.cpp:155] Setting up map-score
I1019 23:01:59.351796 23975 net.cpp:163] Top shape: 16 21 4 4 (5376)
I1019 23:01:59.351815 23975 layer_factory.hpp:76] Creating layer map-score-up
I1019 23:01:59.351831 23975 net.cpp:110] Creating Layer map-score-up
I1019 23:01:59.351838 23975 net.cpp:477] map-score-up <- map-score
I1019 23:01:59.351850 23975 net.cpp:433] map-score-up -> map-score-up
I1019 23:01:59.640053 23975 net.cpp:155] Setting up map-score-up
I1019 23:01:59.640101 23975 net.cpp:163] Top shape: 16 21 320 320 (34406400)
I1019 23:01:59.640118 23975 layer_factory.hpp:76] Creating layer loss
I1019 23:01:59.640144 23975 net.cpp:110] Creating Layer loss
I1019 23:01:59.640157 23975 net.cpp:477] loss <- map-score-up
I1019 23:01:59.640169 23975 net.cpp:477] loss <- label
I1019 23:01:59.640183 23975 net.cpp:433] loss -> loss
I1019 23:01:59.640214 23975 layer_factory.hpp:76] Creating layer loss
I1019 23:01:59.728155 23975 softmax_loss_layer.cpp:41] Opening file 0__MODELS/bvlc_googlenet/4x4_deconv_128/loss_weight.txt
…
